src/GAT/best_model_gat.pt (torch, 41186 bytes, 9 tensors)

gat1.att_src f4 [1, 8, 32]
00000000: 61de 033e a79d 96be 91be 62be d954 98be
00000010: f74a ab3e 758c b9be 00d1 943e 623c edbc
00000020: 90a1 cbbc 5d74 7d3e cee3 31bd 5f56 5f3e
00000030: 985b 823e 0b9f abbe 26f5 193e 99ee 593d
00000040: 48ee c33d e4eb 913d f27f f43d 8d51 2ebe
00000050: 2a68 84bd 92c6 b13e e4ec 833e c7df fcbc
00000060: 25f6 b0be e8bc 0cbb e6ed 73be 26d6 943e
00000070: 2393 6bbe aa7d 2bbd 6b34 cdbd b7a8 aa3d
00000080: ba66 ad3e 8086 5f3c ec60 4b3e 0ebe 8c3e
00000090: aa20 933e c200 dfbd afaa 80bd 7037 253e
000000a0: 0f58 a5bd f17d 1f3e a8eb 73bd 6d99 72be
000000b0: b51a 073e ba45 133d 31cb 163e b2d5 b73e
000000c0: 6bcd 743e 2dc9 ae3e eb51 873c fb64 9dbe
000000d0: 6bcc 7bbe 37f4 5bbe e6b1 a1be 61ae 2cbe
000000e0: f95a a9be 8ac0 a9be 518d 53be 0b49 b6be
000000f0: 1072 59be 8449 fb3d ff31 983e 87f1 b7bd
00000100: e469 b5bd d77c 393e 8cf5 2cbe 96ff 22be
00000110: 91af 5b3e 77b8 9fbe f560 453d dbdf a23e
00000120: 5786 823d 8c16 a53d 2f3b 4ebe f6be 63bc
00000130: 6d30 0c3d 950f aa3d 426a 003e 41a4 9f3e
00000140: 9d2b 8abe 86db dabb ea2e 2cbe f3ab 8fbe
00000150: 664a f5bb a957 a1be 783d 7b3e 9008 523d
00000160: 5133 3cbe 51a4 363e 9515 afbe cc80 ffbd
00000170: 2f41 56bd 5e63 9bbe 903e 62be 804e 52bd
00000180: 1e6b 8c3e ef98 b33e f5de 623e 556a 52be
00000190: 2355 69be 83da 9f3e 91f8 e53d fb98 da3c
000001a0: 45c2 ef3c 40e7 93be b8f7 01be 1fca b13e
000001b0: 6df8 91bd 30df 163b 9a65 97be e701 4fbe
000001c0: f56f c8bc a035 5cbe 29bb d7bc bfd4 123e
000001d0: 0f18 b6be 994c b73d 1974 74be a8b6 2ebe
000001e0: 871e 013e 486d 923e 718f a8bd a024 1dbe
000001f0: 7928 a6be 077a 3cbe e55e a0be be62 86bd
00000200: 7c37 5c3d 1cde acbe 3b39 a03e 75d0 5e3e
00000210: e812 b5be bfd7 22be 6421 cf3d 3c31 5cbd
00000220: 9673 b3bc 8a86 19be fbef 913e f4d5 42be
00000230: e18a 973e 5447 f43a 81c1 543d 6faa 8d3e
00000240: 112b 1cbd d83b 48be 456e 1bbd 6894 933e
00000250: 4bd1 85be 1acf 853d 6368 b5be 952d 363e
00000260: c394 f23d 6953 bf3b bf5f 103e 66a3 e6bb
00000270: 4b7f 403e c3e3 8fbe cd7f 10bd 275b 163e
00000280: f44c b83e c7f1 363e 1f24 87be 5daf 8b3e
00000290: 6203 78bd dd7b 9cbd 43d0 aabe 5334 20bd
000002a0: 8055 853e f3e7 1b3d 0dcb 4ebe cd35 c63d
000002b0: 8c3f e4bd d263 a83e f00d 9fbe 2c4d cdbd
000002c0: c86a b3be 067c 03be 9053 cb3d 8156 b43e
000002d0: e0a4 2c3d 1f2f b53e 70c7 513d e13e 4b3e
000002e0: 2fd1 913e 8ebc 9c3e c701 44be d7ac ac3e
000002f0: 6490 683e 188c 27be 5043 35be b1a4 99be
00000300: 553e 963d 5f9c 93be dc30 0d3e 9974 d73d
00000310: 3d2b 9fbe 0525 a43d 3dcd a3bc 58f8 1a3e
00000320: 914f 493e 7636 b8be 2da4 a83e bb54 993e
00000330: 3e9a 033e f312 a8be af2d e8bd 80cd b3bd
00000340: 6ff4 9abd a62b 463e bdd8 f53d ec1c 903e
00000350: e1cb 00be fce3 d83d ad29 e83d 3515 98be
00000360: 5e5f b3be 1267 33be 908c 753e 8e9d adbe
00000370: be6b 9fbe 162e 453e 5b19 3c3e e0d7 953e
00000380: 27a6 88be 35cb 83be 08b1 313e 1a2c 9f3e
00000390: f866 533e a32c 1c3d 76dc cf3d 5702 af3e
000003a0: c432 66be 98eb 1abe a9c7 7a3e 3a2e 75be
000003b0: 687f 40be 8586 833e b334 c63d 6ad6 cb3d
000003c0: 2938 0ebe d44a ac3b 8e4f a83e 9659 53be
000003d0: 7085 c1ba c7ce 223e 2579 77be 1a2d b33e
000003e0: 1ba0 2cbe 39a9 8cbd b4f3 a0bd a7ae 67be
000003f0: e548 b5be 0f64 453e ab54 9e3d ec47 acbe
0.128778 -0.29417154 -0.22143008 -0.29752234 0.3345563 -0.36239973 0.29065704 -0.028959457
-0.024857312 0.2475142 -0.043430142 0.21810292 0.25460505 -0.33519778 0.15034923 0.05320606
0.09566933 0.07125071 0.11938466 -0.17023297 -0.0646518 0.3472181 0.2576667 -0.030868424
-0.34562793 -0.0021474902 -0.2382122 0.29069632 -0.23005347 -0.04186789 -0.100197636 0.08332961
0.33867437 0.013642907 0.19861192 0.2748875 0.28735858 -0.108888164 -0.06282555 0.16134429
-0.080734365 0.15575387 -0.05955091 -0.2369134 0.13193782 0.03595517 0.14725949 0.35905224
0.23906486 0.3413786 0.016518554 -0.30741104 -0.24589698 -0.2147988 -0.31581038 -0.16863395
-0.3307722 -0.33154708 -0.20659377 -0.35602602 -0.21234918 0.12269881 0.29725644 -0.089816146
-0.08858088 0.18114029 -0.16890544 -0.15917811 0.21453692 -0.31195423 0.04818817 0.31811413
0.063732795 0.08060941 -0.20139764 -0.013900509 0.03422587 0.08303753 0.12540534 0.31180003
-0.269864 -0.0066790013 -0.16814771 -0.28060874 -0.0074856756 -0.31512192 0.24535167 0.051277697
-0.1837895 0.17836119 -0.34196153 -0.12475738 -0.052308258 -0.3034925 -0.22094178 -0.051344395
0.27425474 0.35077617 0.22155364 -0.20548375 -0.22786383 0.312214 0.11229051 0.026684275
0.02926744 -0.28887367 -0.12692153 0.3472452 -0.071274616 0.0023021214 -0.29569703 -0.2021557
-0.024467448 -0.21504831 -0.026334362 0.14338969 -0.3556523 0.08950157 -0.23872413 -0.17061865
0.12609302 0.28599 -0.08230484 -0.15346003 -0.32452753 -0.18405925 -0.313224 -0.06561802
0.05376385 -0.33763206 0.31293663 0.21759208 -0.35365987 -0.15902613 0.10113791 -0.05375789
-0.021905702 -0.14992729 0.28503403 -0.19026929 0.29598144 0.001863698 0.051942352 0.27669093
-0.03812701 -0.19554079 -0.037946958 0.28824162 -0.2613624 0.06533642 -0.35431203 0.17790826
0.1184478 0.0058388007 0.14099024 -0.0070385216 0.18798558 -0.28103456 -0.03527813 0.1468321
0.3599621 0.17865668 -0.26394746 0.2728223 -0.0605501 -0.076408125 -0.33362016 -0.0391124
0.26041794 0.038063 -0.20194645 0.096782304 -0.11144933 0.32888657 -0.3106532 -0.10024485
-0.35042405 -0.1284028 0.09928048 0.35222247 0.042149425 0.35387513 0.05121559 0.19848205
0.28479907 0.30612606 -0.19141303 0.33725616 0.2271133 -0.16362035 -0.17701459 -0.30008462
0.07336108 -0.2883024 0.1378817 0.10520286 -0.31087676 0.080148734 -0.019995326 0.15133798
0.19659258 -0.3597905 0.32937756 0.29947457 0.12851807 -0.32826957 -0.113368385 -0.087794304
-0.07566153 0.19352588 0.1200423 0.28147066 -0.12577774 0.105903596 0.11336074 -0.2970368
-0.35033697 -0.17519787 0.23979402 -0.33909267 -0.31136888 0.19255862 0.18369047 0.29266262
-0.26689264 -0.25740972 0.17352688 0.31088334 0.20644748 0.038128506 0.101494715 0.34181473
-0.22480303 -0.15128934 0.24490227 -0.23943415 -0.18798602 0.25688568 0.0967802 0.099530056
-0.13888611 0.0052579436 0.32873195 -0.20639643 -0.0014764499 0.15899192 -0.24167307 0.34995347
-0.1685795 -0.06868214 -0.07858983 -0.22625218 -0.35407177 0.1927645 0.07730993 -0.33648622

gat1.att_dst f4 [1, 8, 32]
00000000: 6ef3 64be 9cc8 b63e 1198 fa3d 5cd2 043e
00000010: 590a 53be 8481 13be 5f69 0fbd 4ecf 3abd
00000020: f466 75be 4fa7 113c 93f7 733c 718d c8bc
00000030: 0e04 ee3c 6ade 02be 9c36 9a3d 697c f73d
00000040: 2cb1 36be 186c b7be 612d 353e 8766 893d
00000050: b34c 2fbe 84d9 b13e d537 19be 87c2 713e
00000060: 04eb 2e3e de01 99be 6f5f 653e 5a14 a9be
00000070: 824c 41be 9880 21bd 17d9 70be 3774 b43e
00000080: 08a1 57bd de45 033e 05d3 a3be 27f2 493e
00000090: af19 c2bd 999a 89be 68d2 013d 9cd6 253e
000000a0: 2f62 9e3e 64d6 57be aad0 28be bd09 4a3d
000000b0: e703 a33d 3f80 fc3d d254 3f3e 67bd 7fbd
000000c0: b502 423e d1f8 843e 9807 9bbd 66b8 7f3e
000000d0: 4174 273e 45ac a13e 850c 47be 1b88 29be
000000e0: b802 b1bd b483 baba 459c 533e 9509 48be
000000f0: 672f 2c3e e608 e8bd b333 553e 7b5a b03a
00000100: 037a a0be 11d7 3fbe db56 82be d44f 2a3e
00000110: 117a 6fbe d7d0 0fbc 1515 703d 7510 3fbe
00000120: 2337 b13d e25f b4be d3b2 80be 9b73 a6be
00000130: cc83 bbbd fa61 ecbd b808 fa3c a113 3ebd
00000140: 871e 203e d38c a83e 7955 e83d fefa 01be
00000150: 9d70 acbe b7e8 ea3d 371c 2abe 929b 2f3e
00000160: 7bca 6e3e a0b2 fd3d 32ce ac3e 7b1d af3e
00000170: 09b4 693d 1748 83be 24ec a33e 31ee 21be
00000180: b30d 21be b3b1 983e a36e 8c3e 5464 bb3d
00000190: c3ae d03a 2692 99be 60c8 81bc b8f1 b03e
000001a0: 020b 963d 58b0 253c 44a8 61bd 9b43 e0bd
000001b0: d4f9 513e c014 ca3a d499 673e 859b 31bd
000001c0: 1c08 133e 856e 093e 2d4c 163d 20ca 5e3e
000001d0: 7625 5e3e 6c91 aa3e 7c3c 8b3e 3eaa 96bd
000001e0: a6a7 9abe 1cbe 3a3d 4ac2 82bb 82ae 9abd
000001f0: ceca 23bd 4aee 8a3a 9976 833e bfe3 c23d
00000200: de3b e5bd c4d9 08be bf5e 90bd 950c febd
00000210: f912 a53e d1b3 373e 9bd2 a53e caf5 353a
00000220: c37e 583d 579f de3d 0b76 aebe 77e4 323c
00000230: 0fa9 68bb 55fb 43be aaa5 8cbe e150 a23e
00000240: eb00 943e 8d7a 1d3e dafb af3e 5cac 06be
00000250: 483a 2bbd dde9 f73d 46a4 1fbd caf8 4fbd
00000260: 3fac 96be f5f2 a03d 3146 55be b86e 41bb
00000270: 9016 b43e e3e7 bfbd 6dc5 c5bd 9ae3 543e
00000280: e514 efbd a9fa 2dbc e3f0 ab3e 1945 08be
00000290: 3ba6 80be 948c 43be dea1 a7bd b5ef 21be
000002a0: da95 33be 31eb 053e a280 273d ba6e c9bd
000002b0: 10d3 8cbe f98e c5bd 612a 0dbe c2b9 cdbd
000002c0: 33a4 a5be 23de 6d3d f774 84be 363d 8dbe
000002d0: 58c7 94be ed40 0b3e c25b 54be 9a70 09be
000002e0: 1d38 8e3e 572b 383e 4c07 493e f811 afbe
000002f0: 0909 81be a7dd f6bd 7a9d 963e 7a91 7f3c
00000300: e219 87be 65ba 683b 9fc9 8cbe 0b77 73bd
00000310: 3ccd a5bd 356c 9e3e 4d54 c13d 18fb 2dbd
00000320: f19e 253d 5602 b1bd 1f8f 013e fcac 023e
00000330: 5be7 a03d ef5a 00be d3f0 9b3e 4b5f fdbc
00000340: 502d 00be cd04 5e3e 5169 943e 331a b83e
00000350: f092 b63d dc2d dabd 5509 2f3e 79e3 9c3e
00000360: 0244 b5be a322 bfbc b805 74be 8135 403d
00000370: eac8 093e 6ce1 5fbd e0db 0cbc e030 183e
00000380: 0838 24bd d84a 99be b771 913e c645 2dbe
00000390: b863 94bc bd88 4f3c 447d b4ba 704b adbe
000003a0: 8b9d 1b3e 5bde 19be d35a 33be 347f 893d
000003b0: d29e 34be 97f9 1cbe ece1 d6bd 8a82 f5bd
000003c0: b85d 0bbe abe3 a1bd 3114 9a3d 143c 93be
000003d0: e7a6 55be f97b 7d3a 09fa ed3c 8ca5 403e
000003e0: dc2c 7cbe 9ad1 c83d 0b10 473e 41db 413e
000003f0: 3875 abbe 292e fabd cd37 9dbe 868b 60be
-0.22358486 0.35699928 0.122360356 0.1297087 -0.20609416 -0.14404875 -0.0350126 -0.045607857
-0.23965055 0.008889987 0.014890569 -0.024481507 0.029054668 -0.12780157 0.07529947 0.12084276
-0.17841023 -0.35824656 0.17693092 0.06709009 -0.17119102 0.34736264 -0.14962704 0.23609363
0.17081839 -0.29884237 0.22399686 -0.3302334 -0.18876842 -0.039429277 -0.23520313 0.35244915
-0.052643806 0.12819621 -0.31996933 0.1972128 -0.09477555 -0.2687576 0.0316948 0.16195148
0.30934283 -0.21077877 -0.16485849 0.049325693 0.07959729 0.123291485 0.186847 -0.062436488
0.18946345 0.25971082 -0.07569808 0.24972686 0.16352941 0.31576744 -0.1943837 -0.16555826
-0.08643097 -0.0014229924 0.20665081 -0.19534905 0.16814958 -0.11329822 0.20820503 0.00134547
-0.31343088 -0.18734385 -0.2545689 0.16632015 -0.23386408 -0.008777819 0.058613855 -0.18658622
0.086530946 -0.35229403 -0.25136432 -0.32510075 -0.09155998 -0.11542125 0.030521736 -0.04640544
0.15636645 0.3291994 0.113444276 -0.12693402 -0.33679667 0.11470168 -0.16612326 0.17149189
0.23319428 0.12387586 0.33751065 0.3420218 0.05705646 -0.25640938 0.32016098 -0.15813519
-0.15727882 0.29823074 0.2742816 0.091499954 0.0015921224 -0.29994315 -0.015842617 0.34559417
0.07326318 0.010112844 -0.05509211 -0.10950395 0.20505458 0.0015417561 0.22617275 -0.043361206
0.14358562 0.13421066 0.03669374 0.21756792 0.21693978 0.33314073 0.27194583 -0.0735669
-0.3020603 0.04559146 -0.003990446 -0.07552816 -0.03998833 0.001059958 0.2567642 0.09516095
-0.111930594 -0.13364321 -0.070493214 -0.124047436 0.32241037 0.17939688 0.32387242 0.00069412275
0.052855264 0.108702354 -0.34074435 0.010918728 -0.0035501157 -0.19138844 -0.27470142 0.3170233
0.2890695 0.1537878 0.34371835 -0.13151687 -0.04180363 0.12105153 -0.038975023 -0.050774373
-0.29428288 0.078588404 -0.20827557 -0.0029515456 0.35173464 -0.09370401 -0.096567966 0.20789948
-0.11673907 -0.010618844 0.3358222 -0.13307609 -0.25126824 -0.19096595 -0.081851706 -0.15814097
-0.17537633 0.13078 0.04089416 -0.098355725 -0.27504778 -0.096464105 -0.13785698 -0.10045196
-0.32351837 0.058073174 -0.25870487 -0.27585763 -0.29058337 0.13598986 -0.20738128 -0.1342186
0.27777186 0.17985283 0.1963169 -0.34193397 -0.25202206 -0.120539956 0.2941702 0.015598649
-0.26386935 0.003551149 -0.27497575 -0.0594397 -0.08095786 0.3094193 0.09439907 -0.04247579
0.04043478 -0.08643024 0.12652253 0.12761301 0.078566276 -0.12534688 0.30457172 -0.030929228
-0.12517285 0.21681519 0.289866 0.35957488 0.08914745 -0.10653278 0.17093404 0.30642298
-0.35403448 -0.023331946 -0.23830307 0.046926025 0.13455549 -0.05465834 -0.008597344 0.14862394
-0.040092498 -0.29939914 0.2840707 -0.16921148 -0.018113956 0.012666878 -0.0013770242 -0.33846617
0.15196817 -0.15026228 -0.17515115 0.06713715 -0.1763871 -0.15329586 -0.1049231 -0.11987789
-0.1360997 -0.07904752 0.075233825 -0.28756773 -0.2086445 0.00096696574 0.02904989 0.18813151
-0.24626487 0.09805603 0.19439714 0.18931295 -0.33487868 -0.122158356 -0.30706635 -0.21928224

gat1.bias f4 [256]
00000000: 11c7 8c3c cc7e 8dbc 4695 89bc 7bd2 81bc
00000010: 94d2 8d3c a6ea 853c eb06 58bc 5b14 8a3c
00000020: 2cf8 8f3c 8ae5 573c 703d 8cbc bc8e 623c
00000030: aafb 873c 6d11 9ebb ab0b 88bc de91 8ebc
00000040: 696c 8f3c b494 8d3c e911 8e3c 682d 893c
00000050: ea69 5f3c 1577 86bc 011b 8d3c 88fc 8ebc
00000060: 0bd9 8ebc 00ae 8dbc dec7 883c 66ef 803c
00000070: 020d 8ebc c5c3 823c 7f60 8ebc 85f2 8e3c
00000080: 28c4 8dbc 2f08 90bc 8894 5dbc 168e 8bbc
00000090: f697 8d3c add1 70bc 4e35 8abc 4c71 89bc
000000a0: 2869 8f3c 169f 8a3c 3186 8abc f808 8c3c
000000b0: 70d6 8abc 87ba 8b3c 0c3c 8f3c 91b1 8f3c
000000c0: 8fae 87bc aa30 883c a3c6 8c3c 2990 8cbc
000000d0: 78bd 8d3c 3434 8b3c 7ca3 213c 5779 873c
000000e0: 5477 903c f15b 843c 596a 8ebc b6e5 8ebc
000000f0: 3a87 db3b cf97 893c db55 8b3c 7f4a 893c
00000100: ef49 82bc 5de2 89bc aaac 8cbc f7de 1bbc
00000110: ba5b 8c3c ab2f 7dbc 4f31 8f3c a456 8d3c
00000120: 4dda 8c3c cc5c 8abc 4966 873c 6d22 8dbc
00000130: 5cea 8c3c 4ffb 903c 7364 8ebc 2713 913c
00000140: 1412 8abc 3392 d93b 8e91 88bc 63c3 89bc
00000150: d93d 8e3c c85b 8b3c 7ea7 5abb d85d 88bc
00000160: ca2c 8e3c 7767 943c cbb2 803c 23e2 8abc
00000170: b16c 323c eea5 8cbc 1801 8dbc ac78 793c
00000180: 4cfc 8bbc 34e8 863c 4b90 843c 95c0 8a3c
00000190: de91 89bc d4bd 8c3c 6035 8b3c 6b81 89bc
000001a0: 32ef 8abc 267a 893c bbae 8dbc bd06 8b3c
000001b0: ee0e 8a3c 3390 89bc d570 8a3c eac4 8dbc
000001c0: f9c7 893c ac90 853c b5af 8c3c ab7e 8c3c
000001d0: ea5c 893c 4809 8b3c 230b 8cbc 6190 8cbc
000001e0: e73a 8c3c 5f1e 8c3c 56b7 69bc 14eb 8bbc
000001f0: 8ef3 8b3c 5443 863c 0848 8abc 71b6 8e3c
00000200: 0128 893c dabc 8cbc 4497 85bc 6ba3 8abc
00000210: ae81 8cbc bd10 8cbc 7dfd 883c cc1e 88bc
00000220: aa88 833c ee8d 8bbc 5095 893c eb27 6ebc
00000230: 37e1 89bc 9f41 8b3c aea4 8cbc 0cfb 8c3c
00000240: 91fc 87bc 35d7 883c a5ab 893c 38eb 883c
00000250: 4083 8abc 9c77 70bc b213 893c cbd8 853c
00000260: dcb6 8c3c f814 893c 05e8 88bc 77cf 81bc
00000270: c3c9 8ebc d208 8b3c 8816 593c 0a50 4dbc
00000280: 1016 8d3c f438 8d3c 356d 863c c2a4 893c
00000290: d6f6 8d3c 23fe 163c 55ee 8bbc 62cf 86bc
000002a0: 6b10 8f3c 8c8f 7b3c a505 8dbc 2f96 893c
000002b0: 7474 6abb b429 87bc 4aa7 8e3c 3f86 8f3c
000002c0: 9916 5d3c 6820 88bc 3fc1 863c 7a9d 8c3c
000002d0: 5dfc 763c 5739 89bc 05ec 893c 92e8 8dbc
000002e0: 7925 8cbc af24 8c3c 4c62 863c 7bf0 75bc
000002f0: fbc4 8d3c eb12 8a3c f2bc 8cbc f53f 8d3c
00000300: 910d 853c 3dbc 8d3c a3ff 8abc 2560 8e3c
00000310: 2b5a 86bc db42 8dbc e509 8ebc a4af 883c
00000320: f64c 86bc bcd2 823c c011 8b3c addf 8e3c
00000330: 8a4a 8abc 0d08 8bbc 16ad 883c f387 903c
00000340: 9f0b 883c a642 8b3c 487a 8d3c f48c 933c
00000350: 21ca 8cbc 7320 8fbc afdb 8ebc 8463 693c
00000360: 393b 053c 8db5 8b3c e617 3fbc 3859 8fbc
00000370: 7930 e43b 7d29 903c 5e6c 8a3c 7ddb 8bbc
00000380: a6b5 8dbc 5dc3 8b3c 9925 8bbc 8edc 8dbc
00000390: 94cb 89bc 829b 8e3c e66d 90bc 56a0 8a3c
000003a0: 3729 893c d1ad 883c cd2c 773c 1bc3 8b3c
000003b0: 843d 20bc 4c1d 913c cefe 8a3c 79e6 8c3c
000003c0: 35f1 783c 4922 8dbc fe64 903c df39 88bc
000003d0: f0f0 913c ab3a 88bc 4f17 8dbc 4a72 893c
000003e0: 0035 883c 06f2 8abc 3fd2 85bc 84ef 913c
000003f0: e650 8b3c d89b 8bbc 4186 8c3c e388 8e3c
0.017184766 -0.017272376 -0.016794812 -0.015847435 0.017312326 0.01634724 -0.013185243 0.01685541
0.017574392 0.013177285 -0.01711914 0.013827976 0.016599495 -0.0048238547 -0.016607126 -0.01740354
0.017507749 0.017282821 0.017342525 0.016745284 0.013636092 -0.016414205 0.01722479 -0.0174544
-0.017437479 -0.017294884 0.016696867 0.015739154 -0.017340187 0.01596249 -0.017379997 0.017449627
-0.017305449 -0.017582027 -0.013524182 -0.017035525 0.017284375 -0.014698428 -0.01687112 -0.016777657
0.017506197 0.016921561 -0.01690969 0.01709412 -0.016947955 0.017056717 0.017484687 0.017540725
-0.016562728 0.016624767 0.017184561 -0.017158585 0.01730226 0.016992666 0.009865638 0.016537352
0.017635025 0.016157122 -0.017384695 -0.01744352 0.00669947 0.01679602 0.017008713 0.016759155
-0.015904395 -0.016831571 -0.017172176 -0.009513608 0.017133582 -0.015453259 0.017479567 0.017253228
0.017193938 -0.016889952 0.016528266 -0.01722833 0.017201595 0.017697958 -0.017381882 0.017709328
-0.016854323 0.0066397428 -0.016670968 -0.0168168 0.017363476 0.017011538 -0.0033363993 -0.01664631
0.017355341 0.018115742 0.015710255 -0.016953534 0.010890172 -0.017168965 -0.017212436 0.015226524
-0.017088078 0.016468145 0.016182085 0.016937533 -0.016793188 0.01718036 0.016993225 -0.016785344
-0.01695976 0.016781878 -0.017295232 0.016970987 0.016852822 -0.016792392 0.016899506 -0.01730581
0.016818987 0.016304336 0.017173627 0.017150244 0.016767938 0.0169722 -0.017095154 -0.017158689
0.01711793 0.017104326 -0.014264902 -0.017079867 0.01708391 0.016389526 -0.01688005 0.01742098
0.016742708 -0.017179895 -0.01630748 -0.016923627 -0.01715168 -0.017097825 0.016722435 -0.016616248
0.016056377 -0.01703545 0.01679483 -0.014535884 -0.016831024 0.016999064 -0.01716837 0.017209552
-0.016599925 0.016704181 0.01680548 0.016713724 -0.016908288 -0.014676955 0.016733024 0.016338727
0.017177038 0.016733631 -0.016712198 -0.015845997 -0.017430192 0.01697198 0.013250001 -0.01253129
0.017222434 0.017239071 0.016409496 0.016802195 0.017329615 0.009215864 -0.017081419 -0.01645631
0.017463883 0.015354048 -0.017214606 0.016795246 -0.0035774978 -0.016499378 0.017413754 0.017520068
0.013494157 -0.016617015 0.016449569 0.017164934 0.0150748165 -0.016750975 0.016836176 -0.017322812
-0.017107712 0.017107336 0.016404293 -0.015010948 0.017305842 0.016854724 -0.01717994 0.017242411
0.01624182 0.017301673 -0.0169676 0.01737983 -0.016400417 -0.017243793 -0.017338702 0.016685314
-0.01639412 0.015969627 0.016976237 0.017440641 -0.016881246 -0.016971612 0.016684096 0.01764295
0.016607104 0.016999554 0.017270222 0.018011548 -0.017186226 -0.017471528 -0.017438738 0.014244918
0.008131796 0.017054344 -0.011663413 -0.017498598 0.006963786 0.017597908 0.016897377 -0.017072434
-0.01729853 0.01706093 -0.016985701 -0.017317083 -0.016820706 0.017408136 -0.017630529 0.016922157
0.016743286 0.016684445 0.015086365 0.017060807 -0.0097802915 0.017714165 0.016967203 0.017199742
0.015194227 -0.017228262 0.017626282 -0.016629158 0.017815083 -0.016629538 -0.017223028 0.01677813
0.016626835 -0.016961109 -0.016335605 0.017814405 0.017006349 -0.017042086 0.017153861 0.017399257

gat1.lin.weight f4 [256, 1]
00000000: 2a2f c83d f6b3 febd 992a 6c3d 0804 4c3d
00000010: d23f 023e 4111 fdbd 6479 f63d 4250 65bd
00000020: defe 913d 1d02 223e 2130 05bd 687c 293c
00000030: 7d69 84bc 5e78 11be b49e 743d f45e 12be
00000040: dcd4 e03d 6d28 023e f908 263e aeff e4bc
00000050: 06d9 00be bfdd 333d 36b7 cf3d a561 25be
00000060: 2420 5abd a379 9ebd 3cbe 03bc 7b43 62bd
00000070: 4f73 a4bd cd22 52bd d1e7 23be 79f3 0e3e
00000080: 463d ed3d e43c 44bc 29a3 d0bc 0e8f 55bd
00000090: 4ed0 16be 6b23 ffbd 2a3b 863d b804 92bd
000000a0: bfb9 cdbd d3a2 c9bc b634 e0bc bb5a 07bd
000000b0: a71d 583c 0aeb 2ebd 0a23 60bd 8812 afbd
000000c0: a191 e1bd 817c dd3d c2a7 90bd 9ebd 5c3d
000000d0: 729d 47bd f536 093c 5bc5 053e 544f 673d
000000e0: 1362 e4bd 562c 693d df39 133e 9ff2 5b3d
000000f0: 3957 c53d 6483 063e 6f32 19bd 3296 b53c
00000100: 3020 acbd 19f5 a7bc dc6a ff3d e5c7 aa3d
00000110: 4398 e1bd 36b8 cebd 2b61 bdbd 256b 27be
00000120: f3ab 04be 219e c9bc a748 bc3d 927a 193d
00000130: 1a88 02be b5d2 e7bd 4cb9 763d 8db0 01be
00000140: 4950 29bb af7d 5d3d 8f28 5abd 5697 e5b9
00000150: 15a4 dbbc 8264 97bc 3f62 b3bd 15ae f3bd
00000160: 0646 03be 6d3f bebd 17e0 103e fd7d 67bd
00000170: f317 a7bd 8c1b 563d 2705 6e3d 2476 803d
00000180: a394 fc3d 29fb c73d 66dc 03be 02b6 023b
00000190: 550c 9a3d 922f b13b 91da 8cbd cee7 043e
000001a0: 04c7 75bd 862f c1bd 0bb5 11be 1fe7 c73c
000001b0: 27e6 8f3d e70d be3c 32a5 603c 9a24 05be
000001c0: 1ec7 f9bd fe03 79bc e021 f83d e965 c03d
000001d0: 0cd4 cdbd 550c b3bb aa64 03be ae2d afbd
000001e0: 24a1 263d f5d5 c93d 87c7 d13d 08d5 15be
000001f0: dae2 b63d 819c e3bd af8a 213d 0ba4 f13d
00000200: c923 13bc 3732 0f3e 110d e3bd 06b0 34bd
00000210: d3d3 b93d acd1 aebc 3b8a 90bc a9dc 4abd
00000220: aa7b b63d e3dd a73d 864f 193d bfe6 89bd
00000230: 133d debd 597a 8d3b a6f1 543d 059f 8dbd
00000240: ab7e f0bc d796 b23d e617 a8ba 1d18 403c
00000250: 24ee f7bc d259 edbd 8edb 0fbe 07e7 71bd
00000260: 5ad4 adbd bde5 043d d329 f7bc fa6b 14bd
00000270: 46e7 153e a039 1b3d 7d13 b23d 13db 60bd
00000280: 6f40 2dbd 686f 933d e520 e3bd a28d a7bd
00000290: d2cc 233c 4e65 7cbd 98ae 04be 0a71 983d
000002a0: e2e3 0d3e 7984 2b3c 5491 30bd 165f ffbd
000002b0: bfc6 88bd bbfc 493d 7106 6c3d 66c4 03bd
000002c0: 72a3 99bd e69a 833d f585 d8bd 089c e93d
000002d0: 3cd1 34bd 8a8a df3b 94fb 64bc 021e 893c
000002e0: a9eb 05bd e811 013e dc50 83bc 3bf9 033e
000002f0: fa16 233e 6bfa 78bd 3b37 00be e19f e83d
00000300: 0832 ce3d 8c6e fbbd 4c51 5cba d99a 14be
00000310: 3975 dabd e74d d53c 3f95 4e3d 8396 323c
00000320: 7dcc 07bd 368a 073e fc86 9a3b 1a1e d1bd
00000330: 51fe 45bc 95eb 543d cb11 2a3d 59e7 b6bd
00000340: b177 343d bd23 b9bd 1a6d 04be 05f8 c1bd
00000350: e685 1f3e 7379 e73d 334b 083e 06ae b83d
00000360: 8d31 f23d dcdd c4bc 1dc6 a1bd 0206 b83d
00000370: 8d2d 72bd f0a1 dfbd 51c3 7fbd 568a 073d
00000380: 8112 963d 2d2d 86bd 6fff 9ebd 7166 eb3c
00000390: 3262 99bd 5922 b7bd 3c0d 753d 8be3 ccbc
000003a0: caa7 f63d 2382 093e 7bbd 263d f00c 1f3d
000003b0: 8064 b83c 315e 213c 24d6 79bc 7ca1 193b
000003c0: 05a0 133d 27f2 093e 40b9 d7bc 2017 59bd
000003d0: f838 dfbc 311f 71bd cd48 9f3c 22f7 d63d
000003e0: 8a85 d33d 20d9 853d 19f2 c1bd d4ba 99bd
000003f0: 8d14 21bd 8539 84bc 2f8a dc3b 123f 12be
0.09774621 -0.124366686 0.05765781 0.049808532 0.12719658 -0.123568065 0.12034872 -0.055984743
0.0712869 0.15821119 -0.032516602 0.010344602 -0.016163582 -0.14206073 0.059721664 -0.14294034
0.109781 0.12710734 0.1621436 -0.027953949 -0.12582788 0.043912645 0.101423666 -0.1615053
-0.053253308 -0.07738044 -0.008040961 -0.055240136 -0.08029806 -0.05130272 -0.160064 0.13960065
0.115839526 -0.011977408 -0.025468426 -0.05213838 -0.147279 -0.12457927 0.065542534 -0.07129806
-0.10045194 -0.024613773 -0.027368885 -0.03304551 0.013190663 -0.04270462 -0.054720916 -0.085484564
-0.11014105 0.10814763 -0.07063247 0.05389177 -0.048734136 0.008374919 0.13063566 0.056472138
-0.11151519 0.056927048 0.14377545 0.05369818 0.09635777 0.13136059 -0.037401613 0.022166345
-0.08404577 -0.020502614 0.12471554 0.08338908 -0.1101537 -0.10093729 -0.09247049 -0.16349466
-0.12956218 -0.024611535 0.09193545 0.037470408 -0.12747231 -0.11319486 0.060235307 -0.12665005
-0.0025835207 0.05407494 -0.053261336 -0.00043791038 -0.026811639 -0.018480543 -0.08758973 -0.11898438
-0.1281968 -0.09289441 0.14147983 -0.056516636 -0.08158865 0.052272364 0.058110382 0.062725335
0.12333038 0.09764702 -0.12877044 0.001994491 0.075218834 0.005407282 -0.06877626 0.12979051
-0.06000425 -0.094328925 -0.14229219 0.0244022 0.0702632 0.023199989 0.013711261 -0.13002244
-0.12196182 -0.015198706 0.12115836 0.09394438 -0.1005021 -0.0054641166 -0.12831369 -0.085536346
0.04068102 0.09855262 0.10243135 -0.14632046 0.08929987 -0.11113835 0.0394389 0.11798867
-0.0089807 0.13983999 -0.110864766 -0.04411318 0.090736054 -0.021340214 -0.017644038 -0.049526844
0.08910306 0.081966184 0.037429355 -0.067334644 -0.10851493 0.0043175635 0.051988266 -0.06915096
-0.029357275 0.08720177 -0.0012824505 0.011724499 -0.030264921 -0.115893975 -0.14048597 -0.059058215
-0.084877685 0.032445658 -0.03017131 -0.036235787 0.14639005 0.037896752 0.08695123 -0.054896425
-0.042297777 0.071989834 -0.110902585 -0.08181311 0.009997563 -0.06162005 -0.12957227 0.074434355
0.13856462 0.010468596 -0.043107346 -0.12469308 -0.06678533 0.04931329 0.05762333 -0.032169722
-0.07501878 0.06426029 -0.10572425 0.11406714 -0.044144854 0.006821935 -0.0139759965 0.016737942
-0.032695446 0.12604487 -0.016029768 0.12888043 0.15926734 -0.060785692 -0.12521069 0.113586195
0.100681365 -0.122769445 -0.0008404448 -0.14512195 -0.1066689 0.026038123 0.0504353 0.010900143
-0.033154 0.13236317 0.0047157984 -0.102108195 -0.01208456 0.05198248 0.041520875 -0.08930845
0.04405946 -0.0904002 -0.12932244 -0.09471134 0.15578422 0.113024615 0.13309936 0.09017567
0.11825857 -0.024031572 -0.07899115 0.08985521 -0.05912547 -0.10919559 -0.062442128 0.03309091
0.07327748 -0.06551585 -0.07763564 0.028735371 -0.074894324 -0.08942098 0.059827074 -0.025010845
0.12043722 0.1342855 0.040708046 0.038830698 0.02250886 0.009849117 -0.015248809 0.00234422
0.03604128 0.1347128 -0.026333451 -0.05300057 -0.027248845 -0.058867637 0.019443894 0.104963556
0.10328205 0.06535554 -0.094700046 -0.07506338 -0.03932624 -0.016140709 0.00673034 -0.14281872

gat2.att_src f4 [1, 1, 32]
00000000: 0b2b 50be 9a57 753c 74fb 9cbe b1ac af3e
00000010: 53cd 13bd 57a2 afbe 68e6 853e 4a3b e83c
00000020: 9194 cfbd 8c9c bd3e f013 4dbe 1e69 41be
00000030: 105c 1abe cb74 e13c e6d5 a2be b862 ba3d
00000040: b414 c7be 04cc 6bbe d552 73be cd0b 92be
00000050: caf9 a53d 6876 283e d152 c0bd 54c5 dabd
00000060: b035 10b8 b099 a7be 12c6 c6be fecd 81be
00000070: 78a6 92be a60d 933d 5d0c a43e d2f4 943e
-0.2032892 0.014974499 -0.30660594 0.3431144 -0.036084484 -0.34303543 0.2615235 0.028348584
-0.10135759 0.37033498 -0.20027137 -0.18887755 -0.15074182 0.027521512 -0.31803817 0.0910086
-0.38882983 -0.23027045 -0.23762067 -0.28524628 0.08104284 0.16451418 -0.09390796 -0.106821686
-3.4382276e-05 -0.32734442 -0.3882299 -0.25352472 -0.2864263 0.071803376 0.32040682 0.29093033

gat2.att_dst f4 [1, 1, 32]
00000000: 6435 72be 0f6b 583e cc32 b23e c735 8dbd
00000010: 6314 edbd 7ff4 c0be 8f12 03bc 2321 0fbe
00000020: bdf0 a83d ab18 bbbe bd68 88bc 49df 503d
00000030: 50c2 a5bd 4a6f 2ebd c1eb c13e e164 233e
00000040: 4728 95be f87b 2cbe 9a46 2f3e b5ff 243e
00000050: 9091 aabe 9222 88be 876a 1abe 6470 dfbc
00000060: b49c 1e3b ebca a23d a9fe 31be db25 59be
00000070: 7fa0 5a3e 7611 9dbe 3c82 4bbd 4380 b6be
-0.2365318 0.2113459 0.3480438 -0.06895023 -0.11576154 -0.37686536 -0.00800003 -0.13977484
0.08249042 -0.36542258 -0.016651506 0.05099419 -0.08093703 -0.042586602 0.37875178 0.15956451
-0.29132292 -0.16844165 0.17116776 0.1611317 -0.3331418 -0.26588875 -0.150797 -0.027275272
0.002420229 0.0794886 -0.17382301 -0.21205847 0.21350287 -0.30677384 -0.049684748 -0.3564473

gat2.bias f4 [32]
00000000: 6a12 8d3c 0134 8dbc 7a7d 153c cccd 8bbc
00000010: 52a4 8bbc 915d 8c3c 46cd 8c3c e130 8dbc
00000020: ee5d 8d3c 1827 8d3c 7e67 8d3c 66ec 8c3c
00000030: a02d 8ebc e273 8cbc 1b85 8cbc 5f74 8bbc
00000040: fc58 8d3c b4c5 8bbc ef4d 8b3c 83d2 8c3c
00000050: e270 8c3c b8ed 8cbc 21bb 8dbc c32f 8d3c
00000060: fd8b 8bbc f4e2 1a3c 7128 8cbc c665 8d3c
00000070: 3031 8c3c 2e37 8f3c cb6a 8c3c 4afa 8e3c
0.017220695 -0.017236711 0.009124154 -0.017065905 -0.017046127 0.01713446 0.017187726 -0.017235221
0.017256703 0.017230555 0.017261263 0.017202567 -0.01735574 -0.017145101 -0.017153313 -0.017023263
0.017254345 -0.017062046 0.017004935 0.017190224 0.01714367 -0.017203197 -0.017301144 0.017234689
-0.017034525 0.009453524 -0.017109128 0.017260443 0.017113298 0.017482366 0.017140767 0.017453332

gat2.lin.weight f4 [32, 256]
00000000: 5762 b93d 5d15 a7bd 90f2 0cbc 5f42 aa3c
00000010: 597f d03d 0c1d 423d ccdb 063e ce0a 91bd
00000020: 38aa 1b3b 3850 a039 287b c13d 5347 e63d
00000030: 06a3 b43c 031b eebd 2272 aebd e736 3e3c
00000040: b20f debd bb42 10bd f383 bdbd 9c4b 5c3d
00000050: 71a3 f0bc 68e2 bbbd 8606 c83d 2154 07be
00000060: 7117 d0bc 77ce f13d 7ea9 533d add6 d4bd
00000070: d55b ec39 3556 b2bc 57f8 423d 574e 083e
00000080: d3b4 cb3d 6a28 46bc 7945 2f3d a116 f1bd
00000090: 19bb d83d 57b0 8a3d 3a74 abbd e611 dcbc
000000a0: d764 13bd 1942 72bd f3ee 1d3d 7747 9fbc
000000b0: 1178 113d 2cb7 a7bc 69f8 bc3d d8a2 0abd
000000c0: 0de1 50bc d2a5 25bd 0aff a33c ad2d 3abd
000000d0: 2dcf 9cbd 1fa6 e4bd 3b71 8e3d 7aed 263c
000000e0: 5e91 8fbd b542 5c3d 00f3 4fb6 9dbb 37bd
000000f0: cfe4 75bc 085e d83b 6a4c a83d 2b40 dcbd
00000100: 56fe b6bd cca6 bdbd 83aa d5bd 4b2b 4bbc
00000110: 404a 9e3d 4906 1d3d 10f7 803d fa15 f53c
00000120: 8ddf 533c 9f70 dabd ff96 d83d b735 e93d
00000130: b4d7 6c3c 5545 183d a6bb 053c 5ea7 043e
00000140: 276f f7bb 2105 aabc ac4e 69bd ee94 783c
00000150: 9a1d 4c3d c4ec c5bd 6534 283d f252 1d3d
00000160: f424 8b3d d278 883d f862 27bd 7ce7 983c
00000170: e0d4 9ebd ae45 7e3d b793 cebd 2112 d6bd
00000180: 7dbd b7bd 16e6 7dbd 3bdd 653b 2397 943d
00000190: 816b 5fbc 1699 a53d 5b53 78bc ba00 d93d
000001a0: a8e8 9f3d fab3 963d 0e4a 333d 2f3d 95bd
000001b0: 18d5 f53d 81ed e8bd 7d2d 9ebd 1b38 a1bd
000001c0: add3 febc 23ac 313d ad3b 103d 6172 d3bd
000001d0: 583d f23d 827a e43d b841 5f3d c15f f6bd
000001e0: 1d22 7e3d 4e1f 273d a331 47bc 252d d8bd
000001f0: 4403 d73d b56e 07bd 3328 c2bd 13fc c93d
00000200: d7d5 1f3d 6984 c93c 07ac a53d e114 0d3d
00000210: 03b2 1cbd c0ef 68bc 6289 c53d 90ef 7339
00000220: 154f d0bd dda8 aebd e565 aebd 65b8 803c
00000230: 20c9 b93d f2b1 833d a54f 813c 5866 463d
00000240: 1ee7 43bd 87e1 e53d a93d 183d b168 87bd
00000250: c13d 96bd 5752 dbbd b468 bebc f4ce b63d
00000260: 05cf af3c fa84 41bd 7575 c13c 07d6 9ebd
00000270: 11dc cd3c 12d1 9b3d c265 503d b22a debc
00000280: b95c 01bd 7031 683d 2c44 8e3d 8f76 fbbc
00000290: b824 263c cf47 3fbc 1a8c d4bc ca45 dbbd
000002a0: 12e3 ccbd 73a2 cd3d babc 5dbd 6462 b63d
000002b0: 57a0 8c3d dc25 6abc b8c8 4dbd 16a0 283c
000002c0: a888 96bc 3141 89bd 4d8b f63d ca5a 873a
000002d0: 5c08 6dbc 6fcc 99bd 09f0 853c 383f 00bb
000002e0: 2ad9 f23d 0e1b eebc 5943 723d 2fbb 4b3c
000002f0: 5c48 a43d 6659 08ba 4428 07bd 45c1 7c3d
00000300: 2b4c 68bd 124d ae3d 7bf2 c6bd 06b7 a5bd
00000310: e520 f43d 495c 32bd ee75 c1bd 50ee a4bd
00000320: b458 eb3d 5612 d5bc 23b8 c4bd daee 59bb
00000330: 4e8b 4abd 723f a0bd 108f 4cbd 2746 cb3d
00000340: 4ba5 1d3d a15b 9d3d d04b ce3c 02a4 1abd
00000350: bfc8 83bd 032c bdbd 6102 cbbd ab36 d4bd
00000360: 870a 413c d560 6c3d e11e c63d fdd5 94bc
00000370: 2ef4 a4bb 75e0 923b e93f 543d 1ea4 e8bc
00000380: 6a63 39bd 8986 92bc bfcf f1bd fa39 b5bd
00000390: 5e4f 37bd 4eb8 b93c 247e 98bd c270 263d
000003a0: 215c 85bd d482 f23d 91cb d3bd e30d 763d
000003b0: a0cb 57bd ca10 e4bc 9066 dfbd 56dc ddbd
000003c0: b32d e6bd 2f50 4dbc 23c0 e03d 1e1c 3f3d
000003d0: 83ae 8f3d 3f8e ab3c a57c 25bd fcfe 36bd
000003e0: 55b9 0bbd a3e2 e7bd 9eaa 823d af6b c1bc
000003f0: e95f 67bd d750 7c3c 4c2c 373c 81ce 943d
0.0905196 -0.081583716 -0.008602753 0.020783601 0.1018054 0.047390983 0.13169783 -0.07082139
0.0023752581 0.00030577346 0.09447318 0.11244073 0.022050392 -0.11626246 -0.08517863 0.011609769
-0.108428374 -0.03521989 -0.09253683 0.053783044 -0.02937481 -0.09174043 0.09766869 -0.13215686
-0.025401803 0.11806958 0.051675312 -0.10392509 0.00045081848 -0.021769622 0.047600117 0.13311134
0.09946599 -0.012094596 0.042790864 -0.11771894 0.10582561 0.067719154 -0.08371778 -0.026864003
-0.03598484 -0.059145067 0.038557958 -0.019443257 0.035514895 -0.020473085 0.09227068 -0.033846706
-0.012748969 -0.04044134 0.020019073 -0.045453716 -0.07656703 -0.111644976 0.06955191 0.010188455
-0.070101485 0.053774554 -3.0986848e-06 -0.044856656 -0.0150081655 0.0066030063 0.082177 -0.107544266
-0.089352295 -0.092603296 -0.10432913 -0.012400459 0.07729006 0.038336072 0.062971234 0.029917706
0.012931717 -0.10666012 0.10575675 0.113871984 0.0144557245 0.037175495 0.008162415 0.1295447
-0.007551092 -0.020754399 -0.056959793 0.015172226 0.049832918 -0.096643 0.041065592 0.03840918
0.067941576 0.0666367 -0.04086587 0.018665068 -0.077554464 0.06207817 -0.10086768 -0.104526766
-0.08971689 -0.061987005 0.003507449 0.072553895 -0.013636471 0.080858395 -0.015156592 0.10595842
0.078080475 0.073585466 0.043771796 -0.072870605 0.12003535 -0.11373425 -0.0772352 -0.078720294
-0.031106794 0.043377053 0.03521316 -0.103245504 0.11828107 0.11156179 0.054506034 -0.12029982
0.06204425 0.04080134 -0.01215783 -0.10555486 0.1049867 -0.033064563 -0.09480324 0.098625325
0.039022293 0.02459927 0.08089452 0.03444374 -0.038255703 -0.014217317 0.09645344 0.0002326353
-0.10171334 -0.08528302 -0.085155286 0.015712926 0.09071565 0.06430425 0.015785048 0.048437446
-0.047827832 0.112246566 0.03716818 -0.06611765 -0.073359974 -0.107090645 -0.023243286 0.08926192
0.02146102 -0.047245957 0.023615578 -0.07755666 0.02512935 0.07608236 0.050878294 -0.027119968
-0.031582568 0.056687772 0.069465965 -0.030696182 0.01014059 -0.011674835 -0.025945712 -0.107066706
-0.10004248 0.1004075 -0.05413506 0.08905485 0.0686652 -0.014291253 -0.05024025 0.010292074
-0.01837571 -0.067018874 0.12038288 0.001032674 -0.014467325 -0.07509696 0.01634981 -0.0019568931
0.11857827 -0.029065635 0.05914626 0.012434765 0.08021614 -0.00052013097 -0.032997385 0.061707754
-0.056713264 0.08510794 -0.09714218 -0.080915496 0.11920337 -0.04354504 -0.094463214 -0.08053267
0.11491528 -0.02600972 -0.09605434 -0.003325394 -0.049449258 -0.07824601 -0.049941123 0.0992549
0.038487714 0.076834925 0.025182635 -0.037754066 -0.06434774 -0.0923691 -0.09912563 -0.103619896
0.011782295 0.057709534 0.096738584 -0.018168444 -0.0050339913 0.004482324 0.051818762 -0.02839857
-0.045260824 -0.017886417 -0.118072025 -0.08848949 -0.044753425 0.022670891 -0.074459344 0.040634878
-0.06511713 0.1184136 -0.103415616 0.060071837 -0.052684426 -0.027840037 -0.10908234 -0.10833041
-0.11239185 -0.012531324 0.10974147 0.046657674 0.07015707 0.020941852 -0.040402073 -0.044676766
-0.034112293 -0.113225244 0.06380199 -0.023610918 -0.05648795 0.015400133 0.011179995 0.0726595

classifier.weight f4 [1, 32]
00000000: 2910 18be 0130 a23d 5413 c43b 692d 2a3e
00000010: cb7d 413e 3812 19be d6a0 d1bd 2a1a 5b3d
00000020: eacb 04bd 0396 36be a936 fabd 84ae d8bd
00000030: 66f9 043d 40a5 a43d 02a0 f73d 501b 173e
00000040: 50b4 dcbd 5f68 183e 528f bebd ff8a 27be
00000050: bebc a3bd 090b c53d 58e5 2e3d 9a1d 2fbe
00000060: c9a5 4f3d 013c 1d3c fbfb 0b3e 120f f0bd
00000070: be0f 17be 1739 e6bc 7b17 a0bd faf7 3cbd
-0.14849915 0.07919312 0.0059837494 0.16618885 0.18895642 -0.14948356 -0.10235755 0.05349175
-0.03242103 -0.17830662 -0.12217457 -0.10580161 0.032464407 0.080393314 0.12091066 0.14756513
-0.107765794 0.14883564 -0.0930468 -0.16361617 -0.07994984 0.096212454 0.042699188 -0.17101136
0.050695214 0.009596826 0.13670342 -0.117216244 -0.14752099 -0.028103394 -0.078169785 -0.046134926
