GCN_all4/best_model.pt (torch, 23861 bytes, 8 tensors)

conv1.bias f4 [64]
00000000: 3c4d 87bd 4d3b 173d 30ee f73d 7f52 fcbd
00000010: 499e cdbd b626 d8bc c1c7 a8bd 12bc 3a3c
00000020: 432a 93bd e5f4 8f3d 5ef0 2fbe 3cef 84bd
00000030: d86f d9bc 4f40 babc de18 6cbd 1e47 053d
00000040: 5809 36be 969c 24be 30ca d53a 59ff c2bc
00000050: 4681 00bd f6a8 cb3d 8e33 133e bc7f 663d
00000060: 76da 5abd 8987 abbb 5ab1 78bb 2ad9 393d
00000070: bd83 f3bd 9642 66be d217 13be 9994 a53d
00000080: f08f 3abe 5cec 5dbd e656 0d3d 3066 39be
00000090: fa17 cfbd 69d9 2bbc c203 f5bd 02dd 4f3d
000000a0: 3a1f f03b 2d36 443c 18cb 9dbd 365f 92bd
000000b0: f71c a7bc d575 69bd fb34 ffbd 83e5 b13d
000000c0: 2080 aa3c 7bd1 a93c a0fd b73d 62da d43c
000000d0: 27b7 32bd 203e 88be 3eed 483b 4ae8 e6bd
000000e0: a05a e7bd e10f 543d c50d 36be f4e8 ed3c
000000f0: fc61 263d d5f1 9bba 424a 16be ec79 81be
-0.06606528 0.036921788 0.121059775 -0.123204224 -0.10039956 -0.026385646 -0.08241225 0.0113973785
-0.07185795 0.07029132 -0.17181537 -0.06490943 -0.026542589 -0.022735743 -0.057640903 0.032538526
-0.17777002 -0.16075358 0.0016310867 -0.0238034 -0.031373285 0.09944336 0.14375135 0.05627416
-0.053430997 -0.005234663 -0.0037947507 0.04537312 -0.118903615 -0.22486338 -0.14364555 0.080849834
-0.1821897 -0.054180488 0.0345067 -0.18105388 -0.10111995 -0.010488846 -0.11963607 0.05074788
0.0073279412 0.011975807 -0.07704753 -0.07147066 -0.020399554 -0.05699714 -0.12461277 0.08686354
0.020813048 0.02072977 0.08983922 0.02598304 -0.0436317 -0.26609898 0.0030658985 -0.112747744
-0.11296582 0.051772956 -0.1777869 0.029041745 0.04062079 -0.0011897633 -0.14676765 -0.25288332

conv1.lin.weight f4 [64, 4]
00000000: 8d70 88be 5c79 5d3e 9890 ca3c 2d50 94be
00000010: 2478 9abd c9c9 b6be a179 82be a0d9 a9bc
00000020: 2d59 77be 7ee7 dfbd 7844 26be 21f1 a43c
00000030: 29db 923e 81a2 10be b97e bbbe 9d49 3c3e
00000040: 866d 8a3e 4397 ab3e f5a2 11bd d942 77be
00000050: 0812 4b3e 9fb9 55be 424a 89be fedd 9dbd
00000060: 5278 473e 9b80 18bc 61ae 1b3e 6a57 2e3d
00000070: abea c7bd b2b8 a93e 83cc eb3d 968a d93d
00000080: 5c49 77be aa4d 613e 74a7 8a3d eb6b a1be
00000090: 97c8 83be e51a 2bbe 9a61 183e cbca 7f3e
000000a0: 53bf 61be f70e acbe cf27 0d3d 4e40 e83d
000000b0: 800a 4c3e 405e 933e e76b 41bc 0d0c 2fbe
000000c0: cf36 8cbe 6c6d bebe 7a59 60bd 9ef6 5f3e
000000d0: f801 eebe 8167 68be 20bc 753e 2d52 b73e
000000e0: b66b 213e 6547 e43d 473e 4dbe def5 cfbe
000000f0: 83ce 843e 9796 563e ccea 46bd a646 2fbe
00000100: a794 9a3d 3564 8c3e cfdd f3bb d801 55be
00000110: 87f1 16bd fc99 293e 176d 133e c601 683e
00000120: bd66 cabd fef6 e2bd b814 c23e baf5 083d
00000130: e1db 86be a1b0 6b3e a75c cfbb 7c95 4dbc
00000140: f263 403e c5b7 41bd 6286 10bf 8dee f9bd
00000150: 54d3 29be eec2 98be 2339 b53d f753 41be
00000160: 307e 58be 922f 43be 3451 b1bd cb81 13be
00000170: 4d19 aabc 97bd ccbd a2f9 373e 3757 e43c
00000180: 1d67 61bd 02f4 343e 122c 60be 1949 733e
00000190: f797 63be 779a cdbe acaf 5fbd 2eab 233e
000001a0: 7094 8e3e b99f 913e 3b28 a5bc b6fe 5cbe
000001b0: f429 673e f9d1 823e 54a7 eabd 8637 85bd
000001c0: 0f50 5b3d 4455 3bbe 2db7 a53e 579d 1b3e
000001d0: 7e7d 8ebb d53a 04bf c378 563d 5f07 b3bc
000001e0: fce5 3abe 0f5f ea3b e4be 253e 24b6 253e
000001f0: a1f7 39be f915 69be 6bce c2be 3cda 57bd
00000200: 1810 4a3e 99f5 3e3e d252 913e 5ec4 abbc
00000210: 0fa6 173e 6169 a23e 99e9 9cbe 7aea 813e
00000220: a0e3 76be ba8c 36be abd9 a9be 5781 72be
00000230: 2057 d53e ce38 c5bc f3ed 0d3d 39b6 62be
00000240: f580 603d 688e 513c e9bd 943e ecad aabe
00000250: 7a63 5abe 8677 c03e 3b16 19bd 65ea c4be
00000260: fe73 6b3e 44d0 8abe 1c81 db3d 1278 bdbe
00000270: c739 5c3e ce1a 823e 8b8d 58be c7f4 fdbc
00000280: 7023 e93c ca14 a3be 3c20 cf3e c49f b83d
00000290: 88b4 57be 88bd 5ebc 8180 873d 97e5 9b3e
000002a0: dfec 233e 39c8 9e3e d544 fe3d 2314 ab3c
000002b0: 0223 f3bd 2dfd e2bd 4960 80be 5f07 913e
000002c0: e6bb 82be 5d10 a9bd f1bc 913d f9cb a0be
000002d0: b8ef a9bb 3378 15be 5aaa 0abf 14bd 68be
000002e0: 679b 843d 7999 5f3c f901 03bf 2bca 973c
000002f0: bc8f 833e b7b2 76be 7bab 873e 9fdd 05be
00000300: 2c22 9dbd a25f c53e df31 ba3d 2a64 213c
00000310: a2f2 413c 6376 a93e 18e9 4bbd 9792 c7bd
00000320: 466a 68be adb1 40be b43f 343c cd65 803d
00000330: 16be 6c3e 5a59 343e 1d99 23bd 878b 0bbe
00000340: 1e09 4f3e bfdb c23d 7ba4 6a3e fc17 dcbe
00000350: dd12 883e 8d27 50be e616 0a3e 8ca1 fbbe
00000360: 1430 7d3e 6335 87be 2932 1fbe 5e4a 7a3e
00000370: d9d6 fdbc eb39 c93d dff7 853d 5607 6e3e
00000380: a624 2e3d 6324 743e 88e8 283e 2c81 43be
00000390: 5868 8c3e d759 c73d 2ecb 2fbd a328 493e
000003a0: 9b87 883b 2360 f1be c4f2 e4bd 175e 463e
000003b0: 7e8b 03bd 003a af3e d1a7 cb39 59c3 133e
000003c0: 65ec 0d3e c897 4e3e 0e27 c13d 5525 403e
000003d0: c84f 3d3d 4a37 18bd 1843 02bf 1397 6e3e
000003e0: e9cb c13b 9c35 013e a221 b9be d9a6 7ebb
000003f0: 3e34 183e bde5 183e 9e77 983e ecb3 1b3d
-0.2664837 0.21628326 0.02472715 -0.2896742 -0.07542446 -0.35700825 -0.2548342 -0.020733654
-0.24155112 -0.109328255 -0.16237056 0.02013451 0.2868283 -0.1412449 -0.3662012 0.18387456
0.27036685 0.3351384 -0.0355558 -0.24146594 0.19831097 -0.2087159 -0.26814467 -0.07708357
0.19479492 -0.009308006 0.15203239 0.042563833 -0.09761556 0.33148724 0.11513617 0.10622136
-0.24149078 0.22002283 0.067702204 -0.31527647 -0.25738975 -0.16709478 0.14880982 0.24979703
-0.2204564 -0.33605167 0.034461793 0.1134039 0.1992588 0.28782845 -0.011805511 -0.17094441
-0.27385566 -0.37192857 -0.05477283 0.2187142 -0.46485877 -0.22695734 0.23997545 0.35804883
0.15763745 0.1114643 -0.20043288 -0.4061727 0.25938806 0.20955883 -0.048563763 -0.17116794
0.075478844 0.27420202 -0.007442213 -0.20801485 -0.036851432 0.16562647 0.14397083 0.22656927
-0.09882877 -0.11082266 0.37906432 0.033437468 -0.2633963 0.23016597 -0.0063281837 -0.012547847
0.18788126 -0.047294397 -0.5645505 -0.12203703 -0.16584522 -0.2983622 0.088487886 -0.18879686
-0.21141887 -0.19061115 -0.086580664 -0.14404981 -0.020764017 -0.09997099 0.17966321 0.027873619
-0.055029977 0.17671207 -0.21891811 0.23758353 -0.22225939 -0.4015691 -0.054610893 0.15983269
0.27847624 0.2844217 -0.020160785 -0.2158154 0.22574598 0.2555082 -0.114576966 -0.06504731
0.053543147 -0.18294245 0.32366315 0.15196739 -0.004348456 -0.5165227 0.05236126 -0.0218541
-0.18251795 0.007152445 0.161861 0.16182762 -0.18160869 -0.22762288 -0.3804811 -0.05269836
0.19732702 0.18648376 0.283835 -0.020967659 0.1480944 0.31721023 -0.3064697 0.25374204
-0.2411027 -0.1782712 -0.3317388 -0.23682152 0.41668034 -0.024074938 0.034650754 -0.22139825
0.054810483 0.0127903 0.2905114 -0.33335817 -0.2132701 0.3759119 -0.037374716 -0.3846008
0.22993466 -0.2711202 0.10717985 -0.3700567 0.21506415 0.25411075 -0.21147744 -0.031000508
0.02845928 -0.31851798 0.4045428 0.09014848 -0.21064961 -0.013594992 0.06616307 0.304486
0.16008328 0.31012133 0.124154724 0.020883625 -0.118719116 -0.11083446 -0.2507346 0.28325936
-0.2553398 -0.08255074 0.07116116 -0.3140562 -0.0051860474 -0.14596634 -0.54166186 -0.22728378
0.06474953 0.013647431 -0.51174885 0.018529018 0.25695598 -0.24091612 0.26498017 -0.13072823
-0.076725334 0.38549525 0.090915434 0.009850541 0.011837633 0.33098134 -0.049782842 -0.09744757
-0.2269679 -0.18817778 0.011001516 0.06269417 0.23119387 0.1761221 -0.039940942 -0.13627444
0.20218322 0.095145695 0.22914307 -0.4298705 0.26576892 -0.20327587 0.13485298 -0.49146688
0.24725372 -0.26407918 -0.15546478 0.24442431 -0.030986236 0.098255 0.06541418 0.23244986
0.04251542 0.23842005 0.16494954 -0.19092244 0.27423358 0.097339325 -0.042918377 0.19644408
0.004166556 -0.4714366 -0.11179116 0.1937183 -0.032115452 0.34223938 0.0003884421 0.14429988
0.13859709 0.20175087 0.09431277 0.18764241 0.046218663 -0.037162103 -0.50883627 0.23299818
0.0059142006 0.12618107 -0.36158472 -0.0038856773 0.14863679 0.14931388 0.2977876 0.038013384

conv2.bias f4 [64]
00000000: 1910 eb3d 0ba6 cf3d 15f2 573d 56ba b1bd
00000010: 7e1a 3abd f428 ca3d 7d9f bd3e 4e90 903e
00000020: e6fa a13c 873e 9f3d ad6f 753d 2ff7 a1bb
00000030: d804 893e 64d1 babc 4eaf febb 0dc6 763e
00000040: deaa ee3d 5463 bb3d ee11 f33b 730e 653c
00000050: fa00 da3d 153a d93d 7a35 303e 4b27 a0bd
00000060: 13cf 203e 47ff 993d 30a2 483e 8aac 0e3e
00000070: 099a 8b3d 2dd4 203e e595 a83d fffe 2c3e
00000080: 0318 3ebc eeef 8dbd 5585 d3bd c9f1 203e
00000090: b703 05bd 1049 523c 556d 4c3e 847b e33d
000000a0: 9124 253c 60db 0e3e b84d bb3d 22c5 e53d
000000b0: 33f3 c7bd 9938 babd df62 75bd 83c0 483d
000000c0: 6fda 06be 551c 5dbd 2b29 943c 00b1 a23c
000000d0: 4ab6 ca3c 3783 1d3d 764a 2f3e 63df 603d
000000e0: aaea 413e f15f 4f3c 2e9b 793e 1d47 133e
000000f0: 2f4f 133e 3d81 133d bff6 2e3d 274d 42bd
0.1147768 0.10139092 0.0527211 -0.08678119 -0.04543542 0.098710924 0.37035742 0.28235096
0.019772958 0.07775598 0.059920955 -0.0049427967 0.26761508 -0.022804923 -0.007772363 0.24098988
0.11653684 0.09149805 0.007417909 0.013980496 0.106447175 0.106067814 0.172079 -0.078199945
0.15703993 0.075193934 0.1959312 0.13933006 0.06816489 0.15705939 0.08231715 0.16894148
-0.0116024045 -0.069305286 -0.103281654 0.15717234 -0.032474246 0.012834802 0.19963582 0.11107543
0.010079519 0.13950872 0.09145683 0.11219241 -0.097631834 -0.090928264 -0.059908744 0.04901172
-0.13169263 -0.053982098 0.018086037 0.01985979 0.024745125 0.038455214 0.17118248 0.05490054
0.18937173 0.012657152 0.24375603 0.14382596 0.14385675 0.036011923 0.042715784 -0.04743686

conv2.lin.weight f4 [64, 64]
00000000: 735f 1abe ce96 603e 52f8 7c3b f9a9 bf3d
00000010: b3da 7ebc a57e b63d 4f9f c13c 7e9b 8fbd
00000020: 2753 09be 633c 50be ec66 8cbd 3bdf 23be
00000030: 7d82 a33a af9d 2e3e 7753 73bd da94 1c3c
00000040: ba2b 653d 4d9a 663e 1a9f 063c f6cd f93d
00000050: b714 02be e704 44be 9f94 62bd 4edf 4fbe
00000060: 7917 92be 68af c7bc 0850 8cbe 1146 76be
00000070: df82 303e 9243 2f3e cc2b 403e e9b0 513d
00000080: 4ac8 1f3e bd66 d43d 4163 e2bc 2dc2 97bc
00000090: ed99 04bd 22e4 0abe d272 8abd 6724 42bd
000000a0: d6ce 053d 06b1 153e 91d5 e2bc a336 34be
000000b0: 215b ca3d 6abb 2e3d b7a9 443d 6757 e4bb
000000c0: 1224 ab3b dfd5 8d3d b672 20be ee88 8abe
000000d0: 7443 d33d 4bb7 29be 4992 043e 0480 493e
000000e0: fbe0 28bc fa8f b93c 8d70 88bc d93a 8fbe
000000f0: b0c0 afbd 061e 283e f41a b2bc 0aa6 2c3c
00000100: 73f7 01be d45b 3dbd b9fe b1bd 03b5 ef3d
00000110: 14fb 9fbc da45 293e b8d5 1dbd b249 9c3b
00000120: 26f0 42bc fb70 4a3c 16ea 31bd 7526 a83d
00000130: 13aa 65be 99a1 0ebd 8fe4 ea3d 6daf 233e
00000140: 7f99 333d feb7 72be bce2 1d3e 6abd c23c
00000150: aa10 563e 4a81 ddbc bc8d eabd 51dc 13be
00000160: 7eb6 45be 282d 99be f397 4a3e 10ca 303e
00000170: a371 943d a7ae 313d b7f2 1a3e 6851 4e3d
00000180: a989 c13c 68ff f1bc 9e91 5439 9ff9 313e
00000190: 5791 513e 9853 af3d 71e0 28be 3590 a23d
000001a0: 9585 a7bc 8d07 0fbe f3b9 943e e67d bdbd
000001b0: 29a2 223e 33ac c3bb 03f4 263e 1310 95bb
000001c0: 7636 e93c 0ba7 543d cabb bfbc c738 6a3e
000001d0: b9cd 3d3c dc36 803c db4b 36bd fa7f 60bd
000001e0: 8632 05bd 71ff 773d bb27 f43d a7c9 e83d
000001f0: 1f2e 443e 8ff0 7a3c 5071 aebd 3cbd 2bbd
00000200: 0188 a9bd 64dc 8abb 3478 1bbd 4443 1f3e
00000210: 226e 39bd 1a8b 143e e7f7 dbbd d94d d53d
00000220: c7f5 bbbd de14 2c3e f70a e2bd 923a cfbb
00000230: 6a8a c03c 4c5c 0f3e 04ed 5b3e 25ec 80bd
00000240: fdd0 563d 1b5c 653e 83d0 1cbd ce15 923d
00000250: 2557 25be 9527 14be 5b0d bebd 71a8 bf3d
00000260: 6b0a 01be 3ad0 17bc bf98 3e3e 6e89 7c3e
00000270: 40b9 453e 9465 e33d 50ca 733e 2f2f 2f3e
00000280: 5665 aa3d f37a 633e 886f 5c3b f024 1c3e
00000290: abc6 89bb 61e4 febd 9a60 1b3e 1909 b0bd
000002a0: 8685 a2ba 9a9f dcbc db54 0e3e 0ff9 0abe
000002b0: 110c 26be c2c6 3e3e e20f cebd 9cb1 16bd
000002c0: ddf1 0b3e b00a 82bd a16b f73d 4c06 45bb
000002d0: a49b 083d e88a 9dbc 8586 cabd 2efb 373e
000002e0: 0782 4cbd 41cc 23bd 4a64 1ebd 2530 6c3e
000002f0: 56e0 733e 2280 063e 29e6 13bc ea48 f43d
00000300: 00ba 59be 5b86 d53c 8d37 013e 8ddd 023d
00000310: b6d8 1f3d 2f95 d93d 4201 44be c19c 52be
00000320: 8616 bbbe 7f00 a63d edbd 4a3e a09f f13d
00000330: 9dd5 e7bd d141 8abd 3a81 01be ec8c 98bd
00000340: 48ef 0fbe b249 81bd 5621 adbe ecfb 94be
00000350: 5639 b73d 4c17 1e3e b3cf 5b3e 1b43 cdbd
00000360: 3434 a9bd ee02 e2bc 16f4 85be 6f67 c0bc
00000370: 8bd0 e4bd 0883 293e a5e1 7dbe d49d 5f3e
00000380: aa12 2cbd 3a46 b5bd 9e21 bdbd 3a4a 2dbe
00000390: a823 a7be 9afc 02be 0829 1fbd 3037 b4be
000003a0: 4290 a0be 34be 47be f110 b5bd 6cf4 773e
000003b0: 77cd f43a 5c27 d33d e202 af3d 02ed 80be
000003c0: ad3d 043e b643 49be faf4 0c3e b330 8dbe
000003d0: 731a 3abe 1bf3 ae3d 7277 0c3e 4118 1abe
000003e0: 2c61 33be 3f12 bfbd aa33 cebd 3b84 c5ba
000003f0: 8ff3 85be 61e8 d13d 364b 5c3d 5e7d 6d3d
-0.15075473 0.21932527 0.003860016 0.093585916 -0.015555072 0.08910874 0.023635535 -0.0701208
-0.13410626 -0.20335536 -0.06855568 -0.16003124 0.0012474802 0.17052339 -0.05940577 0.009556973
0.055949904 0.22519799 0.008216644 0.12197487 -0.12703215 -0.19142495 -0.055317517 -0.20300028
-0.28533533 -0.024375632 -0.2740481 -0.24050166 0.17237423 0.1711562 0.18766707 0.051194105
0.15603748 0.10371158 -0.027635219 -0.018525207 -0.032373358 -0.13563588 -0.067601815 -0.047397997
0.032667957 0.1461831 -0.027689727 -0.17598967 0.09880663 0.0426592 0.048013415 -0.006968427
0.005222806 0.06925558 -0.15668759 -0.27057594 0.103156 -0.16573827 0.12946428 0.1967774
-0.010307546 0.022651661 -0.01665523 -0.27974585 -0.08581674 0.16417703 -0.021741368 0.010537634
-0.1269205 -0.046230152 -0.086911626 0.11704447 -0.019528903 0.16530553 -0.038533896 0.0047695274
-0.011898076 0.012356038 -0.043436132 0.0821046 -0.2242816 -0.03482208 0.11469375 0.15984888
0.043847557 -0.23703 0.15418524 0.02377196 0.20904794 -0.027039189 -0.11452815 -0.14439513
-0.19307896 -0.29917264 0.19784527 0.1726458 0.07248237 0.043379452 0.15131651 0.050370604
0.023625212 -0.029540733 0.00020272142 0.17380379 0.20465599 0.08560866 -0.16491868 0.079376616
-0.020449439 -0.13967724 0.29048118 -0.09252529 0.15882172 -0.0059714555 0.1630402 -0.0045490353
0.028468352 0.051917117 -0.023404974 0.22873221 0.011584693 0.015651159 -0.044505935 -0.054809548
-0.032518886 0.060546342 0.119216405 0.11366587 0.19158219 0.015316143 -0.085177064 -0.041928515
-0.08277894 -0.0042376984 -0.03795643 0.15553004 -0.045271046 0.14506188 -0.10740643 0.10415239
-0.09177738 0.16804835 -0.11037248 -0.006324121 0.023503501 0.14000052 0.21477133 -0.06295041
0.0524454 0.22398417 -0.03828479 0.07133065 -0.16146524 -0.14468224 -0.09279891 0.093582995
-0.1260163 -0.009265954 0.18612956 0.246618 0.19308949 0.11103359 0.23807645 0.17107843
0.083201095 0.2221487 0.0033635814 0.15248466 -0.0042045913 -0.124459036 0.1517357 -0.08595485
-0.0012399412 -0.026931573 0.13899557 -0.13571571 -0.1621554 0.18630508 -0.10061623 -0.036790475
0.13666482 -0.06349695 0.120810755 -0.0030063568 0.033351555 -0.019231275 -0.09888939 0.17966911
-0.04992869 -0.039989714 -0.03866986 0.2306524 0.23816046 0.13134816 -0.009027042 0.1192797
-0.2126236 0.026065042 0.12618847 0.03194957 0.03902503 0.10624158 -0.19141105 -0.2056761
-0.36540622 0.08105563 0.19799013 0.11798024 -0.113200404 -0.06750835 -0.12646952 -0.07448754
-0.14056122 -0.063128844 -0.33814496 -0.2909845 0.08946483 0.15438575 0.2146595 -0.10022565
-0.0826191 -0.027589288 -0.26162785 -0.023486821 -0.11172589 0.1655389 -0.24793108 0.2183755
-0.042009987 -0.08851285 -0.092349276 -0.16922846 -0.3264439 -0.12791672 -0.03885749 -0.35198355
-0.3136006 -0.1950615 -0.08841122 0.24214333 0.0018676956 0.103102416 0.08545472 -0.25180823
0.12914152 -0.19654736 0.13765326 -0.27576217 -0.18174152 0.085424624 0.1371744 -0.15048315
-0.17517537 -0.09329652 -0.10068448 -0.0015069315 -0.26162383 0.10249401 0.053782664 0.057980888

out_ad.weight f4 [1, 64]
00000000: e712 dc3d 2f77 8abd 487f 83bd 2b29 233e
00000010: 54aa 3abd 1136 8f3d bb85 86be 66a9 0a3e
00000020: 596f 33bd 36e9 263e 1824 233e 5525 4f3d
00000030: 6657 6e3e f2df e8bc 5322 eaba 02af 1cbc
00000040: 4543 cdbd 2c6b 2dbd fa22 af3d 1fe2 25be
00000050: 9213 243e f66d 9b3c bc6e 4cbe c9e2 16bd
00000060: 76c2 253e 50b9 863d ec32 533d 6a8e b3bc
00000070: 5576 2abe 7a9a 253e 8cc8 40be 995f 943e
00000080: b423 c13d 7999 58bd 70e6 603d a273 9c3d
00000090: da4e 24bc 8ef0 673d 7c0e 01be aa9f cfbd
000000a0: 5b6e 7bbd 8715 953e 7229 2ebe 4cb8 55bd
000000b0: d72e ffbd 6c19 7b3d daef e93b 9f0b 19be
000000c0: f827 9d3d daa7 843c 5de3 38bc 62f9 133e
000000d0: 692a 533e 289d 27be b008 9cbe fc0a 823d
000000e0: 5bff 8e3e 015a 3bbd b96c ad3c 27c0 d2bd
000000f0: 617c 1ebd c472 183e d406 e03d 7f66 1d3d
0.10745793 -0.06761014 -0.06420761 0.15933673 -0.045572594 0.06992734 -0.26273903 0.13541183
-0.04380736 0.162999 0.15931737 0.050572712 0.23275527 -0.028427098 -0.0017863013 -0.0095632095
-0.10022596 -0.042338535 0.08551593 -0.1619954 0.1602309 0.018973332 -0.19964117 -0.036837373
0.16187462 0.06578314 0.051562235 -0.021918494 -0.16646703 0.1617221 -0.18826503 0.28979185
0.09430638 -0.052880738 0.054907262 0.07639243 -0.010028565 0.056625895 -0.12603182 -0.101378754
-0.06138454 0.29117987 -0.17007998 -0.052177712 -0.12460106 0.06130354 0.0071391882 -0.1494584
0.07673639 0.01619332 -0.011284676 0.144506 0.20621647 -0.16368544 -0.30475378 0.06349751
0.27929196 -0.04574013 0.021170007 -0.102905564 -0.038692836 0.1488753 0.10938802 0.038427826

out_pd.weight f4 [1, 64]
00000000: 1558 b6ba 16df 7abd 9fc9 acbd 8186 803e
00000010: ec3a 673e cafb 16be e8ec bd3e 66db aabe
00000020: d3ba c1bd 6b19 afbd 0624 983d 8259 aa3d
00000030: 89d9 4cbd 325a 60bd 3ffc 913a 8fd0 7bbe
00000040: 5377 d33d 5529 a5bd 81e1 c13d b903 62bd
00000050: d0a9 85be 1430 383e b63c 553d a302 093e
00000060: a7f1 2dbe 48f0 a1bd 7a5b 52be 9781 3dbe
00000070: 1a03 993d e1e4 00be 716e bb3c b9e7 b0be
00000080: 2174 55bd 0475 363d b72c 433e 350c 3ebe
00000090: c4b9 983d f891 b13b a2d9 6b3e 17e1 a13e
000000a0: 2001 3f3d 0212 a3be 0ab0 233e ac68 44be
000000b0: 38bd 98bd 01d6 47be 1fc3 5d3e 820d a9bc
000000c0: fb31 893d 591e d13d 84f6 6d3d 54da c6be
000000d0: cbb2 92bd e7ca 0d3e bfd8 143e fec4 343e
000000e0: 823c 06bc f35d e33d 7dbb 583e f3e6 48be
000000f0: ca86 2f3e 9201 29be dd60 a3bd a175 6d3e
-0.0013911749 -0.061247908 -0.08436894 0.25102618 0.2258107 -0.14744487 0.37094808 -0.33370513
-0.09459462 -0.0854977 0.07428746 0.083178535 -0.050012145 -0.054773517 0.0011137797 -0.24591278
0.10325494 -0.08064524 0.094668396 -0.05517933 -0.2610612 0.1798709 0.05205985 0.13379912
-0.16986714 -0.07907158 -0.20542708 -0.18506466 0.07471295 -0.1258731 0.022879811 -0.3455179
-0.052112702 0.04454519 0.19060026 -0.18559344 0.07457307 0.005419012 0.23032239 0.31617042
0.046631932 -0.31849676 0.15985122 -0.19180554 -0.074579656 -0.1951523 0.21656464 -0.020636324
0.06698986 0.102108665 0.058096424 -0.38838446 -0.07163008 0.13846932 0.14535807 0.17653272
-0.008193137 0.11101904 0.21165271 -0.1961935 0.17141262 -0.16504505 -0.079774596 0.23189403

out_ftd.weight f4 [1, 64]
00000000: a358 65bd 6d79 9fbd be64 d2bd 0ad2 cabd
00000010: b86d 193d 795f fdbd 6aa0 7d3e 8387 57be
00000020: f079 febc 6303 9a3d a363 703d e160 ff3d
00000030: ea18 58be bc95 6dbd e555 19be 73a2 5fbe
00000040: f9ee a6bc b85e 34be 36b4 043e de2c cbbd
00000050: 4284 1a3d a860 cb3d 604e cd3d e3ce a53e
00000060: 1537 3fbd a31e 78bd e10b 87b9 b64d 56be
00000070: 4f12 db3d e409 58be 6479 1f3e 3edd 35be
00000080: 6e51 9e3d 3ead e23d 06da 123e 5c6d 17be
00000090: 854e e53d 7bb1 073d ae26 913d d4ff 923e
000000a0: 1be3 783c e1ab 4ebd 0176 153e 938e 20be
000000b0: 78d5 973d 5511 57bd 600b f83d 8b65 ecbd
000000c0: 3d82 823e 2316 193d 46d7 d3bd 08b9 a6be
000000d0: 321c 69bd 71f4 373e 803d b9bc 392e 453d
000000e0: 22c2 46bd 776c cfbc ef3b 8d3e 7ac2 88be
000000f0: 25a6 963d 0748 623d 1904 4c3d bbc0 2e3e
-0.055992734 -0.07786832 -0.10273121 -0.09903343 0.03745815 -0.123717256 0.24768224 -0.21047787
-0.031064004 0.07520177 0.05868877 0.1246965 -0.21103254 -0.058004126 -0.14974172 -0.21839313
-0.020377623 -0.17614257 0.1295937 -0.09920667 0.037723787 0.09930545 0.100247145 0.32384405
-0.04668339 -0.060576092 -0.00025758057 -0.20928082 0.106968515 -0.21097523 0.1557365 -0.17760178
0.07730375 0.110681996 0.14340982 -0.14787811 0.11196617 0.033128243 0.07087456 0.28710806
0.015190865 -0.050456885 0.14595796 -0.15679388 0.07413763 -0.052506763 0.121115446 -0.11542805
0.2548999 0.037374627 -0.103437945 -0.32563043 -0.056911655 0.17964341 -0.022612333 0.048139784
-0.048524983 -0.025320275 0.27584788 -0.26710874 0.07355908 0.055244472 0.049808595 0.17065708

out_als.weight f4 [1, 64]
00000000: bb29 84bd 577c bd3c 2d6b 15be fb9a 2d3e
00000010: 611a 18be 405c 01bb c4a1 603e e452 9a3d
00000020: 0d93 863c fa1b dcbd b878 15bd 5783 473e
00000030: e46f 25be 232b 023e 4008 3fbe f480 5dbd
00000040: 4d7c d4bd 1b5c 43be 7729 6d3d 5cd9 40be
00000050: a5e0 1fbd b21b ef3d bc82 2fbc 5551 fcbd
00000060: 45ba d53d f44a bc3b b1d6 3bbd c01d 81be
00000070: 6c56 1ebe 384c 0ebe 7e16 5d3b 2825 e43c
00000080: 2121 db3d d954 5cbe 70a2 16bd 2e50 b8bd
00000090: 4c84 3e3e a42e 583d 1cff 98bd 54e0 14be
000000a0: 4f1f 01be 8cf3 fe3c e809 c6bc f389 3abe
000000b0: bd4b b23d e20a 14be 96ac 883c b68e 02be
000000c0: 51c0 b33d c40b 4f3e d68a 8ebd 3bd7 18bd
000000d0: 953f 033e 243d f4bb f665 41be c1b5 af3d
000000e0: 2c5e 2d3d 74ab 353e 67c6 0b3e 27d0 55be
000000f0: 3f36 773c 5323 ef3d 08c9 c23c 846a 393d
-0.06453272 0.023130579 -0.14591666 0.16953652 -0.14853813 -0.0019738823 0.21936709 0.075353414
0.016427541 -0.107475236 -0.03649208 0.19483696 -0.16155964 0.12711768 -0.18655491 -0.054078057
-0.10375271 -0.19078104 0.057900872 -0.18832916 -0.039032597 0.11675204 -0.010712322 -0.123202
0.10435919 0.00574624 -0.045859043 -0.2521801 -0.15462655 -0.13896263 0.003373533 0.027849749
0.10699678 -0.21516742 -0.036776006 -0.08999668 0.18605155 0.052778855 -0.07470533 -0.145387
-0.126096 0.031121992 -0.024174646 -0.18216686 0.08705852 -0.14457276 0.016683858 -0.12749752
0.08776916 0.20219332 -0.069600746 -0.037314635 0.12817223 -0.0074535776 -0.18886551 0.08579589
0.042326137 0.17741185 0.13649903 -0.20880185 0.015088617 0.116766594 0.0237775 0.045267597
