GCN_all4/best_model.pt (torch, 23861 bytes, 8 tensors)

conv1.bias f4 [64]
000000 b8 e9 f0 bc af c0 6b 3d a2 9c 99 bd f4 d1 45 bc
       -0.02940832 0.057556804 -0.075005785 -0.0120739825
000010 07 7c e5 3c 66 eb 5c bd 45 3f 5c 3d 32 e6 79 bd
       0.028013242 -0.05393543 0.053771276 -0.061010547
000020 ad 5d e7 bc 94 a1 0b bd 1a e1 b1 bd e4 23 45 be
       -0.02824291 -0.03408964 -0.08685513 -0.19251972
000030 c3 f2 82 bd 83 a2 0a 3c aa 60 c3 3d 1e 28 89 bd
       -0.063939594 0.008461597 0.095399216 -0.06697105
000040 8e 47 97 3b 6f 8e d0 3c b0 a6 e5 3d ce 6a d0 bc
       0.0046166843 0.025458543 0.11213434 -0.025441553
000050 c3 f5 b2 3c aa a4 f6 3c 7a 9f b7 bd 85 ce 8c 3c
       0.021845704 0.030107815 -0.089659646 0.01718832
000060 ec 24 10 3d de 20 fe ba f9 d2 f3 3c ce 99 1d 3c
       0.03519146 -0.0019388457 0.029763686 0.009619189
000070 7f aa 5c be 09 f9 bf bc 28 c2 c4 bd 99 3b d0 3c
       -0.21549414 -0.023434179 -0.09607345 0.025419043
000080 28 2e a0 bc 52 b7 f8 bd 14 94 23 3d 77 f4 9d bc
       -0.019553259 -0.121443406 0.03993614 -0.019281609
000090 cb c7 3f bd d8 84 86 bd 8c c5 3f 3c 13 ad b3 3d
       -0.046821397 -0.06568307 0.011704814 0.08773246
0000a0 df 92 79 bc af 3a de 3c 59 10 4a 3c 04 0c d1 bd
       -0.015232771 0.027127592 0.012332999 -0.1020737
0000b0 5a 23 82 bc 3b 69 02 bd 59 2a b1 3d 2c 80 0e 3d
       -0.015885998 -0.031838637 0.08650655 0.034790203
0000c0 df 74 be bd 20 96 dd bc fa 69 a7 3c 0c 21 0a bd
       -0.09299635 -0.027049124 0.020436276 -0.033722922
0000d0 33 4e 70 3b 14 0b 23 3d de 7b 5e 3d 3c b8 d4 bd
       0.0036667704 0.039805487 0.054317348 -0.103867024
0000e0 3e 21 94 bc 0e 73 83 bc d5 53 fb bc e9 93 a1 3d
       -0.018082257 -0.016046073 -0.030679623 0.0788954
0000f0 59 cf e5 bc 72 39 8c bd d8 06 d9 bd a8 2a 20 be
       -0.028052973 -0.06846894 -0.105970085 -0.15641272

conv1.lin.weight f4 [64, 4]
000000 f9 bc 1e 3e 52 58 48 be 79 60 f5 bc 8f a8 4f 3e
       0.15501775 -0.19564942 -0.029953228 0.20279144
000010 7f 91 41 b8 8d da af 3e e0 11 4c be 80 dc fb 3d
       -4.615029e-05 0.3434643 -0.19928694 0.122979164
000020 d5 83 e4 bd c1 62 96 3e 79 8b ae 3d c4 8d a4 bd
       -0.111579575 0.29372218 0.08522696 -0.08034852
000030 9a 2b 39 be 75 2a 27 bd 54 bd d2 3d 74 a0 64 3e
       -0.18083039 -0.040811975 0.10290018 0.22326833
000040 4b f0 be be 88 8a 48 3d aa a6 69 be 24 3e b1 3c
       -0.37292704 0.04896024 -0.22817484 0.021636076
000050 23 d4 87 3c eb 57 5f be fc ca 6c be 01 d3 3d 3e
       0.016580647 -0.21810882 -0.23124307 0.18537523
000060 54 70 b1 be 46 d4 39 be ed a4 68 3e 9e 82 0b 3d
       -0.34656012 -0.18147382 0.22719164 0.034060113
000070 ac da f9 3d 30 a4 a6 3e b3 e5 ca bd 4a b9 92 be
       0.121999115 0.3254714 -0.09907093 -0.2865699
000080 88 ac 9d 3d 5b 0f a8 3e 9d 44 13 bd 83 cc 90 bd
       0.07698923 0.32824215 -0.035954107 -0.070702575
000090 19 5e c7 bd 4d fb a1 3c b6 30 7f 3e fd 71 96 3e
       -0.097347446 0.01977315 0.24920925 0.2938384
0000a0 b0 6b ba 3d 1f f2 a5 3e 74 a2 2e 3e 5e 02 35 be
       0.09102571 0.32411286 0.17054158 -0.17676684
0000b0 fe d6 3c bd 22 45 ef 3d 81 b7 1c 3e d1 02 71 3e
       -0.04610347 0.11683108 0.15304376 0.2353623
0000c0 09 52 0e 3e f6 c9 6f be d3 33 99 3e 98 b6 1e 3b
       0.13898481 -0.23416886 0.2992235 0.002421772
0000d0 bf e2 c1 bc 81 c6 08 3e 23 5b 52 3e 38 9f 6b be
       -0.023667691 0.13356973 0.20542578 -0.23009956
0000e0 f5 f0 76 be 4c d9 d3 bd fc 5b 19 be 1d 9c 0c 3c
       -0.24115355 -0.103441805 -0.14976496 0.008582142
0000f0 df 9a 49 be 53 92 cd 3d 60 e6 2c 3e 34 ba a4 3d
       -0.19687985 0.10037675 0.16884756 0.08043328
000100 11 a5 2d 3d c1 30 59 3e 77 97 02 be 1f e7 ab 3d
       0.042393748 0.21210004 -0.12753092 0.08393692
000110 6e a4 a1 bd 4d cb 86 be eb be 3e 3e f0 4b 2b 3e
       -0.078926906 -0.2632698 0.18627517 0.16728187
000120 80 c8 00 3e 31 ef 25 be ef 78 b6 be c3 16 0a bd
       0.12576485 -0.16204526 -0.3563914 -0.033713114
000130 fd 83 4f be 10 1c 70 3c 41 45 ac be c6 0f de bc
       -0.20265193 0.014655128 -0.33646587 -0.02710713
000140 ac d6 1c 3e eb 68 3f 3e c2 62 ce bd 61 3a 42 be
       0.15316266 0.18692367 -0.1007743 -0.18967582
000150 22 1a 78 3e 63 08 d6 bd 1a 28 3c 3e 82 ca 16 bb
       0.24228719 -0.104508184 0.18374673 -0.0023008888
000160 9e 73 83 3c 3a 04 56 be b3 ab 13 3d e7 45 25 3d
       0.016046342 -0.2090005 0.036052417 0.040349867
000170 73 de 57 bd 0f 6b 11 be 8b 08 88 3e 5b 92 b1 bd
       -0.05270238 -0.14200996 0.26569018 -0.08670493
000180 0d 22 28 be 47 0f 86 3e 23 fc ba bd 79 d1 61 3d
       -0.1641924 0.2618353 -0.091301225 0.05513141
000190 e1 ff e8 3d 60 8d 1c bd 3a 97 25 3c 1e d5 37 3e
       0.1137693 -0.038220763 0.010106856 0.17952392
0001a0 8d c3 62 be 97 b4 3f 3d 1d 77 aa be 99 34 3d be
       -0.22144909 0.046803083 -0.33294 -0.18477096
0001b0 25 fc 17 3e 4f 02 a2 be c8 e9 90 3d d1 16 ca be
       0.1484228 -0.31642386 0.0707584 -0.39470533
0001c0 03 73 3a be 2b 1f 00 3e 1b 5b 85 3e 8c 7f 57 3e
       -0.18207936 0.1251189 0.2604607 0.21044749
0001d0 a1 36 18 3e 68 6d 84 3e 84 08 19 3e 61 d0 a4 bd
       0.1486459 0.2586472 0.14944655 -0.080475576
0001e0 2b 1c 8f 3e 3a bb c9 3c f2 16 44 3e 8e 68 d9 bc
       0.27951178 0.02462541 0.19149378 -0.026539113
0001f0 c7 20 65 3e 64 8a f3 3d 00 7a bb 3c 67 92 4c 3c
       0.22375785 0.1189163 0.022885323 0.012486077
000200 73 a1 52 be 23 01 6a 3c 9b 42 54 3e 92 6e 5f be
       -0.205694 0.014282498 0.20728533 -0.21819523
000210 6f db b4 3d fa 8d 32 bd 1a 5d 4d 3e 4f e3 3d 3e
       0.08830916 -0.04359243 0.20055047 0.18543743
000220 93 1e 63 be 11 0b 32 be 57 19 1a 3e df 6a f9 bd
       -0.22179632 -0.17387034 0.15048729 -0.12178587
000230 68 4f e7 3d b1 3e 6d bd 72 8e 96 be 1c ef 6a be
       0.112944424 -0.057921115 -0.29405552 -0.22942775
000240 9c 83 8d bc ca 24 83 be 48 aa 5d 3d 0c b4 29 3e
       -0.01727467 -0.25614005 0.05411747 0.16572589
000250 83 91 26 be 71 e3 01 3e a0 04 1d be 32 4c 83 be
       -0.16266446 0.12684418 -0.15333796 -0.2564407
000260 fb 66 e0 bd e0 08 a8 bd 17 43 5e 3e 63 61 29 3d
       -0.10957142 -0.08204818 0.2170528 0.04135264
000270 35 66 ac 3c 86 44 c7 bd 3c 44 da be cc fa 9b 3c
       0.02104483 -0.09729867 -0.42630184 0.019040488
000280 db 5f 49 3e f0 ae f0 bd 3a c7 b0 be 1b fa 9f be
       0.19665472 -0.11752117 -0.34526998 -0.31245503
000290 61 55 30 3e 35 a3 79 3e 00 4c 44 3e ce a2 21 bd
       0.1722007 0.24378665 0.19169617 -0.039461903
0002a0 19 85 5c 3e f8 ad 2e 3e c2 b0 0b bd 54 e2 68 be
       0.21535148 0.17058551 -0.034104116 -0.22742587
0002b0 54 fa 77 3d 14 d7 40 be 5a c5 81 be 4a ac 27 3e
       0.060541466 -0.18832046 -0.2534588 0.16374317
0002c0 3d 58 7c 3e 37 be 58 be bf c1 52 3e 7a 10 08 be
       0.24643035 -0.21166311 0.20581721 -0.13287535
0002d0 68 c9 98 bd 29 96 a3 be 1c 36 4a 3d 5a 47 ef bd
       -0.0746029 -0.319505 0.04936801 -0.11683531
0002e0 49 16 da be b3 05 e0 bd de 78 41 bd 61 5b 89 bc
       -0.42595127 -0.10938587 -0.04723441 -0.016767206
0002f0 94 49 3a be 01 96 1c be 58 f0 fc 3d 64 2a 24 be
       -0.1819213 -0.15291597 0.123505294 -0.16031796
000300 e5 cc 4b be 52 ae 93 ba 74 e1 0b 3e 85 b6 20 3e
       -0.1990238 -0.0011267161 0.13660222 0.15694626
000310 7f a2 fe bd 2a ea af be 07 08 de bd 6a 1e d9 bd
       -0.124333374 -0.3435834 -0.10841375 -0.10601504
000320 e7 62 2a 3e c0 2a 83 be be 00 28 3e 3a d8 48 3e
       0.16639291 -0.25618553 0.16406533 0.19613734
000330 84 0e 02 3d ba 16 4b 3e bf d0 c7 3d fe 2b e2 bd
       0.031752124 0.19832888 0.09756612 -0.11043547
000340 7f 7f 92 3e 1d 73 8b 3e dc 48 8f 3d 5a 05 c3 bd
       0.28612897 0.27236262 0.06996319 -0.09522505
000350 0c ee 5e bd cd 2b 3d 3e b1 6e 99 bd 98 41 f7 3d
       -0.054426238 0.1847374 -0.07491816 0.12073058
000360 ae 14 0e 3e 60 ae e9 bd 36 92 3d be 94 8a 01 3e
       0.13875076 -0.114102125 -0.18512806 0.1265052
000370 90 9e 68 3d fe f3 d1 bc 06 f2 d6 be 32 a0 63 be
       0.056791842 -0.02562904 -0.41981524 -0.22229078
000380 21 19 88 3e 58 bd 91 bd ae a4 bb be e8 5e 8a be
       0.26581672 -0.071161926 -0.36649078 -0.27025533
000390 2b ab 98 3e 6b 28 97 3e c5 50 a0 bd 6b 79 fb bd
       0.2981809 0.29523024 -0.078279056 -0.12279018
0003a0 34 97 2c bc 70 b5 b8 be 0c 2c 59 be ac 6c 0b 3e
       -0.0105340965 -0.36075926 -0.21208209 0.13615674
0003b0 d4 a2 13 be b3 e8 6e 3e e8 1f ea bd 23 34 81 3d
       -0.14417583 0.23330955 -0.11431867 0.063087724
0003c0 e9 2b 6b 3e 25 6f 97 3e 42 b5 3a 3c b0 1e 8b be
       0.22965969 0.29576984 0.011395754 -0.2717185
0003d0 42 07 a0 be 70 6c 80 bd a4 53 62 3e ec e1 24 3e
       -0.31255537 -0.06270683 0.22102219 0.16101807
0003e0 84 37 07 3e 91 0d e3 3d 97 e3 e1 be fa b4 8e 3e
       0.13204771 0.11086572 -0.4411895 0.2787245
0003f0 6b 3a 5b be e6 6a 02 3e d4 96 f8 3d 66 d7 1f 3e
       -0.21409003 0.12736091 0.12138143 0.15609512

conv2.bias f4 [64]
000000 8d f8 fd 3d 1b b8 13 3e f2 83 08 3e d1 f8 83 bb
       0.12400923 0.144257 0.13331583 -0.004027464
000010 32 75 0a bd 4a f5 98 3d 14 51 2b 3d 21 77 7a bc
       -0.033803172 0.0746866 0.04182537 -0.015287192
000020 40 0e 0d 3d 2e dd 2d bd e8 39 1e 3e f9 09 a5 3c
       0.034437418 -0.04244726 0.15451777 0.020146357
000030 4e de 42 3d 0a 3e 88 3d 3c e8 57 bd 8b 3a 8e 3c
       0.047575288 0.06652458 -0.05271171 0.0173619
000040 d8 73 0a 3d a9 3c 3b 3d d7 70 79 3e d3 8e 83 3d
       0.033801883 0.045712147 0.24359451 0.06423726
000050 85 ab 96 3d ef 54 67 3b 79 23 67 3e 72 c3 a3 3c
       0.073569335 0.0035298427 0.22572125 0.019990657
000060 90 56 80 3d 5f 61 1e 3e cc 22 da 3d 90 32 2c bd
       0.062665105 0.15466832 0.10651168 -0.042040408
000070 c6 fa 30 3e b4 74 7c 3e 7b fc 83 bc 54 df 3b 3e
       0.17283162 0.24653894 -0.016111603 0.18346912
000080 40 11 07 3e fc af a0 bb 53 04 33 bd f8 ab ca 3d
       0.13190174 -0.0049037915 -0.043705296 0.09896082
000090 30 00 0c 3e a2 fc 2e 3d a5 e3 be bc dc ad c3 3d
       0.13671947 0.0427214 -0.023301909 0.095546454
0000a0 cb 82 2e be 56 72 6f 3d 84 11 28 3e b3 03 0c 3d
       -0.17042081 0.05845865 0.16412932 0.034183215
0000b0 96 76 22 bd 21 ea f4 3d 09 31 20 3e 41 2a 2a 3e
       -0.039663874 0.11958719 0.15643705 0.16617681
0000c0 f9 42 54 3e e8 df aa 3b 71 3a fc 3b ad 33 cd 3d
       0.20728673 0.00521468 0.0076973964 0.10019622
0000d0 c5 bb 87 bd 31 31 35 bd f4 5e 97 3d ba 5a 04 3e
       -0.06627611 -0.044236366 0.07391158 0.12925234
0000e0 1a 60 d2 3c fd 89 e2 3d c6 f9 f9 3d 55 f2 f8 3c
       0.02568059 0.110614754 0.122058436 0.03038899
0000f0 4f be f7 bb fc 9f 7f bd 4d ea 6d bc aa 78 89 bd
       -0.0075605283 -0.062408432 -0.014521194 -0.06712468

conv2.lin.weight f4 [64, 64]
000000 00 d5 b3 3d b6 59 05 bc 1c 09 70 bd 24 e5 20 3c
       0.08780861 -0.008139065 -0.058602437 0.009820256
000010 24 07 27 3e 6f 9c ce 3c 19 05 53 3d 3b 99 92 3d
       0.16311318 0.025221078 0.051518533 0.07158133
000020 1a 39 b4 bd e8 ba 07 3e 78 95 a4 bd a6 25 14 3e
       -0.08799954 0.13254893 -0.080363214 0.14467487
000030 fb 30 65 3d 79 10 1a be e0 a9 ac 3c 96 2c ec 3d
       0.055954915 -0.15045346 0.021077096 0.115319416
000040 d5 35 2d 3d 12 6a f2 bd 72 92 cd bd c4 21 a5 bd
       0.042287666 -0.118366376 -0.10037698 -0.08063081
000050 df 55 c9 bd f5 20 63 3d ec 59 a4 bd e9 65 d6 bb
       -0.09830832 0.055451352 -0.08024964 -0.0065429104
000060 e3 58 7e 3d c1 61 ec 3d 4b aa 03 bd 62 43 35 be
       0.062096488 0.115420826 -0.032144826 -0.17701486
000070 88 4e fd bd f2 18 2e be b9 51 7c 3d a4 db 0b 3e
       -0.12368494 -0.17001703 0.061601374 0.13658005
000080 5b 4c 8a 3d f7 87 86 be f7 20 39 be ba 5e 77 be
       0.06752845 -0.26275608 -0.18078981 -0.24157229
000090 fc 62 cf 3d f3 78 ee bd e1 78 be 3d 2a 79 6a 3e
       0.10126302 -0.11644163 0.093003996 0.22897783
0000a0 8e 89 60 bd bd 17 14 be 10 f1 0f bd c5 2b 6d be
       -0.054818682 -0.1446218 -0.035142004 -0.23161228
0000b0 ec 21 2c be 68 ad 25 bd 60 33 61 bd 8a a5 92 3d
       -0.16809815 -0.040448576 -0.054980636 0.0716048
0000c0 e4 59 be 3c 3d d4 25 be 6a 8d 37 3e 4a 07 73 3d
       0.023236223 -0.16194244 0.17925039 0.059333123
0000d0 86 9b b7 bd a1 19 49 3e 64 16 97 be bb 48 60 3e
       -0.089652106 0.19638683 -0.2950927 0.21902744
0000e0 c8 c4 20 3e 08 e6 85 bd 1d 43 a7 3c 46 83 bf 3d
       0.15700066 -0.065380156 0.020417744 0.0935121
0000f0 b0 58 a9 bd 5d f1 15 be b2 d1 1c be b4 6c 1c 3e
       -0.08268869 -0.14642854 -0.15314367 0.15275842
000100 14 6c 7a 3d 64 1e 10 3e f3 0c 6c bd e5 74 e1 bd
       0.061138228 0.14074093 -0.057629537 -0.11008624
000110 a5 a9 ac bc 7e 47 17 3e 8a c5 7f be ff 9f 2d be
       -0.021076987 0.14773366 -0.24977699 -0.16955565
000120 28 a4 9c be 6f a3 6c bd e8 a1 a6 be 40 e4 a3 3c
       -0.3059399 -0.05777305 -0.325454 0.020006299
000130 08 6a fd bc 53 8f 19 3d 54 7f c7 3d 5b d2 42 3d
       -0.030934349 0.0374902 0.09741083 0.04756389
000140 2b cc 05 be 3c 85 99 3d 37 2a 95 3d a4 fc 8b bd
       -0.13066165 0.074961156 0.072834425 -0.06835297
000150 4b 7a 93 be 7b 9f 74 bd c4 ee 54 3e b5 c6 15 be
       -0.2880424 -0.059722405 0.20794207 -0.14626582
000160 54 22 bb bd b2 d8 fb 3d 91 11 05 bd 30 5b 2e 3e
       -0.09137407 0.12297191 -0.032487456 0.17026973
000170 07 48 c8 3d 5f 8f ed bc fd 36 9d be 2a bb fa bc
       0.09779363 -0.028999029 -0.30706015 -0.030606825
000180 cb 48 0e be 1c 88 9e bd 79 47 02 be 9f 43 68 3d
       -0.13894956 -0.077408046 -0.12722577 0.056705114
000190 47 65 9a 3d bc a0 61 be 5c 78 48 3d 6b 1e ac 3d
       0.07538848 -0.22033972 0.04894291 0.08404239
0001a0 22 df 4c bd ab 10 8f be 1e b8 6e be c3 19 53 3e
       -0.050017484 -0.27942404 -0.23312423 0.20615296
0001b0 fa f3 aa 3d 21 a7 dd 3d 83 45 ff bc 08 2c 15 3c
       0.08347316 0.10822893 -0.031161075 0.009104736
0001c0 c2 dd 76 3b db 26 df 3d 9a f1 b5 3d 21 76 68 be
       0.00376688 0.10896083 0.088839725 -0.22701313
0001d0 09 4a 1f be 18 6b d6 bc d6 38 09 3e d0 bc 17 3d
       -0.15555586 -0.026174113 0.13400587 0.0370453
0001e0 e9 1e 63 bd aa 59 f3 be 90 64 73 3d 15 d0 f2 bd
       -0.0554494 -0.47529346 0.059422076 -0.11856095
0001f0 eb 49 9e be e9 79 eb bd b4 d9 ac 3d d2 51 4b be
       -0.3091577 -0.11497862 0.08439961 -0.1985543
000200 97 78 b5 3d 83 9a 27 be 86 54 87 3e 88 43 15 bc
       0.08860891 -0.16367535 0.26431674 -0.009110339
000210 eb e6 47 bd e1 67 5e be df f4 95 be 2c 5b 9c b9
       -0.048804205 -0.21719314 -0.29288384 -0.00029822567
000220 21 61 f4 3c 94 a8 52 3d 6f 21 2d be f5 f0 fd bd
       0.02983147 0.0514303 -0.16907285 -0.123994745
000230 04 dd c8 3d d7 a9 60 3e 69 9b c4 bd cb 0d f8 3d
       0.098077804 0.21939789 -0.09599955 0.12112006
000240 ad 77 9a 3d 06 ca 5c be 0a 01 71 be 1e bb 71 bc
       0.075423576 -0.21561441 -0.23535553 -0.014754085
000250 59 90 03 3d 8f 43 8e bd 18 c5 ca bd a5 21 78 3c
       0.032120083 -0.069464795 -0.09900874 0.01514474
000260 9e f3 27 3d 35 86 dc 3c d9 e7 e1 3d b7 35 f2 3c
       0.041003816 0.026919464 0.110305496 0.029566629
000270 76 43 d6 3d fa 36 66 3c 49 44 30 be 23 f0 07 3e
       0.10462086 0.014051193 -0.17213549 0.13275199
000280 4a 16 b8 bd 55 07 f3 3d e3 9b 87 be 4b 16 43 be
       -0.08988626 0.11866633 -0.2648612 -0.19051473
000290 c6 21 8e be 10 ff 95 bd 4e 05 33 be 02 3e cb be
       -0.27760142 -0.0732404 -0.17482492 -0.39695746
0002a0 7a 00 b1 be 4d 00 39 3e c0 15 8a bd 28 34 12 3d
       -0.34570676 0.18066521 -0.0674243 0.03569427
0002b0 9c 74 34 3d be e2 95 bc 21 57 e6 bd af 50 2b bd
       0.04405652 -0.018296596 -0.11247087 -0.041824993
0002c0 18 8d a2 be 6e 1a 3b be 2a f9 43 be 7c 2b 50 3a
       -0.3174827 -0.18271801 -0.19138017 0.000794105
0002d0 14 89 94 3c dd 0d 1d be 1a d4 1e be 9e b6 21 be
       0.01813177 -0.1533732 -0.15510598 -0.15792319
0002e0 17 ef d6 bd 46 53 4f 3e f6 fb 39 be 38 e6 43 3d
       -0.104948215 0.2024661 -0.18162522 0.047826976
0002f0 0a 85 9a 3d 8c e2 77 be e2 c0 ac be 6b f5 55 be
       0.075449064 -0.24207515 -0.33740908 -0.20894401
000300 08 da 8d 3d bd 64 1e be 8d f1 0c 3e d6 c8 69 3d
       0.06926352 -0.15468116 0.1376402 0.057076298
000310 fa c9 11 be 58 64 ac bd ee 74 f3 bb 46 94 e2 3d
       -0.14237204 -0.084175766 -0.0074297106 0.11063437
000320 27 68 0a be 87 18 41 be a1 c7 ed bd 5f d6 98 3d
       -0.13516293 -0.18857013 -0.11610342 0.07462763
000330 7d bf d6 bd 77 63 65 3e 03 10 02 be be b8 10 be
       -0.10485742 0.22401224 -0.1270142 -0.14132974
000340 ec b5 49 3e 61 65 53 be c4 65 13 be 3b a1 1e 3e
       0.19698304 -0.20644142 -0.1439429 0.15491192
000350 47 e8 25 be b5 ca b1 3c 15 93 0d be 9d ff d5 bd
       -0.16201888 0.021703104 -0.13825639 -0.10449145
000360 da dd 58 bc 5d 17 a5 3c 41 57 51 3d a3 b5 44 3d
       -0.013236487 0.020152742 0.051108602 0.048024785
000370 77 98 c0 bd 66 76 76 3e 92 8c 57 be 08 8f 30 3e
       -0.0940408 0.24068603 -0.21049717 0.17242062
000380 29 17 04 3d ed 07 60 3a eb 05 25 3e 84 c1 7f bd
       0.03224865 0.0008546103 0.16115539 -0.06244041
000390 d0 fc 4b 3e cb b2 73 3d 86 4b 4d 3b 85 c2 0d be
       0.19920659 0.059496682 0.0031325533 -0.13843735
0003a0 a3 0b 08 bd df 3d 28 bd 16 cb 15 be 55 8c 9e bd
       -0.033214223 -0.04107463 -0.14628252 -0.0774161
0003b0 3a 30 1f be 6e f3 94 3d 77 d9 27 be 59 a0 cf bd
       -0.1554574 0.07272993 -0.1639155 -0.10138006
0003c0 bd 3a 5d be 91 0f 18 3e 5e 28 79 bd 82 8d 34 bd
       -0.21604438 0.14849688 -0.060829513 -0.044080265
0003d0 76 73 b3 bc 1f b2 1d bd ac 17 65 be 89 6c 58 be
       -0.021905642 -0.038499948 -0.22372311 -0.21135153
0003e0 c7 5f db 3d 58 55 fb bd 63 f3 f3 3d 73 c9 62 be
       0.107116275 -0.122721374 0.11911657 -0.2214716
0003f0 69 9a 8a 3e 4e 5e 65 be e6 6f f7 3d 57 97 05 3e
       0.2707093 -0.22399256 0.1208189 0.13046013

out_ad.weight f4 [1, 64]
000000 f7 03 25 bd d3 56 98 3e b1 b1 84 bc a4 70 20 3d
       -0.040286984 0.29753742 -0.016198011 0.039169922
000010 0c 62 f6 bd 35 bb fc 3b 2d 7f 15 3e e6 9f 80 bd
       -0.1203042 0.0077127465 0.14599295 -0.06280498
000020 6a fd a4 bc 1b 60 9f bc a3 0b 26 bd 2e e1 65 3c
       -0.020140368 -0.019455006 -0.04053844 0.014030738
000030 1a 6b 4d bc 3c 67 0b bc a8 a3 80 bd eb a5 55 bd
       -0.012537742 -0.0085085 -0.06281215 -0.052160185
000040 28 ec ae bd 78 e5 a0 bc 26 b9 24 be 7a f6 ba bc
       -0.08541137 -0.01964067 -0.16086254 -0.022822607
000050 7d a3 01 be dd 84 f6 3d 6f a1 68 3e 2c 04 88 3d
       -0.12660022 0.120370604 0.22717832 0.06641421
000060 e8 32 41 3c 36 b5 8d bd 80 e7 d6 3d d7 14 81 bd
       0.011791922 -0.06919329 0.10493374 -0.06302803
000070 0e 3d b4 bc c0 ec 5a 3e 34 1d 15 be bc ab 23 3e
       -0.02200177 0.21379375 -0.14561921 0.1598348
000080 1c b0 14 3e a5 d6 a7 3b 1d 99 89 3d dc 59 83 bd
       0.14520305 0.005122023 0.06718657 -0.06413624
000090 53 d3 74 3d 8c fa 51 bb 3c 5a 23 bc d2 62 9a 3d
       0.059771847 -0.0032040207 -0.009970244 0.0753838
0000a0 48 3a 19 3d 2e ab 3b bc c3 ba c9 3d 44 50 da bd
       0.037409097 -0.011454387 0.09850075 -0.10659841
0000b0 11 f1 93 3d 31 bd de 3d ca c4 06 be e7 de 9f 3d
       0.07223714 0.10875929 -0.13161007 0.07806187
0000c0 cf 96 64 3e c3 2d 88 3d 26 09 7a bd 07 3b 3c bd
       0.22323154 0.06649353 -0.06104388 -0.04595473
0000d0 18 f3 98 bd cd ea 48 bd 4a 56 b6 bb a7 09 63 bd
       -0.074682415 -0.04905205 -0.0055644857 -0.055429127
0000e0 5c 4f e5 bd 74 33 4a 3e 8d de e5 3d 1c 03 94 bc
       -0.11196777 0.1974619 0.11224089 -0.018067889
0000f0 36 17 bb bd 71 ea 3a bd 23 87 02 3c bf 23 71 bd
       -0.091352865 -0.045633737 0.007966789 -0.05887198

out_pd.weight f4 [1, 64]
000000 08 60 03 be ca ff 5e 3d 69 04 ef 3d 07 c3 03 3e
       -0.12829602 0.05444316 0.11670763 0.12867366
000010 73 28 e8 3d 26 a1 05 be 35 53 05 be 1c 65 95 ba
       0.1133584 -0.13049755 -0.13020022 -0.0011397931
000020 3f 93 80 3c 88 a0 9f 3d 82 9c 2e 3e ba ab 9c 3d
       0.015695212 0.07794291 0.1705189 0.07649942
000030 96 cf d8 bc 19 a5 4c bd d3 6f e4 3d e9 b0 54 3d
       -0.026466172 -0.049962137 0.11154141 0.051926527
000040 a4 67 52 3d 40 90 ce bd 4f 30 a5 3e 86 66 38 3e
       0.05136837 -0.10086107 0.3226342 0.1800786
000050 8e 20 4e 3d 51 22 9f 3d f3 68 1a be c9 33 bc bd
       0.050324015 0.07770217 -0.15079097 -0.09189565
000060 7e 55 22 3d 1d 63 61 3e 6e 70 c1 bd 48 b0 a0 3d
       0.039632313 0.22010465 -0.094452724 0.07846123
000070 b4 82 bf bd 01 73 7a be b7 41 c7 3d 54 f0 9d be
       -0.093511015 -0.24457933 0.09729331 -0.30847418
000080 5d 81 7e be 28 7d 38 3d 89 62 08 3e 47 48 40 be
       -0.24854036 0.045041233 0.13318838 -0.18777572
000090 51 90 22 be bc e4 00 3e d0 4e bf 3d 7b 3f 19 bc
       -0.15875365 0.12587255 0.09341204 -0.009353514
0000a0 82 b3 77 bd bf 33 27 bd d3 7a 18 be 4b 5d a5 bd
       -0.060473926 -0.040820833 -0.14890604 -0.08074435
0000b0 7c 4a 0a 3e 1f 60 a5 bd d0 ca 1e 3e 27 a2 d4 bd
       0.13504976 -0.08074974 0.15507054 -0.103824906
0000c0 52 d4 10 be 06 00 fd 3d 8d 7f 03 3c 1b f9 37 3e
       -0.14143494 0.1235352 0.008026016 0.1796612
0000d0 5f a4 81 bd 91 89 94 3d 85 3b 02 bd 59 7e 56 3e
       -0.063301794 0.07252801 -0.031795043 0.20946635
0000e0 4a fd 6e 3d fe ff 1d be fe 1c 56 bd 33 1d e3 3d
       0.058347024 -0.15429685 -0.052273743 0.11089554
0000f0 99 3d 94 3d c5 9a 99 bd 18 66 c7 3d 02 fd 67 bd
       0.07238311 -0.07500223 0.0973627 -0.05663777

out_ftd.weight f4 [1, 64]
000000 26 68 e4 bc c9 05 80 bd 72 a6 0d 3e ed 3a bd 3c
       -0.027881693 -0.062511034 0.13833025 0.023099387
000010 69 57 0e bc fa 69 23 be 26 30 bb bd 3c 36 f5 3c
       -0.008687832 -0.15958396 -0.09140043 0.029933088
000020 77 1f 94 3d 93 de d8 3d 86 95 e8 3d ed 7a 10 3e
       0.07232564 0.10589328 0.11356644 0.14109392
000030 36 53 aa 3d ca 1f 5d 3d f7 c5 1b 3d 51 fd c1 bd
       0.083166525 0.053985395 0.03803059 -0.094721444
000040 c2 48 c3 3d 96 f3 ee bd 0c e3 9f 3e 4e 6c 16 3e
       0.09535362 -0.11667554 0.3122791 0.14689752
000050 63 3d 16 3e 71 2f cf 3a 6f cb 32 bd fe 90 f0 bd
       0.14671855 0.0015806985 -0.04365104 -0.11746405
000060 57 01 06 3e d0 81 fd 3d 41 cf f8 3d a4 6b 78 3d
       0.13086449 0.123782754 0.121489055 0.06064953
000070 b8 3a c4 bd 90 ee fa bd 45 f6 94 bd ed 3a 2e 3c
       -0.09581512 -0.122525334 -0.07273535 0.010634166
000080 cf ef 67 be 31 95 c8 bd a6 f0 d9 3d 66 c3 a7 bd
       -0.22650073 -0.09794081 0.10641603 -0.08191566
000090 48 c3 35 be 8a 3f 8b bd 59 6c 75 3d ab 63 d6 bd
       -0.17750275 -0.067992285 0.05991778 -0.10468229
0000a0 a9 de 1f 3d 80 db 18 bc 05 d3 10 be 05 a6 06 3d
       0.039030705 -0.009329677 -0.14142998 0.032873172
0000b0 b9 ea 1c 3d 74 f9 2f be d5 62 5b bd ef 8b 8b bd
       0.038309786 -0.17185003 -0.05356105 -0.068137996
0000c0 39 13 55 be ed 48 f3 3d 54 1b 3c bd c9 cb 9c bc
       -0.20808114 0.11879144 -0.0459245 -0.019140141
0000d0 9d 56 14 3c 32 44 ae 3d f9 bf a0 bd bf 44 4a 3e
       0.009053853 0.08509101 -0.07849116 0.19752787
0000e0 e8 52 18 3e b7 a8 84 bd d7 c5 1b be 2a e8 b5 3d
       0.14875376 -0.06477492 -0.15212189 0.088821724
0000f0 79 ed 63 bb 1a 22 05 be b3 2b a2 bd 2f 14 a8 bd
       -0.0034778996 -0.1300129 -0.07918491 -0.08206975

out_als.weight f4 [1, 64]
000000 05 38 e4 bd 57 34 8d 3d bc f1 a2 3c 7a e9 d4 bd
       -0.111434974 0.06894749 0.019890659 -0.103960946
000010 7d a1 a4 bd ec 94 8d bd 4c ab 9b bd 81 b0 e4 bd
       -0.08038614 -0.0691317 -0.07601032 -0.11166478
000020 3f e1 35 3d 98 32 12 3e 81 75 a5 3d 27 e2 9e 3d
       0.044404265 0.14277112 0.08079053 0.07757979
000030 58 5f b2 bd e3 0c dc 3d ac 28 65 be 2c 7e a6 bb
       -0.087095916 0.107446454 -0.22378796 -0.005080959
000040 f9 b2 50 bd d1 1d d0 3c 7a 6a 02 bd 94 18 a0 bd
       -0.05095193 0.025404843 -0.031839825 -0.07817188
000050 f8 a5 ce 3d 46 cb 35 be 3b 57 34 ba 72 31 aa 3c
       0.1009025 -0.17753324 -0.00068794534 0.02077553
000060 0a d0 9a 3d 85 58 83 3e 97 3e 4b 3d bf 07 0e bd
       0.075592116 0.25653473 0.049620237 -0.034675356
000070 59 81 7d bb a2 ef 9a 3c 04 63 04 bd 21 2a 57 3d
       -0.0038681834 0.018913094 -0.03232099 0.05253041
000080 a5 f3 4c bd 8a 58 65 3d c2 fe 05 bd f0 a9 85 3c
       -0.050037045 0.05599264 -0.03271366 0.016316384
000090 6c 63 b2 bd ab 40 84 bd ad 69 03 bd 43 8f 14 3d
       -0.087103695 -0.06457647 -0.032083202 0.036269438
0000a0 1c 05 9d 3e f4 f3 aa 3d 25 3a 17 bd 71 12 4d bc
       0.3066796 0.083473116 -0.036920685 -0.012516604
0000b0 55 d4 a9 3d 7c e5 11 be da 16 24 be 81 a1 93 b9
       0.08292452 -0.14247698 -0.16024342 -0.00028158355
0000c0 2b 9f 22 be b3 c3 17 bd 5d 8f 64 bd ba f1 68 bd
       -0.1588103 -0.037051868 -0.055800784 -0.056871153
0000d0 c2 08 02 3e cd 88 8f 3c 53 70 2c 3e cf d6 a2 bd
       0.12698653 0.017521286 0.16839723 -0.07951128
0000e0 44 fc 1b bd 05 88 a6 3d c4 bc 59 be 0e 69 49 3c
       -0.038082376 0.081314124 -0.21263415 0.012293113
0000f0 cb f8 d3 bd a2 0a b8 3c bc bb 96 bd d2 f1 dd bd
       -0.10350188 0.022466008 -0.07360026 -0.10837139
