GCN_all4/best_model.pt (torch, 77621 bytes, 8 tensors)

conv1.bias f4 [128]
0	0x3e164448	0.14674485
1	0x3d620d62	0.055188544
2	0xbd4919d0	-0.049096882
3	0xbc80f82a	-0.015743334
4	0x3a047d45	0.0005054067
5	0x3d55f0b5	0.05223151
6	0x3d85c2f6	0.065313265
7	0x3d02f9ba	0.03197644
8	0x3db41d70	0.08794677
9	0x3d99b462	0.075051084
10	0x3cd8da26	0.026471209
11	0x3d3009d0	0.042978108
12	0x3d4a4430	0.049381435
13	0xbd274b9d	-0.040843595
14	0x3d464726	0.048407696
15	0x3c4633fa	0.012097353
16	0x3dbbfb78	0.09178823
17	0x3d49b593	0.04924543
18	0x3ddd200c	0.10797128
19	0x3d8142a4	0.06311539
20	0x3df51cb4	0.11968365
21	0x3d782c73	0.060589265
22	0x3de338d4	0.110948235
23	0x3d81ef28	0.063444436
24	0xbce2814e	-0.027649548
25	0x3dae1b7b	0.08501335
26	0x3c446ce0	0.011988848
27	0x3d870929	0.06593544
28	0x3dc53587	0.0962935
29	0x3d753661	0.059866313
30	0x3db943d4	0.0904614
31	0x3d3de923	0.046364915
32	0x3e0dfff0	0.13867164
33	0x3df867dd	0.12129185
34	0x3d9a0bff	0.07521819
35	0x3d80c647	0.062878184
36	0xbd51b94c	-0.051202103
37	0x3d0244e0	0.031803966
38	0xbc88fc6a	-0.016721923
39	0x3dfbe54e	0.12299596
40	0x3d8450ef	0.06460749
41	0xbd8d2be4	-0.06893137
42	0x3de3042a	0.110847786
43	0x3d9c5b9f	0.07634663
44	0x3d4c4c8c	0.04987769
45	0x3d82bb4f	0.063833825
46	0xbc7a3730	-0.015271947
47	0x3e0abdd0	0.1354897
48	0x3d0368a0	0.0320822
49	0x3db9f261	0.09079433
50	0x3d885acf	0.06657945
51	0x3d726528	0.0591785
52	0x3dac62dd	0.08417294
53	0x3d336f90	0.043807566
54	0x3d7e2e70	0.062056005
55	0x3cb90977	0.022587521
56	0x3d1958e3	0.037438285
57	0x3b98701a	0.0046520354
58	0xbcc72b94	-0.024312772
59	0x3da1cabf	0.07899999
60	0xba84fd9e	-0.0010146385
61	0x3b860df8	0.0040910207
62	0xbbdbde31	-0.006709837
63	0x3bc720d9	0.006076914
64	0x3e0ed887	0.13949786
65	0x3daa9249	0.08328683
66	0x3d38110b	0.04493813
67	0x3ce89943	0.028393393
68	0xbc3997d3	-0.011327702
69	0x3cb941c2	0.022614364
70	0x3d43925b	0.047746997
71	0x3c8a93c4	0.016916163
72	0x3d933a5f	0.07188868
73	0x3cbbe025	0.022934029
74	0x3cc8360c	0.024439834
75	0x3d827eb8	0.06371826
76	0x3c427921	0.0118697
77	0x3c98cc53	0.018652117
78	0x3dd8b893	0.1058208
79	0x3e10de07	0.14147197
80	0x3d03b625	0.03215613
81	0x3d425422	0.047443517
82	0x3e11f717	0.14254414
83	0x3e143dd3	0.14476709
84	0x3d39837e	0.045291416
85	0x3df256e3	0.118329786
86	0x3caa6f4b	0.020805022
87	0x3da8ee37	0.08248561
88	0x3da94d30	0.082666755
89	0x3daa7272	0.0832261
90	0xbb2f2e4b	-0.0026730474
91	0x3c97605d	0.018478567
92	0xbcb8db20	-0.022565424
93	0xbd3040bb	-0.04303048
94	0xbccdd0c9	-0.02512397
95	0x3d0ef945	0.03490569
96	0x3cfb6c92	0.030691419
97	0x3d3e66ed	0.046484876
98	0x3d30c07b	0.043152314
99	0x3d9c5fac	0.076354355
100	0x3da0c124	0.07849339
101	0x3db1f10b	0.086885534
102	0x3d2d4fc3	0.042312395
103	0x3ca10969	0.019657807
104	0x3d3f4792	0.046699114
105	0x3de97b34	0.11400452
106	0x3d66e7a9	0.056373272
107	0x3dacc1ec	0.08435425
108	0x3ce68796	0.028140824
109	0xbc33b22d	-0.010967773
110	0x3dd54968	0.10414392
111	0x3d47a773	0.048743676
112	0x3d4e6129	0.050385628
113	0x3cd9e2ed	0.026597464
114	0xbce59c4c	-0.02802863
115	0xba93a3ef	-0.0011264066
116	0x3d4d6fd9	0.050155494
117	0x3dacc327	0.0843566
118	0x3dc58a52	0.09645523
119	0x3cf74f26	0.030189108
120	0x3e237df9	0.15966024
121	0x3d5698e0	0.052391887
122	0x3db38e0d	0.087673284
123	0x3ce8ca54	0.02841679
124	0x3d8822cd	0.06647263
125	0x3da10214	0.078617245
126	0x3e1cbe2d	0.15306921
127	0x3de60908	0.11232191

conv1.lin.weight f4 [128, 8]
0	0x3bfce5e4	0.007717835
1	0x3d72c759	0.059272144
2	0xbd9109d5	-0.070819534
3	0x3cac536c	0.021035872
4	0x3d8bddb9	0.068293996
5	0x3d89e92c	0.06733927
6	0x3d9fb621	0.0779841
7	0xbd515d50	-0.05111438
8	0xbe743cdc	-0.23851341
9	0xbd8b2c6a	-0.06795581
10	0x3c78dd34	0.015189458
11	0xbe002db9	-0.12517442
12	0x3e944082	0.28955466
13	0xbe3348ab	-0.1750819
14	0xbe724f07	-0.23662959
15	0xbbac6cdd	-0.005262001
16	0x3e8202aa	0.25392658
17	0xbe1d4fcc	-0.15362471
18	0xbe2d9c8f	-0.16954254
19	0xbe2777ff	-0.16354369
20	0xbe970a40	-0.29500008
21	0x3c927d81	0.01788211
22	0xbc9ede97	-0.019393248
23	0xbda2bb91	-0.07945932
24	0xbe0b7c08	-0.13621533
25	0xbc9eabb1	-0.019368978
26	0x3e2b7e5e	0.16747424
27	0xbde8ba66	-0.11363678
28	0x3eb3ba5c	0.35103118
29	0xbd062727	-0.032752182
30	0x3e21194e	0.15732309
31	0xbe323686	-0.17403612
32	0x3e8f4ffa	0.27990705
33	0x3b7b0afa	0.0038306103
34	0x3e921be8	0.28536916
35	0xbd99c866	-0.07508926
36	0x3e7ac258	0.24488199
37	0xbe87985e	-0.26483434
38	0xbb68317e	-0.003542989
39	0xbbae4d63	-0.005319284
40	0x3e6d8cb4	0.23198205
41	0xbd3f8e8c	-0.046766803
42	0x3e71e9c7	0.23624335
43	0xbe4b6e01	-0.19866182
44	0x3e65a6a5	0.22426851
45	0x3d981844	0.07426503
46	0xbe551fe8	-0.20812953
47	0xbaa14237	-0.0012303059
48	0x3e05c93a	0.13065043
49	0xbe083fc7	-0.13305579
50	0x3d945d60	0.07244372
51	0xbd4945be	-0.049138777
52	0xbe308314	-0.17237502
53	0x3cc9332f	0.024560539
54	0xbe8041dd	-0.2505025
55	0x3c7247ce	0.014787627
56	0xbe739b4a	-0.23789707
57	0xbe266c60	-0.1625228
58	0xbea8c5a7	-0.32963297
59	0xbe09b163	-0.13446574
60	0xbe023c51	-0.12718321
61	0xbe5705ad	-0.20998259
62	0xbd37ead2	-0.044901676
63	0x3e4c8f02	0.19976428
64	0x3d9c4dd7	0.07632034
65	0x3d4888f4	0.048958734
66	0x3e4e1520	0.20125246
67	0xbcf3cc21	-0.029760422
68	0xbe4a57c7	-0.19760047
69	0x3cb48121	0.02203423
70	0x3e201b9c	0.15635532
71	0x3c6a9927	0.014318741
72	0x3d1c901c	0.03822337
73	0x3dfd6710	0.12373173
74	0x3e781414	0.24226409
75	0xbe170231	-0.1474693
76	0x3d6f5e07	0.05843928
77	0xbc7d336b	-0.0154541535
78	0xbe35ec1d	-0.17765851
79	0xbd825b78	-0.063651025
80	0xbdcae200	-0.09906387
81	0x3dd35180	0.10318279
82	0x3e61901e	0.22027633
83	0xbe206880	-0.15664864
84	0x3e0aebe2	0.13566545
85	0xbea163b0	-0.31521368
86	0xbed604ac	-0.4180044
87	0x3d895bae	0.0670694
88	0xbd989ea9	-0.07452137
89	0x3bbf8f5d	0.0058459477
90	0xbe7dee21	-0.2479787
91	0xbd9d061e	-0.076671824
92	0x3e6ed98b	0.23325174
93	0xbdd816e1	-0.10551239
94	0x3d2572b9	0.04039261
95	0xbceeed6e	-0.02916595
96	0x3e387685	0.18013962
97	0x3dc42b60	0.095785856
98	0x3e1ac47c	0.15114015
99	0xbd8722c4	-0.06598428
100	0x3e0c0f7a	0.13677779
101	0x3d9d8944	0.07692197
102	0x3e2955bb	0.1653661
103	0xbc03c52e	-0.008042617
104	0xbe6b40e4	-0.22973973
105	0x3db8aa7e	0.09016894
106	0xbea552bd	-0.32289687
107	0xbeda208f	-0.42602965
108	0xbe2f1ee7	-0.17101632
109	0x3d1542de	0.036440723
110	0xbdd6c8f5	-0.10487548
111	0xbe38b16f	-0.18036436
112	0xbde95a63	-0.11394193
113	0xbcad9aa5	-0.021191904
114	0x3d3fd32b	0.046832245
115	0xbdb1f0e8	-0.08688527
116	0x3e90ca74	0.2827946
117	0xbde4d5b0	-0.1117357
118	0xbde7456f	-0.1129254
119	0xbd8d0566	-0.06885795
120	0x3e06ab29	0.1315123
121	0xbd8e57ad	-0.069503166
122	0xbcb8059a	-0.022463609
123	0xbd5c8c0b	-0.053844493
124	0x3e960588	0.29301095
125	0x3dfa9a5d	0.12236474
126	0xbd044af4	-0.032298043
127	0xbd87e89e	-0.06636165
128	0x3e7d8c52	0.24760559
129	0xbd4dbb23	-0.050227296
130	0x3e4a164a	0.19735065
131	0x3db3bfaf	0.08776795
132	0xbdabef37	-0.08395236
133	0x3d29d36b	0.04146139
134	0x3d5e901b	0.05433665
135	0x3c4e65ba	0.012597496
136	0x3e346dc7	0.17620002
137	0xbd67795d	-0.056512225
138	0x3e93f71a	0.2889946
139	0xbcc74d7a	-0.024328936
140	0xbca28536	-0.01983891
141	0x3c9e4753	0.01932112
142	0xbe51ee5a	-0.2050108
143	0x3d3d29da	0.04618249
144	0x3d9d7239	0.07687802
145	0x3d58911d	0.052872766
146	0x3e0f4c09	0.13993849
147	0xbd1e20b0	-0.038605392
148	0xbdce7c71	-0.10082329
149	0x3cf5837f	0.029969929
150	0x3dff81fe	0.12475966
151	0xbcc45cf5	-0.023970107
152	0x3d6fbae8	0.058527857
153	0xbcc116e9	-0.023570495
154	0xbd485473	-0.048908662
155	0x3b0c49f2	0.002140638
156	0x3e4170b1	0.18890645
157	0x3cdd913f	0.027046798
158	0xbe393bc4	-0.18089205
159	0x3c41fbd7	0.011839828
160	0x3e5f3564	0.2179771
161	0x3d8a2d24	0.06746891
162	0x3e31f5a1	0.17378856
163	0x3c0e3189	0.008678802
164	0xbdca9b9f	-0.098929636
165	0x3d81e752	0.06342949
166	0x3dd63af9	0.10460467
167	0xbca7e7b8	-0.020496234
168	0xbe22b577	-0.15889536
169	0xbd21ffde	-0.039550655
170	0xbe866706	-0.26250476
171	0x3d9b12ed	0.07571969
172	0xbd7913c3	-0.060809862
173	0x3c484d2c	0.01222543
174	0x3c800f52	0.015632305
175	0xbdc5f65d	-0.09666131
176	0xbdcc91a5	-0.09988717
177	0x3cb65912	0.022259269
178	0x3db2f197	0.08737486
179	0x3d0eb68f	0.03484207
180	0xbe2feef3	-0.17180996
181	0x3ca86b99	0.020559119
182	0xbc0fcdf3	-0.008777129
183	0xbd06fa71	-0.032953683
184	0xbe54e978	-0.20792186
185	0xbe0ed602	-0.13948825
186	0x3e2767ff	0.16348265
187	0xbd65937f	-0.056048866
188	0xbe9b7848	-0.30365205
189	0xbd353a8f	-0.0442453
190	0xbbb4a4f6	-0.005512829
191	0x3bbe1cbe	0.005801766
192	0x3e9b04aa	0.30276996
193	0xbde6bb90	-0.112662435
194	0xbda7ed85	-0.081996
195	0xbde859c5	-0.11345247
196	0xbe3ebb83	-0.18626218
197	0xbdc6a128	-0.09698707
198	0x3e5fe6f6	0.21865448
199	0xbd328bec	-0.04359047
200	0x3e534ce6	0.20634803
201	0x3ce4c893	0.027927672
202	0x3e54349c	0.20723194
203	0x3d94c8b0	0.072648406
204	0x3e21caf0	0.15800071
205	0x3da7ac2a	0.081871346
206	0xbcdb9d49	-0.026808398
207	0x3d9beda4	0.07613686
208	0xbeb5590d	-0.35419503
209	0xbd51804b	-0.05114774
210	0x3e9bd9ce	0.3043961
211	0xbe8b32ab	-0.27187094
212	0x3bcb661a	0.00620724
213	0xbd036793	-0.032081198
214	0x3dcbe128	0.099550545
215	0x3db854bb	0.09000536
216	0xbe5d2e95	-0.21599801
217	0xbd8ee478	-0.06977171
218	0xbe301c28	-0.17198241
219	0xbe3b6ad5	-0.18302472
220	0xbdec60f3	-0.11541929
221	0x3d1a79d8	0.037713856
222	0xbe98a7a6	-0.29815406
223	0x3d8074b2	0.06272258
224	0xbde4824d	-0.111576654
225	0x3b96ccca	0.0046020495
226	0xbe39d59c	-0.18147892
227	0x3b7f09fd	0.0038915866
228	0x3de5f765	0.112288274
229	0x3d49a512	0.04922969
230	0x3da6807c	0.08129975
231	0x3d063b11	0.032771174
232	0xbda409e9	-0.08009703
233	0x3d1a00aa	0.03759829
234	0xbe84d19b	-0.25941166
235	0xbdf07996	-0.11741941
236	0x3ea68b26	0.32528037
237	0xbdb4a2e7	-0.08820134
238	0x3e36e025	0.17858942
239	0x3d8cade2	0.06869103
240	0x3c9b75f5	0.018977145
241	0x3d0b1c7e	0.03396272
242	0x3daa6ee0	0.08321929
243	0xbd3c5342	-0.04597784
244	0xbcd9e903	-0.026600366
245	0x3d4905f9	0.04907796
246	0x3e665cb0	0.22496295
247	0x3da0495c	0.07826492
248	0xbe63b8cf	-0.22238468
249	0xbd95bdcf	-0.07311594
250	0xbe46ee38	-0.1942681
251	0x3d15586b	0.036461275
252	0xbdd149b5	-0.102191366
253	0xbdbbde69	-0.09173281
254	0xbbe57650	-0.0070026293
255	0xbce3d055	-0.027809301

conv2.bias f4 [128]
0	0x3e6e46f6	0.23269257
1	0x3e1b6d84	0.15178496
2	0x3e1ba9dc	0.15201515
3	0x3e2af7dc	0.16696113
4	0x3e317683	0.17330365
5	0x3e7418b1	0.23837544
6	0x3e3a2455	0.18177922
7	0x3e2593d3	0.16169672
8	0x3e76fa8f	0.24119018
9	0x3e3b6f45	0.18304165
10	0x3e2e6f0b	0.17034547
11	0x3e6cbf58	0.23119867
12	0x3e4eee23	0.2020803
13	0x3e42f911	0.19040324
14	0x3e35a77a	0.17739668
15	0x3e975c7e	0.29562753
16	0x3e131adf	0.1436572
17	0x3e572029	0.21008362
18	0x3e525c8b	0.20543115
19	0x3e874e13	0.26426753
20	0x3e29ead2	0.16593483
21	0xbe856e7c	-0.26060855
22	0x3e3a1449	0.181718
23	0x3e506937	0.20352636
24	0x3e39974c	0.18124121
25	0x3da7f3d7	0.08200806
26	0x3d5e476f	0.054267343
27	0x3e520aab	0.20511882
28	0x3e64cc4d	0.2234356
29	0x3e43aab6	0.1910809
30	0x3e8581f7	0.26075718
31	0x3e72fe41	0.23729803
32	0x3e0be4fd	0.13661571
33	0x3e27b8a9	0.16379036
34	0x3bf37f7e	0.0074309697
35	0x3e3d16af	0.18465684
36	0x3e3d8b6c	0.18510216
37	0x3e569521	0.20955326
38	0x3e57e8be	0.21084878
39	0x3e3ff1ce	0.18744585
40	0x3e162ca4	0.14665467
41	0x3e12f7fa	0.14352408
42	0x3e15ace9	0.14616741
43	0x3e3984c7	0.18117057
44	0x3e2e8b3f	0.17045306
45	0x3e9191a4	0.28431427
46	0x3e4f766c	0.20260018
47	0x3e3e04f6	0.1855658
48	0x3e7348b0	0.23758197
49	0xbd01fc81	-0.031734947
50	0x3e5dd350	0.2166264
51	0x3e7fb01a	0.24969521
52	0x3e303b6d	0.17210169
53	0x3e56ccfc	0.20976633
54	0x3eb4a163	0.35279378
55	0x3e45b823	0.19308524
56	0x3e262ce2	0.16228059
57	0x3e688e35	0.22710498
58	0x3e0385f9	0.12844075
59	0x3dd2ec97	0.10299032
60	0x3ea73c9b	0.32663426
61	0x3e24cbbb	0.16093342
62	0x3e9000a7	0.28125498
63	0x3e24605b	0.16052382
64	0x3e963589	0.2933772
65	0x3e0a8b58	0.13529718
66	0x3e379020	0.17926073
67	0x3e05665d	0.1302733
68	0x3d0c4488	0.034245044
69	0x3e8de937	0.2771699
70	0x3e650499	0.22365035
71	0x3e154afd	0.14579387
72	0x3e433a8a	0.190653
73	0x3e8d1c9c	0.2756089
74	0x3e62d059	0.22149791
75	0x3e31aabb	0.17350285
76	0x3e5284c9	0.20558466
77	0x3e46f8e3	0.1943088
78	0x3e424964	0.18973309
79	0x3e3f2520	0.18666506
80	0x3e8013ba	0.2501505
81	0x3e592a89	0.21207632
82	0x3e4a6567	0.19765244
83	0x3e6367d8	0.22207582
84	0x3e3b07d5	0.18264706
85	0x3e190ce9	0.14946331
86	0x3e4cbabf	0.19993113
87	0x3e5a1df5	0.2130049
88	0x3e62443d	0.22096343
89	0x3e7de6e5	0.2479511
90	0xbc80ea6c	-0.015736781
91	0x3e759051	0.23980834
92	0x3e2ce809	0.1688539
93	0x3e539514	0.20662338
94	0x3e7f6d6a	0.24944082
95	0x3e8a22e6	0.2697975
96	0x3e2281e3	0.1586986
97	0x3e7b4c76	0.24540886
98	0x3e6fb239	0.2340783
99	0x3e2371c6	0.1596137
100	0x3e6b0332	0.22950438
101	0x3e4add93	0.19811086
102	0x3e39ca82	0.18143657
103	0x3e3ecf14	0.18633682
104	0x3e85a31a	0.26101
105	0x3e21b48d	0.15791531
106	0x3e85411f	0.26026246
107	0x3e99ab18	0.30013347
108	0x3e400e7d	0.18755527
109	0x3e4c2dba	0.19939318
110	0x3e5ec02d	0.21752997
111	0x3da051c7	0.07828098
112	0x3de7d8b4	0.1132063
113	0x3e67d286	0.22638902
114	0x3e5660c3	0.20935349
115	0x3e85d301	0.26137546
116	0x3e8368f3	0.25666007
117	0x3e38b3d2	0.18037346
118	0x3e35de23	0.1776052
119	0x3e244436	0.16041645
120	0x3e197c20	0.14988756
121	0x3e633a9f	0.22190331
122	0x3e30bf5d	0.172605
123	0x3e62ccff	0.22148512
124	0x3e454623	0.19265036
125	0x3e33b988	0.17551243
126	0x3e669ee3	0.22521548
127	0x3e263d6e	0.16234371

conv2.lin.weight f4 [128, 128]
0	0x3dd30979	0.10304541
1	0xbc2ce974	-0.010553706
2	0xbbf54cc5	-0.0074859583
3	0x3d905e90	0.07049286
4	0x3deb80bd	0.11499164
5	0x3e076732	0.1322296
6	0x3d1f9257	0.03895792
7	0xbe46253f	-0.19350146
8	0x3df5497b	0.11976906
9	0x3c8361c0	0.016037822
10	0x3d3b2ea7	0.045698788
11	0xbd97813f	-0.073976986
12	0x3da7bce3	0.08190324
13	0xbde39ba5	-0.11113671
14	0x3d134404	0.035953537
15	0x3db2883d	0.08717392
16	0xbd6badb5	-0.057538707
17	0xbe096172	-0.13416079
18	0xbd1d0b4a	-0.038340844
19	0x3e0535ef	0.13008855
20	0x3dcc7ab0	0.09984338
21	0x3d033d91	0.032041136
22	0x3e0658dd	0.13119836
23	0x3de25ef2	0.11053266
24	0xbe4f0ef7	-0.20220552
25	0xbdaa697c	-0.08320901
26	0xbdc19e53	-0.09454026
27	0xbdea6181	-0.11444379
28	0xbe3cba99	-0.18430556
29	0xbe834bcf	-0.25643775
30	0xbe41201c	-0.18859905
31	0x3d95181b	0.072799884
32	0xbd810009	-0.06298835
33	0x3e50006e	0.20312664
34	0x3d6b8abc	0.057505354
35	0xbe198399	-0.14991607
36	0xbcfe7b93	-0.031064784
37	0x3dcffdc1	0.101558216
38	0x3d40a738	0.047034472
39	0x3e13c10a	0.14429107
40	0xbe631e72	-0.22179583
41	0xbdcbb6e4	-0.09946993
42	0xbe19290a	-0.14957061
43	0xbd8207de	-0.06349157
44	0xbdfbee55	-0.123013176
45	0x3d8a4251	0.0675093
46	0x3c6d1247	0.01446969
47	0x3c26298e	0.010141743
48	0xbd5b5976	-0.053552113
49	0xbc51c86a	-0.01280413
50	0xbdb18e43	-0.086697124
51	0xbe8653a7	-0.26235697
52	0xbe0d71c5	-0.13812931
53	0xbe299b60	-0.16563177
54	0x3d03d49b	0.03218518
55	0xbd8d1cf6	-0.068902895
56	0x3c9c8978	0.019108519
57	0x3d35eadd	0.044413436
58	0xbe60cfad	-0.21954222
59	0xbe00f05e	-0.12591693
60	0x3dda9fd3	0.10675015
61	0xbe0b1545	-0.13582332
62	0x3d022d84	0.03178169
63	0x3df1efdd	0.118133284
64	0x3e20df89	0.15710272
65	0xbcc81138	-0.024422273
66	0x3dc45dd5	0.095882095
67	0x3d478b89	0.048717055
68	0xbc52a7b9	-0.012857371
69	0xbc28ea6f	-0.0103098
70	0xbc5bfb34	-0.013426591
71	0x3dd4d421	0.10392023
72	0xbd0f1515	-0.034932215
73	0xbe13e29f	-0.14441918
74	0x3cef4b2e	0.029210653
75	0xbce0245b	-0.027361086
76	0xbdcf4d16	-0.10122125
77	0xbea08c1f	-0.31356904
78	0x3d800c09	0.062522955
79	0x3e0fe873	0.14053516
80	0x3e148039	0.14502038
81	0xbe281627	-0.164147
82	0x3df870d0	0.12130892
83	0x3d23e39a	0.04001198
84	0x3e2061ae	0.15662262
85	0x3cb7def2	0.022445176
86	0x3cc4bc46	0.024015557
87	0x3d55e1f5	0.052217443
88	0xbdb6fd05	-0.089349784
89	0xbd706b8e	-0.058696322
90	0xbe3a91d7	-0.18219696
91	0x3e0b068d	0.13576718
92	0xbe030a1b	-0.12796824
93	0xbb515208	-0.0031939764
94	0x3c9b521d	0.018960053
95	0xbbf6d416	-0.007532607
96	0xbde704e7	-0.11280232
97	0xbd96168a	-0.07328518
98	0xbe397908	-0.18112576
99	0x3dddf8db	0.10838481
100	0x3d9a8b3d	0.07546089
101	0x3d6d5e1f	0.05795109
102	0xbdf19274	-0.11795512
103	0xbd0083a6	-0.03137555
104	0xbd923fbb	-0.07141062
105	0xbde005c2	-0.10938598
106	0xbd2d2a66	-0.042276762
107	0xbd7b9bbd	-0.06142782
108	0x3ddb46fd	0.10706899
109	0xbe06f445	-0.13179119
110	0xbde4e767	-0.11176949
111	0xbe1939bf	-0.14963435
112	0x3be71910	0.007052548
113	0x3c0e806c	0.00869761
114	0xbe4d857f	-0.20070456
115	0x3d608819	0.054817293
116	0x3d9146ee	0.07093607
117	0xbd8bbded	-0.06823335
118	0x3afe02db	0.0019379513
119	0xbdd314a1	-0.10306669
120	0xbbce3fd8	-0.006294232
121	0x3c2447e5	0.010026907
122	0xbda31b42	-0.079641834
123	0xbe365f2d	-0.17809744
124	0x3c13688c	0.008997094
125	0x3e444db0	0.1917026
126	0x3def83cd	0.11695061
127	0xbe261a07	-0.16220866
128	0x3dd3ff65	0.10351447
129	0xbd879df3	-0.06621923
130	0x3e133d61	0.14378883
131	0x3cf88345	0.030336032
132	0x3def1dc8	0.11675602
133	0x3c8d488a	0.017246503
134	0x3e17878c	0.14797801
135	0xbdc2985f	-0.09501719
136	0x3c153953	0.009107905
137	0x3db5ec53	0.08882966
138	0x3df466e4	0.11933687
139	0x3b8514de	0.0040613255
140	0x3c1a85a2	0.009431275
141	0xbdd6e706	-0.10493283
142	0xbd3a2ba2	-0.045451768
143	0x3c64211b	0.013923909
144	0xbdcdabad	-0.1004251
145	0x3e23991a	0.15976372
146	0xbe1ab152	-0.15106705
147	0xbdbe3077	-0.09286588
148	0x3da11822	0.07865931
149	0xbdcecbf3	-0.10097494
150	0x3d4387de	0.047736995
151	0xbdd933f5	-0.10605613
152	0xbddbe66a	-0.10737307
153	0xbca0ea9a	-0.019643117
154	0xbcae982e	-0.0213128
155	0xbd3b21d9	-0.045686577
156	0xbd85a709	-0.06526
157	0xbd6679d9	-0.056268547
158	0xbe29ea2c	-0.16593236
159	0xbc7a0ebd	-0.015262303
160	0x3d8763b8	0.06610817
161	0x3e051374	0.12995702
162	0xbd92e8eb	-0.07173332
163	0x3c98ee91	0.018668445
164	0x3d0fcc9b	0.035107236
165	0xbd288fae	-0.04115265
166	0x3d91852f	0.07105481
167	0x3e07e4b0	0.13270831
168	0xbdd8f2b0	-0.10593164
169	0xbd50918e	-0.05092006
170	0x3e01c803	0.12673955
171	0xbdd29660	-0.10282588
172	0xbdf1c1bc	-0.1180453
173	0xbe191af9	-0.14951696
174	0x3df52ddf	0.1197164
175	0xbd90d7bb	-0.07072397
176	0x3e01afd8	0.12664735
177	0x3dc204f9	0.09473605
178	0xbd9a6044	-0.075378925
179	0xbd3a97f5	-0.045555074
180	0xbd89ff78	-0.0673818
181	0x3d93e146	0.07220702
182	0xb95247ee	-0.00020053957
183	0xbe12df43	-0.1434298
184	0xbc313a82	-0.010817172
185	0x3dcde4b6	0.10053389
186	0xbd16678e	-0.03671985
187	0x3ddb5a09	0.10710532
188	0xbdf9839b	-0.12183305
189	0x3d1fdc23	0.039028298
190	0xbe1eb786	-0.15499696
191	0xbd814ff6	-0.063140795
192	0xbd2a1213	-0.041521143
193	0x3d68570c	0.05672364
194	0xbe4c1727	-0.19930707
195	0x3d96dae6	0.0736597
196	0xbcf9246a	-0.030412871
197	0xbd07d519	-0.03316221
198	0xbdf0b0e3	-0.117524885
199	0xbcb17eb5	-0.021666864
200	0xbd2656a0	-0.040609956
201	0xbe609e27	-0.2193533
202	0xbdf456cf	-0.1193062
203	0x3d730eca	0.059340276
204	0x3d16da0b	0.036829036
205	0xbe219ce6	-0.15782508
206	0x3d1960ac	0.03744571
207	0xbd33e580	-0.04392004
208	0xbd1f2ea7	-0.03886285
209	0xbe05a676	-0.13051781
210	0xbd3159d1	-0.043298546
211	0xbce64c80	-0.02811265
212	0xbd475ae4	-0.048670664
213	0xba351ab9	-0.0006908584
214	0xbe48a5ea	-0.19594541
215	0x3d087d9f	0.033322927
216	0xbd2ad398	-0.041705698
217	0xbd8d1385	-0.06888489
218	0xbdeb286c	-0.11482319
219	0x3dbbaacd	0.09163437
220	0xbe6376f0	-0.2221334
221	0xbe34a0ff	-0.1763954
222	0x3d5e13ad	0.054217983
223	0xbe1959cd	-0.14975663
224	0xbd9dff03	-0.07714655
225	0xbde8407a	-0.11340423
226	0xbc4411b0	-0.011967108
227	0x3e02a1bc	0.1275701
228	0x3e09875d	0.13430543
229	0xbd42682a	-0.04746262
230	0xbe898d70	-0.2686572
231	0xbe0364ed	-0.12831469
232	0x3e45a3c5	0.19300754
233	0xba4a0252	-0.0007706034
234	0xbdf56cc8	-0.11983639
235	0xbdb30560	-0.087412596
236	0x3b6778fc	0.0035319915
237	0xbd0f2f64	-0.034957305
238	0xbd6e8da3	-0.058240544
239	0xbdad97f8	-0.08476251
240	0x3ba90682	0.0051582465
241	0x3e0bf343	0.13667016
242	0x3cf709e5	0.030156085
243	0x3d9784ee	0.07398401
244	0x3e16e578	0.14735973
245	0x3dab217c	0.08355996
246	0xbe1a5ed0	-0.1507523
247	0xbdca03f7	-0.098640375
248	0x3e145479	0.14485349
249	0x3d9e076b	0.077162586
250	0x3d29ddc4	0.041471258
251	0x3d755854	0.05989869
252	0xbe052e22	-0.1300588
253	0xbe0060e6	-0.12536964
254	0xbe023c81	-0.12718393
255	0x3bd5cb4e	0.00652448

out_ad.weight f4 [1, 128]
0	0x3d6885b1	0.056768123
1	0x3dd3df73	0.10345354
2	0xbd5b3a91	-0.05352265
3	0x3d6d575b	0.057944637
4	0x3e180dd8	0.14849031
5	0xbe748ecb	-0.23882596
6	0xbca96294	-0.020676889
7	0xbddddd36	-0.10833208
8	0x3d3bb5bd	0.045827616
9	0xbd1ec501	-0.038762096
10	0xbd474e08	-0.0486584
11	0x3e8858db	0.2663029
12	0xbdf74095	-0.12072865
13	0x3e34fddf	0.17674969
14	0xbdcbd946	-0.09953551
15	0xbe0471e0	-0.12934065
16	0x3ce18ae7	0.027532054
17	0x3d2b15b6	0.041768752
18	0x3d2cad29	0.042157326
19	0xbd9b4536	-0.0758156
20	0x3df9ec1c	0.122032374
21	0xbeb448e3	-0.35211858
22	0xbe44529e	-0.19172141
23	0xbe504d36	-0.20341954
24	0xbde264ee	-0.11054407
25	0x3d8d2abe	0.06892918
26	0x3aceab83	0.0015767667
27	0xbe4ec4b5	-0.20192225
28	0x3d490210	0.049074233
29	0xbdbbce84	-0.09170249
30	0xbdacbae0	-0.08434081
31	0x3db903da	0.09033938
32	0xbca153c3	-0.019693261
33	0x3d2e2cb7	0.042523112
34	0xbdabd0e7	-0.08389454
35	0xbc6138be	-0.013746439
36	0xbc9f3547	-0.019434584
37	0xbe41ff17	-0.18944965
38	0x3e53c6a8	0.2068125
39	0x3b2abb77	0.002605168
40	0x3ddb8b01	0.10719872
41	0xbd05f62e	-0.03270548
42	0xbe08e05a	-0.13366833
43	0xbd437a81	-0.04772425
44	0xbb7ebe0b	-0.0038870599
45	0xbdd9ce95	-0.106351055
46	0x3df45011	0.11929334
47	0xbd4ffadd	-0.05077635
48	0xbe9af826	-0.30267447
49	0x3d9b551f	0.07584595
50	0xbe11e7d0	-0.14248586
51	0xbe90a70a	-0.2825244
52	0xbe3df83c	-0.18551725
53	0xbe161c59	-0.14659251
54	0xbe90c20a	-0.2827304
55	0xbe382dec	-0.17986268
56	0x3e291385	0.16511352
57	0x3ded2f46	0.11581282
58	0xbda09238	-0.07840389
59	0x3e07834e	0.13233683
60	0xbea97f44	-0.33104908
61	0x3db2314a	0.087008074
62	0xbe590055	-0.21191533
63	0xbc0562cb	-0.00814123
64	0xbe43d8cf	-0.19125675
65	0xbd85cdcb	-0.065333925
66	0x3e404399	0.18775786
67	0x3e089fa6	0.13342151
68	0x3d4387c4	0.047736898
69	0x3c2f801b	0.010711695
70	0x3dd613ae	0.10452972
71	0x3e1e9c6d	0.15489359
72	0xbe0800df	-0.13281582
73	0x3e249bb1	0.16075017
74	0x3c27bfca	0.010238597
75	0xbcc243b7	-0.02371393
76	0xbe817766	-0.25286406
77	0x3e1f8959	0.15579738
78	0xbdb5fae7	-0.088857464
79	0x3cf979b2	0.030453537
80	0xbdbf910d	-0.09353838
81	0x3e11f384	0.1425305
82	0x3e0e840e	0.13917562
83	0xbe4be0b2	-0.19909933
84	0x3cd6164d	0.02613368
85	0x3dcb707c	0.09933564
86	0xbd640491	-0.055668417
87	0x3b868f62	0.004106448
88	0x3e69578f	0.22787307
89	0x3e6afc19	0.2294773
90	0xba98cfec	-0.0011658645
91	0x3cc2a17b	0.02375864
92	0x3e06564e	0.1311886
93	0x3c4596db	0.0120598925
94	0xbcbfdd9c	-0.023421101
95	0x3bae421e	0.0053179404
96	0xbe269f70	-0.16271758
97	0x3e598f44	0.21246058
98	0x3e21a84f	0.15786861
99	0xbb08ee88	-0.0020894129
100	0xbe15518e	-0.14581892
101	0x3e261767	0.16219865
102	0x3e3990da	0.18121663
103	0x3e29594f	0.16537975
104	0x3e47e43e	0.19520661
105	0x3e2dde03	0.16979222
106	0xbe5a7271	-0.21332718
107	0xbe83798b	-0.25678667
108	0xbd4cbdd9	-0.04998574
109	0xbdcc8044	-0.09985402
110	0x3e4ceab4	0.20011407
111	0x3d035d13	0.032071184
112	0x3dc5319f	0.09628605
113	0xbd9318ed	-0.071824886
114	0xbe25d1a0	-0.16193247
115	0x3e0a8c18	0.13530004
116	0xbbc6bb7d	-0.006064831
117	0xbd39feef	-0.04540914
118	0x3e2cb91f	0.16867493
119	0xbcf3a308	-0.029740825
120	0x3d98222b	0.07428392
121	0xbdd99124	-0.106233865
122	0x3d35cc13	0.044384073
123	0x3eba1396	0.36343068
124	0xbcd5e354	-0.026109375
125	0x3c89f82e	0.016841974
126	0xbdbea6c7	-0.09309154
127	0xbc9b7ff0	-0.018981904

out_pd.weight f4 [1, 128]
0	0x3e1b92dc	0.15192741
1	0xbdbc6a15	-0.09199921
2	0xbe261f14	-0.16222793
3	0xbde24cdf	-0.11049818
4	0xbe52dc51	-0.20591857
5	0x3d111545	0.035420675
6	0xbca69582	-0.020334963
7	0x3df9f294	0.12204471
8	0x3de175ad	0.11008773
9	0xbe35ec01	-0.1776581
10	0x3d720db8	0.059095114
11	0x3cf1aace	0.029500391
12	0x3d90c752	0.07069267
13	0xbe39d203	-0.1814652
14	0xbe04a450	-0.12953305
15	0x3e4fcb14	0.20292312
16	0xbde0a0d0	-0.109681726
17	0x3e2f79b4	0.1713627
18	0xbc014728	-0.0078905
19	0x3e7635fd	0.24044032
20	0xbe1a8f12	-0.1509364
21	0x3e6047b8	0.21902359
22	0x3dd74b0c	0.10512361
23	0xbe04d503	-0.12971883
24	0xbdf01430	-0.117226005
25	0xbd038ead	-0.032118488
26	0x3d6388d9	0.05555043
27	0xbd7453e5	-0.05965032
28	0xbe1a0fc9	-0.15045084
29	0xbd7a0a71	-0.061045114
30	0xbd031436	-0.032001697
31	0xbe28333a	-0.16425791
32	0xbc822313	-0.015885865
33	0xbe002ccb	-0.12517087
34	0x3d289f6c	0.04116766
35	0xbdef5aea	-0.11687262
36	0x3e6d885c	0.23196548
37	0xbd8266fc	-0.06367299
38	0x3e076fd9	0.1322626
39	0x3d15adc4	0.03654267
40	0xbe2e6d8a	-0.17033973
41	0x3daac199	0.08337707
42	0xbd8ce434	-0.06879464
43	0xbd344979	-0.04401538
44	0x3e066468	0.1312424
45	0x3d699a84	0.057032123
46	0x3e0232be	0.12714669
47	0x3dad34e0	0.08457351
48	0xbd55b569	-0.05217496
49	0xbdc0aeb1	-0.0940832
50	0xbd821e92	-0.06353487
51	0x3e03a956	0.12857565
52	0x3e3df15e	0.18549106
53	0xbda67f14	-0.08129707
54	0x3eadb3d6	0.33926266
55	0x3e131481	0.1436329
56	0xbdd0fab4	-0.10204068
57	0x3d586349	0.05282906
58	0xbd5834eb	-0.05278484
59	0xbd52e6e7	-0.051489737
60	0xbdf4e207	-0.11957174
61	0xbe40694e	-0.1879017
62	0x3e8c2151	0.27369168
63	0x3d89cd39	0.06728596
64	0x3e51751a	0.20454827
65	0x3e043dad	0.12914152
66	0x3e34c24d	0.17652245
67	0xbd47f160	-0.048814178
68	0xbdb201b2	-0.086917296
69	0x3e181de6	0.14855155
70	0xbcb17a27	-0.021664692
71	0x3d173847	0.036918905
72	0x3e526498	0.20546186
73	0x3dbdcdbe	0.09267758
74	0x3d7b2097	0.061310377
75	0x3e19bcb3	0.1501339
76	0x3e1ebe83	0.15502362
77	0xbde81a0c	-0.11333093
78	0x3e50bcb6	0.20384488
79	0x3c948c9e	0.018133458
80	0x3dab59d1	0.083667405
81	0xbd7b14eb	-0.061299246
82	0xbe4deea1	-0.20110561
83	0xbc727791	-0.014799015
84	0x3e88608a	0.26636153
85	0x3dfa22f2	0.122136965
86	0x3dfb8148	0.12280518
87	0xbdb25755	-0.087080635
88	0xbde4bacd	-0.11168442
89	0xbe8cc5ce	-0.27494663
90	0xbd22f3f0	-0.03978342
91	0x3da6fa11	0.08153165
92	0xbe52fd09	-0.20604338
93	0x3e5a449b	0.21315233
94	0xbdf97bbb	-0.12181803
95	0x3e210c4e	0.1572735
96	0x3e0c35bc	0.13692373
97	0x3d92fdce	0.07177316
98	0xbd3b69cc	-0.045755193
99	0xbe2d2eac	-0.16912335
100	0xbdb11f95	-0.08648602
101	0xbe0642e6	-0.13111457
102	0xbe37f24d	-0.17963524
103	0xbdca4260	-0.09875941
104	0xbd9ebec8	-0.077512324
105	0x3cf6e1fd	0.030137056
106	0xbdee9b61	-0.1165073
107	0x3e8ae660	0.27128887
108	0x3a1c1849	0.00059545465
109	0x3e6fd33f	0.23420428
110	0xbdcbbb5a	-0.09947844
111	0x3cd22e71	0.02565691
112	0xbe3606c1	-0.17776014
113	0x3d410628	0.04712501
114	0x3cf0f9a7	0.029415919
115	0xbe895050	-0.26819086
116	0xbeb48f24	-0.35265458
117	0x3de90c1f	0.11379265
118	0x3ce60884	0.028080232
119	0xbe259ee5	-0.16173895
120	0xbb720b0a	-0.003693285
121	0x3da687d5	0.08131377
122	0xbdfbdb8c	-0.122977346
123	0x3d9f717b	0.077853166
124	0xbdaff703	-0.085920356
125	0x3e278d89	0.16362585
126	0xbc8955e3	-0.016764587
127	0x3e3dde38	0.18541801

out_ftd.weight f4 [1, 128]
0	0xbdb0778e	-0.08616553
1	0xbdac542f	-0.08414494
2	0xbd8eb615	-0.06968323
3	0x3cc587cb	0.024112603
4	0xbe9a854a	-0.30179816
5	0x3ded64cc	0.11591491
6	0xbe0c897b	-0.1372432
7	0x3dadd5f1	0.08488072
8	0x3dd4729e	0.10373424
9	0x3cb22e9a	0.021750737
10	0x3cc2c36c	0.023774825
11	0x3d3b46c6	0.04572179
12	0x3da98ef4	0.08279219
13	0xbe381e86	-0.17980394
14	0xbe18a600	-0.14907074
15	0x3e7fe127	0.24988233
16	0xbe423487	-0.1896535
17	0xbd6b6546	-0.05746963
18	0x3e1d7590	0.15376878
19	0x3e04d65c	0.12972397
20	0x3d8a4651	0.06751693
21	0x3e64b5ba	0.22334948
22	0x3e0ff9e6	0.14060172
23	0x3cfc5aca	0.03080501
24	0xbe3e1c23	-0.18565421
25	0xb9490cab	-0.00019173573
26	0x3e43a831	0.19107129
27	0xbe007fea	-0.12548795
28	0xbe155be0	-0.14585829
29	0xbdfddbd2	-0.12395443
30	0xbeaaa59f	-0.33329484
31	0x3e1236d4	0.14278728
32	0xbdcf2662	-0.10114743
33	0xbddfde65	-0.1093109
34	0xbb545ace	-0.0032402757
35	0x3e373c20	0.1789403
36	0x3e266d64	0.16252667
37	0x3e2aa219	0.16663398
38	0x3df356a9	0.118817635
39	0x3d7907db	0.060798507
40	0xbe367005	-0.1781617
41	0x3e27871d	0.16360135
42	0x3d4d9acc	0.050196454
43	0x3daac217	0.08337801
44	0x3e022b02	0.12711719
45	0x3e07bacd	0.13254853
46	0x3defc165	0.11706809
47	0x3ca91de1	0.02064413
48	0xbdbefd9f	-0.09325718
49	0xbe114b6f	-0.14188932
50	0xbddf5b59	-0.10906095
51	0x3dc9d519	0.09855098
52	0x3d8dadb1	0.06917895
53	0x3d8ff65f	0.070294134
54	0x3e2a0ddc	0.1660685
55	0xbdb137f4	-0.0865325
56	0xbd538b03	-0.051646244
57	0xbd4cf5da	-0.05003915
58	0xbe14ccd3	-0.14531259
59	0x3bf77c17	0.0075526345
60	0xbeb33b71	-0.35006288
61	0xbe270a77	-0.16312586
62	0x3e210a8f	0.15726684
63	0x3e07ebf2	0.132736
64	0x3e21d478	0.15803707
65	0x3dfc21e6	0.12311153
66	0x3e81ade8	0.25327992
67	0xbe0c244f	-0.13685726
68	0x3cd1c9b7	0.02560888
69	0xbda396c7	-0.07987743
70	0x3e1da0da	0.15393391
71	0x3d89ed78	0.06734747
72	0x3e3b67b0	0.18301272
73	0xbe6c4dcf	-0.23076557
74	0x3e2b2677	0.16713892
75	0xbd7111a3	-0.05885471
76	0x3cdb9e25	0.026808808
77	0xbdf25957	-0.118334465
78	0x3e10492a	0.1409041
79	0xbe276ff9	-0.16351308
80	0xbe02a0e9	-0.12756695
81	0xbe3cdd54	-0.18443805
82	0x3de43707	0.11143308
83	0x3d6b1cbd	0.057400454
84	0x3e23a9f8	0.15982807
85	0x3d20957c	0.03920506
86	0xbd27e897	-0.0409933
87	0xbdd2f1ca	-0.10300024
88	0xbe997462	-0.29971606
89	0xbe0f93a4	-0.14021164
90	0xbe108f36	-0.1411713
91	0x3e0969c7	0.13419257
92	0xbe1532b0	-0.14570117
93	0x3cb4d130	0.022072405
94	0x3e9a7767	0.30169222
95	0xbe299f59	-0.16564693
96	0x3e00401a	0.12524453
97	0xbe600add	-0.21879144
98	0xbe0007da	-0.12502995
99	0xbd89017c	-0.06689736
100	0xbe04fe7c	-0.12987703
101	0x3d485a36	0.048914157
102	0x3d860e98	0.06545752
103	0xbdea6109	-0.11444289
104	0xbed5d25e	-0.4176206
105	0x3e165f4c	0.1468479
106	0x3e08edb0	0.1337192
107	0x3e852ebe	0.26012224
108	0xbe1dbc2a	-0.1540381
109	0x3dbef7a0	0.093245745
110	0x3c18a460	0.009316534
111	0x3d639e1b	0.055570703
112	0xbdca666e	-0.09882818
113	0xbde59c8b	-0.11211499
114	0x3e06e02d	0.13171454
115	0xbebb771c	-0.3661431
116	0x3d77fe4a	0.060545243
117	0x3e1bea1c	0.15226024
118	0x3dcd8a09	0.10036094
119	0x3d4bae44	0.04972674
120	0xbdc0d21a	-0.09415074
121	0x3e61cdbe	0.2205114
122	0xbe2cdc90	-0.16881013
123	0x3d355717	0.04427251
124	0xbc3b059b	-0.011414911
125	0x3e25937e	0.16169545
126	0xbe564340	-0.20924091
127	0x3e0e239e	0.13880774

out_als.weight f4 [1, 128]
0	0xbe615a56	-0.22007117
1	0xbe09a632	-0.13442305
2	0xbdd77b5d	-0.105215766
3	0xbe2f88b6	-0.17141995
4	0xbe45d1ff	-0.19318388
5	0xbe2edc0c	-0.17076129
6	0xbdb9c0b4	-0.09069958
7	0xbc04da5c	-0.008108702
8	0x3e45cae7	0.19315682
9	0xbe005b5e	-0.12534854
10	0xbe04af49	-0.12957491
11	0xbe293751	-0.16525008
12	0x3d8599af	0.065234534
13	0x3e8cb227	0.2747967
14	0xbe1b24c3	-0.15150742
15	0x3e8c9964	0.27460778
16	0x3d6a3c52	0.057186432
17	0x3d348534	0.044072345
18	0xbddeed87	-0.108851485
19	0x3d0fc1ac	0.03509681
20	0x3e1d771d	0.1537747
21	0xbe447b1a	-0.19187585
22	0xbe26f7ac	-0.16305417
23	0xbe1bcb40	-0.15214252
24	0xbcf6167e	-0.030040022
25	0x3cbe1f1f	0.0232082
26	0xbc95982d	-0.01826104
27	0xbe63b6e0	-0.2223773
28	0x3e4ccd8d	0.20000286
29	0x3d13130b	0.035906833
30	0xbc6bdf36	-0.014396479
31	0x3d7f040b	0.062259715
32	0x3d8cf517	0.06882685
33	0x3e390f7b	0.18072312
34	0xbe498bb0	-0.19682193
35	0xbbb15ac8	-0.0054124333
36	0x3e0ec99a	0.13944092
37	0x3d9a8f39	0.07546849
38	0x3cdb8840	0.026798368
39	0x3e5b4a58	0.21415079
40	0x3e1659ec	0.1468274
41	0x3e57e49e	0.21083304
42	0x3e4157f7	0.18881212
43	0x3e18c52c	0.14918965
44	0x3e27cd84	0.16386992
45	0x3cdf3d7d	0.027251
46	0x3e3f9e09	0.1871263
47	0xbe42d5fa	-0.19026938
48	0xbe12a20e	-0.14319631
49	0xbd8fbae3	-0.07018068
50	0x3e562640	0.20913029
51	0xbe380d9f	-0.17973946
52	0xbd4aaec5	-0.04948308
53	0xbc358e51	-0.011081294
54	0x3e24f41a	0.16108742
55	0xbe4aeaff	-0.19816206
56	0x3d928d84	0.07155898
57	0x3e2853f9	0.16438283
58	0x3ceeff06	0.029174339
59	0x3e17352b	0.14766376
60	0x3d74aeca	0.059737004
61	0xbe3694bd	-0.17830177
62	0xbc4461d2	-0.011986213
63	0x3e3be57d	0.18349262
64	0xbc5613f8	-0.013066284
65	0x3e0e2f2f	0.13885187
66	0xbddaa112	-0.10675253
67	0xbda4e07a	-0.08050628
68	0x3b1d88b4	0.002403778
69	0x3e343a1a	0.17600289
70	0x3e2565e9	0.16152157
71	0xbd5c997f	-0.053857323
72	0x3d7a9432	0.061176486
73	0x3dc753ba	0.097327664
74	0x3e49c1e6	0.19702873
75	0xbe1237c7	-0.1427909
76	0x3e23a87b	0.15982239
77	0x3b378a25	0.0028005925
78	0xbdebb4c4	-0.11509088
79	0xbdd08683	-0.10181906
80	0x3bb392c8	0.005480144
81	0x3dbf6c3a	0.093468145
82	0x3b8abc3b	0.0042338646
83	0xbe74469a	-0.23855057
84	0xbd31cf7d	-0.043410767
85	0x3df0a0be	0.11749409
86	0xbe3a2d46	-0.18181333
87	0x3e73950b	0.23787324
88	0xbe8bdd2a	-0.27317172
89	0xbe9aa30a	-0.30202514
90	0x3c40f5a3	0.011777314
91	0x3dbeed6c	0.093226284
92	0xbe05e87c	-0.13076967
93	0xbd307842	-0.043083437
94	0xbdbf8eb2	-0.09353389
95	0xbe451e95	-0.19249947
96	0x3c0aaa39	0.008463436
97	0xbe4fd6db	-0.20296805
98	0xbc999cd3	-0.018751537
99	0xbcbc6b50	-0.02300039
100	0xbd2a80e5	-0.04162683
101	0xbd8cd194	-0.06875911
102	0x3e080847	0.13284408
103	0x3d2c6f82	0.04209853
104	0x3d94ea93	0.07271304
105	0x3daf4286	0.0855761
106	0xbe234af9	-0.15946569
107	0x3e49d4d1	0.1971009
108	0xbe8569d8	-0.26057315
109	0xbd8b5e4e	-0.068050966
110	0xbdafca27	-0.085834794
111	0xbe244162	-0.16040567
112	0x3dd5358e	0.10410605
113	0x3d84cba9	0.064841576
114	0xbe4770f2	-0.19476679
115	0x3d26a4ed	0.04068463
116	0xbd01fd89	-0.03173593
117	0x3e0927e6	0.13394126
118	0xbe0483d2	-0.1294091
119	0xbbecc722	-0.007225887
120	0x3ea3b961	0.3197737
121	0x3e39eebf	0.1815748
122	0x3e788116	0.24267992
123	0x3c636cda	0.013880933
124	0x3e3408de	0.17581508
125	0xbd1de883	-0.03855182
126	0xbe3ed101	-0.18634416
127	0xbd96a403	-0.073555015
