ANN/best_ANN.pt (torch, 402407 bytes, 3 tensors)

dense1.weight f4 [16, 6245]
0	0x3b887977	0.0041648704
1	0x3bdb75f7	0.006697412
2	0x3ade2f6e	0.0016951391
3	0x3c68abbe	0.014201103
4	0xbb7d1caf	-0.0038621833
5	0x3bd64750	0.006539263
6	0xbb4e2b8d	-0.0031459064
7	0x3b981ee3	0.004642354
8	0x3c64d094	0.0139657445
9	0xbc7b92a7	-0.015354789
10	0x3c4a21b4	0.012337137
11	0x3b31ea2c	0.0027147634
12	0x3c6bfb05	0.014403109
13	0x3ba7d53d	0.0051218555
14	0x3b750714	0.0037388252
15	0xbb3e9b4c	-0.0029084263
16	0x3bcde374	0.006283218
17	0x3c0febae	0.008784218
18	0xbc20cf61	-0.009815068
19	0x3b901982	0.004397572
20	0xbc507fef	-0.012725814
21	0xb89d0c2d	-7.488611e-05
22	0xbc262d19	-0.010142588
23	0x3bbebb15	0.0058206418
24	0xbbf25f4e	-0.007396615
25	0xbbc0be67	-0.0058820727
26	0xbbefb69a	-0.007315469
27	0xbb436bce	-0.0029818895
28	0xbb8cb1ec	-0.004293671
29	0xbbeedced	-0.00728952
30	0x3b97397e	0.004615008
31	0xbc608bba	-0.013705188
32	0x3c87994a	0.016552586
33	0xbba21a6c	-0.0049469974
34	0xba998fe7	-0.001171586
35	0x3bde4231	0.006782793
36	0xbb9e2c0d	-0.0048270286
37	0x3c414292	0.011795657
38	0x3964c14c	0.00021815783
39	0xbbece0e2	-0.0072289566
40	0x3ba026db	0.0048874444
41	0xbc28a89d	-0.010294107
42	0x3a9ccdc9	0.0011963184
43	0x3c116e24	0.008876357
44	0x3a2329c6	0.0006224181
45	0xbc28eb1c	-0.010309961
46	0x3b464c1f	0.0030257774
47	0xbb7870a6	-0.003790894
48	0x3bd19793	0.006396243
49	0xbb9ad9f6	-0.00472569
50	0xbc7c3b32	-0.015394973
51	0xba368d57	-0.00069638103
52	0xbc326508	-0.010888346
53	0x3c8f4c92	0.017492566
54	0x3a9ce937	0.0011971359
55	0x3c16fccc	0.009215545
56	0xbb2ce029	-0.0026378727
57	0xbbc07be1	-0.0058741425
58	0x3c1be573	0.009515154
59	0xbc653e7a	-0.013991946
60	0xbbde63ab	-0.0067867837
61	0xbc129c86	-0.008948451
62	0x3c12df0e	0.008964313
63	0xbbe62757	-0.0070237326
64	0x3b7d3dc1	0.0038641545
65	0x3afacd98	0.0019134758
66	0x3c0607d9	0.008180582
67	0xbc4ca95c	-0.01249155
68	0xbc66334c	-0.014050316
69	0xbc7cdddf	-0.015433758
70	0x3bdb66f4	0.0066956226
71	0x3ad74579	0.0016423903
72	0x3c075073	0.008258927
73	0xbc3f5ddf	-0.011680095
74	0xbca2894e	-0.019840863
75	0xbb9b725f	-0.0047438587
76	0xbc30da60	-0.010794252
77	0x3aad0469	0.0013200167
78	0xb9a3ded2	-0.00031255797
79	0x3c61ce80	0.013782144
80	0xbbc2cb2f	-0.0059446315
81	0xbc8d1628	-0.017222479
82	0x3a4d0003	0.0007820131
83	0xbb5d76fc	-0.0033792844
84	0x3c0f8b5f	0.008761256
85	0xbad0a425	-0.001591806
86	0x3c1ab6d6	0.009443006
87	0xbc2f7283	-0.010708454
88	0xbbcedbb3	-0.0063128113
89	0xbb1a574e	-0.0023550573
90	0x3bbb9f25	0.0057257586
91	0xbc1405d4	-0.009034593
92	0x3ba5d333	0.0050605773
93	0x3b667b16	0.003516858
94	0xbc7f7dfe	-0.015594004
95	0xbc5e595b	-0.013571109
96	0x3c16c84b	0.009203027
97	0xbb49a9f7	-0.0030771473
98	0xbc25e679	-0.01012575
99	0xbc3875ec	-0.0112585835
100	0xbc508dff	-0.012729167
101	0x3a4ff05e	0.0007932241
102	0xbbf664c1	-0.007519335
103	0xbc60b511	-0.013715045
104	0x3af893f4	0.0018964992
105	0xbc11a479	-0.008889311
106	0xbbad4e87	-0.005288902
107	0xbb44cabc	-0.0030028066
108	0xbb6aa41d	-0.0035803386
109	0xbc5c66f1	-0.0134522775
110	0x3c815f9e	0.015792664
111	0x3c01dc78	0.007926099
112	0x3c0c14af	0.008549853
113	0xbc3ddc33	-0.011588144
114	0xbc2b8db8	-0.0104708
115	0xbb770354	-0.0037691193
116	0x38a16a5f	7.6968914e-05
117	0xbc2327c9	-0.009958216
118	0xbc48b0af	-0.012249156
119	0xbbd2c2e2	-0.0064319232
120	0x3a37d6d3	0.00070129073
121	0xbb0171b0	-0.00197516
122	0x3ae816a1	0.0017706939
123	0xbc342077	-0.010994068
124	0xbc37e255	-0.011223395
125	0xbb47a351	-0.0030462334
126	0xbb1cd8be	-0.00239329
127	0xbc2ca941	-0.0105384
128	0x3c11040f	0.008851065
129	0xbb1de415	-0.0024092246
130	0x3c5a5996	0.013327023
131	0x3bcaa74a	0.006184493
132	0xbc8f26d8	-0.017474577
133	0x3c5f8944	0.0136435665
134	0xbc1e1932	-0.009649562
135	0x3a9b6a29	0.00118572
136	0xbbc81166	-0.0061055897
137	0xbc6c81f8	-0.014435284
138	0x3b803de1	0.0039136265
139	0xbbcad2cd	-0.00618968
140	0x3b88eedf	0.0041788663
141	0xbc5c77cd	-0.013456297
142	0x3b725923	0.00369794
143	0xbbf7c40d	-0.007561213
144	0xbaa88287	-0.0012856283
145	0x3b69355f	0.003558479
146	0x3ad4126e	0.0016179809
147	0x3c65265d	0.013986197
148	0x3c31cdbc	0.010852274
149	0xbbe1d2e9	-0.0068915975
150	0x3bf89cdc	0.0075870585
151	0xbc37152c	-0.011174481
152	0x3a3a5077	0.0007107327
153	0xbc808610	-0.015688926
154	0x3c8d4c64	0.01724834
155	0xbc1c49d5	-0.009539087
156	0x3c03b00b	0.008037577
157	0x3c193f19	0.009353423
158	0x3bdeebe3	0.006803022
159	0xbc09befa	-0.008407349
160	0x3c3a7778	0.011381023
161	0x3bc23024	0.005926149
162	0xbaa9ae7f	-0.0012945681
163	0xbc6a7091	-0.0143090645
164	0x3b2b7543	0.0026162423
165	0xbb1d31e5	-0.0023986038
166	0xbbdd33f0	-0.006750576
167	0x3b542e70	0.0032376312
168	0xbafa0382	-0.0019074532
169	0xbc118aba	-0.008883173
170	0xbb387936	-0.002814842
171	0xbaacda52	-0.0013187623
172	0x3be40c93	0.006959507
173	0xba58d795	-0.00082718703
174	0xbc630ab1	-0.0138575295
175	0xbc3236e0	-0.010877341
176	0xbc6d7a23	-0.014494452
177	0x3bf2d307	0.0074104103
178	0x3c172336	0.009224704
179	0xbc85529d	-0.016274745
180	0x3c200433	0.009766626
181	0x3adacaf0	0.001669256
182	0x3b1dcddb	0.0024078998
183	0xbb85dd27	-0.0040852013
184	0x3bd0e3e7	0.0063748243
185	0x39f26aab	0.0004623731
186	0xba92fb23	-0.0011213761
187	0xbc0a119f	-0.008427053
188	0xbbde30dd	-0.0067807273
189	0x3b9ae70f	0.0047272514
190	0xbbcecc0c	-0.0063109454
191	0xbb739ffb	-0.0037174213
192	0x3b334295	0.0027352918
193	0x3c8cb5f6	0.01717661
194	0xbb818fcf	-0.003953911
195	0xbae32eec	-0.0017332709
196	0xb9de589c	-0.0004240916
197	0x3a95a35c	0.0011416483
198	0xbad14e70	-0.0015968811
199	0xbb26cf10	-0.0025453009
200	0xbc7fcf05	-0.015613322
201	0xbb0efd5c	-0.0021818494
202	0x3c1ee10a	0.009697208
203	0x3c354d9e	0.011065869
204	0x3b01ab68	0.0019786004
205	0xbc146531	-0.009057329
206	0xbc04e487	-0.008111126
207	0xbc9bca2e	-0.019017305
208	0xbc1e1173	-0.009647715
209	0x3c26192b	0.010137836
210	0x3c3044fc	0.010758635
211	0x3b47c67d	0.0030483298
212	0xbb71c240	-0.0036889464
213	0xbc2ceaab	-0.010553996
214	0xbba60c8d	-0.005067414
215	0x3c06a030	0.008216903
216	0xbb99d7ec	-0.0046949293
217	0x398ac077	0.0002646481
218	0x3ada44ae	0.0016652548
219	0xbc3deda5	-0.011592303
220	0xbc733b03	-0.014845612
221	0x3b715399	0.003682351
222	0xbbe9f37b	-0.007139621
223	0xbb816156	-0.003948371
224	0xbc8c3b34	-0.017118074
225	0x3c474f1d	0.012164858
226	0x3c08d91f	0.008352547
227	0x3b1230ae	0.0022306847
228	0xbbb01bdc	-0.005374415
229	0xbc137410	-0.008999839
230	0xbc0df9a2	-0.008665474
231	0x3c63f1a6	0.013912594
232	0x3a578ed5	0.0008222883
233	0x3c0eadf4	0.008708466
234	0xba78c2af	-0.00094894593
235	0x3adbb900	0.0016763508
236	0xbb9cadc7	-0.004781458
237	0xbc88815a	-0.016663242
238	0xbc6881dc	-0.014191117
239	0xbc891e75	-0.016738156
240	0x3bd1306c	0.006383946
241	0xbb1376aa	-0.002250115
242	0xb9e843f2	-0.00044301111
243	0xbc01e45b	-0.007927979
244	0xbb444e52	-0.002995391
245	0xbc85eeb1	-0.016349168
246	0xbc21bfa0	-0.009872347
247	0xbb6a38e8	-0.0035739485
248	0xbb816a16	-0.003949414
249	0x3c5210ca	0.012821386
250	0xbb37f91e	-0.002807207
251	0xbbe7956c	-0.007067373
252	0xbb8e8f4a	-0.0043505775
253	0xbb985679	-0.00464898
254	0xbb78a7f7	-0.0037941912
255	0xbc46d320	-0.012135297

dense1.bias f4 [16]
0	0x3c11d431	0.008900688
1	0xbb48a194	-0.0030613886
2	0x3a004022	0.0004892369
3	0xbbb90d57	-0.005647342
4	0xbc0637e1	-0.0081920335
5	0xbba67fa5	-0.0050811344
6	0x3c82a10d	0.015945936
7	0x3c908ab6	0.017644268
8	0xbc3eeda2	-0.011653336
9	0x3ca03865	0.019558141
10	0x3c010fc6	0.007877296
11	0x3b96c942	0.0046016285
12	0x3c714b38	0.014727406
13	0x3c9dd745	0.019267688
14	0x3ba9adc3	0.0051781847
15	0xbc57b178	-0.01316487

dense2.weight f4 [1, 16]
0	0xbe8129b5	-0.25227132
1	0xbd8e9be4	-0.069633275
2	0x3dd6eb3a	0.10494085
3	0xbe0fb3ed	-0.1403348
4	0x3dab02b2	0.083501235
5	0x3e3a24c2	0.18178084
6	0xbd4eed27	-0.050519135
7	0xbe22674a	-0.15859714
8	0x3e11b16c	0.14227837
9	0xbdfda308	-0.12384611
10	0xbe0c2f10	-0.13689828
11	0x3e1b326b	0.15155952
12	0xbe5babe6	-0.21452293
13	0xbdf6a49d	-0.12043116
14	0xbdca53bd	-0.09879253
15	0x3e3ff54d	0.18745919
