ANN/best_ANN.pt (torch, 488935 bytes, 3 tensors)

dense1.weight f4 [16, 7597]
0.011787798 0.009392372 -0.0065139076 0.0067867707 -2.9588256e-05 -0.0009082464 -0.0075042755 0.007060029
0.008921761 -0.009685918 0.008110142 0.0041081975 0.008318763 0.00026711271 0.008925486 -0.0022123337
0.011915576 0.0015916307 -0.007533241 0.0063342433 -0.006273932 -0.0010998514 -0.0015418382 0.006729939
-0.009370539 -0.0045975694 -0.0049671005 -0.005830153 0.001803249 -0.013191245 0.01416835 -0.009691732
0.0083038 0.0053857774 -0.0034860803 0.008262929 0.0010865099 0.0077415644 0.0011233444 -0.0032229307
0.0025876218 -0.00084935373 0.0051662745 0.010133635 0.00869083 -0.0056213443 0.005777041 0.005729801
0.002740837 -0.009784572 -0.007669109 -0.0039239065 -0.008331659 0.008775991 0.00093709474 0.0035493907
0.003734081 -0.00015947208 0.0075547188 -0.00804351 -0.0019976443 -0.0058964547 -6.223236e-05 -0.0038405878
0.0038597279 0.0005086459 0.011123777 -0.009262059 -0.0067334836 -0.007217428 0.0129638985 0.0023440428
0.012756188 -0.01114434 -0.014748746 -0.0056658257 -0.008090886 0.0046157995 0.0059969956 0.009173706
-0.004333368 -0.0070821038 0.0047195684 -0.007845437 0.008934336 -0.003236236 0.007245601 -0.009600575
-0.0024600176 0.00069188676 0.0040585455 -0.004763202 0.0037409887 0.008085826 -0.007003808 -0.0056928215
0.011653991 -0.0026446804 -0.004037431 -0.012859211 -0.0029850858 0.0043727313 -0.0018819751 -0.0054784385
0.0024528827 -0.011106444 -0.010551685 -0.005304481 -0.010743014 -0.0060227453 0.013143603 0.0028154487
0.003761831 -0.013613344 -0.0074778576 -0.0032626698 0.0018796925 -0.010072802 -0.0036724203 -0.006275316
0.0010109456 -0.004132522 0.00017101115 -0.009277566 -0.009578337 -0.0038864212 -0.0026793783 -0.0056508076
0.005433097 -0.0049857004 0.013363159 0.0018392175 -0.009285213 0.010363622 0.00074097427 -0.0033695986
-0.008660933 -0.011941888 -0.0007176473 -0.003824026 0.007337378 -0.007673707 0.0076764664 -0.008732992
-0.002893159 0.0013476647 0.0063236733 0.0075441487 0.0138349775 -0.007737776 0.0031804908 -0.0044796444
-0.0012464289 -0.012018563 0.008516481 -0.006443901 0.007041622 0.0049052043 0.0051303785 -0.008170176
0.009678703 0.00019258853 0.0016208986 -0.011684475 0.005079824 -0.001346597 -0.005838499 0.009503684
0.0036611236 -0.0026313162 -0.008522149 0.0005178129 0.009192421 -0.0028114624 -0.0056256177 -0.005781016
-0.008860755 0.0037284903 0.0059958734 -0.013158385 0.002488482 0.0055806916 0.005743296 -0.0031165897
0.0058157207 0.005721322 0.0007855928 0.0020641757 -0.0031083159 0.003911379 -0.00120145 -0.0037200595
0.010843539 0.0064854193 -0.001800898 -0.0025742794 -0.0007297915 -0.0033679537 0.0057060285 0.006137567
-0.008696357 -0.0040143426 0.010604255 0.008339563 -0.00072801125 -0.008008298 -0.0066272747 -0.011323062
-0.0012555338 0.0018312316 0.010369147 0.007138504 -0.010459309 -0.0052386285 -0.0013511016 0.0110465605
0.0012722213 -0.006916197 0.0033030245 -0.004390571 -0.009145636 0.010608755 -0.004903461 -0.00045044048
-0.013969628 0.0076874443 0.008024443 0.0080927815 -0.008075247 -0.008281434 -0.010380406 0.006028082
0.008884645 0.012044343 0.008215776 0.0021782536 -0.002860657 -0.008055369 -0.009864658 -0.011945556
0.0051528527 -0.0025287438 -0.0019637414 -0.008209978 -0.0017630912 -0.010544462 -0.00461721 0.0030715198
-0.0031277316 0.0096238 -0.0046702446 -0.00976503 0.0017780336 -0.006473563 -0.0011646536 -0.01134556
00000000: 9c21 413c 77e2 193c 9e72 d5bb 8f63 de3b
00000010: 4c34 f8b7 6217 6eba 6de6 f5bb d157 e73b
00000020: 942c 123c afb1 1ebc 67e0 043c 0f9e 863b
00000030: 6c4b 083c 430b 8c39 343c 123c cdfc 10bb
00000040: 8c39 433c 449e d03a 68d9 f6bb 7c8f cf3b
00000050: 8e95 cdbb e428 90ba 8117 caba d286 dc3b
00000060: e486 19bc 35a7 96bb 0fc3 a2bb de0a bfbb
00000070: ff5a ec3a 1720 58bc 5e22 683c 12ca 1ebc
00000080: a90c 083c 2d7b b03b b976 64bb 3c61 073c
00000090: 3969 8e3a f3ac fd3b 2f3d 933a ce37 53bb
000000a0: 1795 293b 2aa7 5eba da49 a93b 8c07 263c
000000b0: fc63 0e3c 4133 b8bb 554d bd3b 0ec1 bb3b
000000c0: 9d9f 333b 784f 20bc 264d fbbb 1d94 80bb
000000d0: 8381 08bc 2dc9 0f3c 5da7 753a e59c 683b
000000e0: 7cb7 743b f637 27b9 938d f73b edc8 03bc
000000f0: e9ea 02bb 0c37 c1bb be82 82b8 5fb2 7bbb
00000100: 7df3 7c3b a656 053a 8140 363c e4bf 17bc
00000110: 8ea4 dcbb 2d80 ecbb 8866 543c 839e 193b
00000120: 55ff 503c c096 36bc b9a4 71bc 64a8 b9bb
00000130: a38f 04bc 2240 973b 7282 c43b 504d 163c
00000140: edfe 8dbb fe10 e8bb 9ca6 9a3b 268a 00bc
00000150: 5261 123c 0817 54bb 826c ed3b bb4b 1dbc
00000160: 3f38 21bb bc5f 353a 8cfd 843b a214 9cbb
00000170: 602b 753b 6a7a 043c 3380 e5bb d98a babb
00000180: 62f0 3e3c 6052 2dbb 6d4c 84bb 71af 52bc
00000190: 6ea1 43bb 2149 8f3b 9bac f6ba 7984 b3bb
000001a0: 8bc0 203b cdf7 35bc f9e0 2cbc 36d1 adbb
000001b0: 7703 30bc 735a c5bb 4458 573c 6483 383b
000001c0: 0d89 763b 810a 5fbc d108 f5bb 84d2 55bb
000001d0: 0460 f63a 6508 25bc fdac 70bb 2aa1 cdbb
000001e0: b581 843a 1b6a 87bb 7551 3339 ef00 18bc
000001f0: 75ee 1cbc 54b3 7ebb 8298 2fbb 692a b9bb
00000200: 1f08 b23b 165f a3bb 27f1 5a3c e611 f13a
00000210: 0221 18bc 2ecc 293c f13d 423a 7cd4 5cbb
00000220: 96e6 0dbc e9a7 43bc 7f20 3cba 839c 7abb
00000230: 636e f03b b873 fbbb de8a fb3b d314 0fbc
00000240: 279b 3dbb 20a4 b03a d136 cf3b e834 f73b
00000250: 1aac 623c 2b8d fdbb c86f 503b fbc9 92bb
00000260: 375f a3ba 82e9 44bc b688 0b3c 5c27 d3bb
00000270: 68bd e63b d6bb a03b bc1c a83b 34dc 05bc
00000280: 6c93 1e3c 97f1 4939 5574 d43a 3d70 3fbc
00000290: a774 a63b 4c80 b0ba e150 bfbb 57b5 1b3c
000002a0: 76ef 6f3b 2972 2cbb 7ca0 0bbc d6bd 073a
000002b0: cf9b 163c 8340 38bb 1a57 b8bb ad6e bdbb
000002c0: b32c 11bc b059 743b 0879 c43b 4496 57bc
000002d0: cd15 233b 3cde b63b 4232 bc3b b33f 4cbb
000002e0: cd91 be3b ed79 bb3b 3ef0 4d3a 1f47 073b
000002f0: e3b4 4bbb 062b 803b f979 9dba 3ecc 73bb
00000300: 19a9 313c a483 d43b 1c0c ecba 3eb5 28bb
00000310: 7b4f 3fba e3b8 5cbb a3f9 ba3b a51d c93b
00000320: 2a7b 0ebc bf8a 83bb 78bd 2d3c aaa2 083c
00000330: 02d8 3eba 3d35 03bc 9c29 d9bb 5d84 39bc
00000340: b990 a4ba f005 f03a 5be3 293c 1dea e93b
00000350: 865d 2bbc cda8 abbb 7217 b1ba a2fc 343c
00000360: aac0 a63a 44a1 e2bb 8e77 583b c7de 8fbb
00000370: 94d7 15bc 58d0 2d3c 36ad a0bb 1929 ecb9
00000380: dee0 64bc f5e6 fb3b f478 033c 9697 043c
00000390: 0a4e 04bc daae 07bc 9412 2abc 3887 c53b
000003a0: e790 113c a355 453c 769b 063c 08c1 0e3b
000003b0: dc79 3bbb abfa 03bc 609f 21bc 4bb7 43bc
000003c0: 43d9 a83b 48b9 25bb 1db2 00bb 2583 06bc
000003d0: 8617 e7ba aec2 2cbc f74b 97bb 8d4b 493b
000003e0: a1fa 4cbb 25ad 1d3c da08 99bb 81fd 1fbc
000003f0: e80c e93a 2f20 d4bb 4aa7 98ba bae2 39bc

dense1.bias f4 [16]
-0.008952272 -0.0124065485 0.011916582 0.011777413 -0.00013105155 -0.0051806723 -0.005763959 0.013443727
-0.0031362637 0.0069890637 -0.010554835 0.012980989 -0.0071356916 0.0070047854 -0.012025219 -0.0059436634
00000000: 8dac 12bc d644 4bbc c43d 433c 0df6 403c
00000010: e26a 09b9 a1c2 a9bb 98df bcbb 1443 5c3c
00000020: c689 4dbb 8404 e53b 30ee 2cbc 37ae 543c
00000030: 85d2 e9bb 6688 e53b 6d05 45bc 10c3 c2bb

dense2.weight f4 [1, 16]
0.14223063 0.2043941 -0.12036902 -0.24682662 -0.08679396 -0.107861415 -0.008698546 -0.052046116
-0.028511066 0.040514827 0.115722574 -0.0464243 -0.19775501 -0.23832197 0.16405368 -0.18498622
00000000: e8a4 113e b04c 513e 0884 f6bd 1ec0 7cbe
00000010: 08c1 b1bd 72e6 dcbd 5984 0ebc 4f2e 55bd
00000020: 0a90 e9bc e0f2 253d f5ff ec3d 6827 3ebd
00000030: 4a80 4abe ad0a 74be b0fd 273e 076d 3dbe
