models/run_20251124_202104/best_model.pt (torch, 311778 bytes, 16 tensors)

conv1.att f4 [1, 8, 64]
000000 c4 87 e2 be 39 4c ae 3e d2 68 b4 be f5 4e a8 be
       -0.44244206 0.34042528 -0.35236222 -0.3287274
000010 32 f7 7b 3e 55 e5 a0 be 70 29 8b 3d ec 5e ac 3e
       0.24606016 -0.31424966 0.06795013 0.3366617
000020 63 25 0b 3f c8 95 90 be c0 31 21 3f 8a fa 19 3e
       0.5435392 -0.28239274 0.6296654 0.1503698
000030 55 ff 45 be 52 aa 39 3e f2 35 97 be ad f3 06 3e
       -0.19335683 0.18131378 -0.29533345 0.13178892
000040 25 c1 0d bf 97 7f 41 3e f1 64 9b be b4 9c 6f be
       -0.5537284 0.18896328 -0.3035045 -0.23399621
000050 bc e0 06 be 6f d1 5e be ed af cc 3e a7 fc 51 3e
       -0.13171667 -0.2175958 0.3997797 0.20506535
000060 62 da 52 be de 64 b2 3b 62 ea 36 3e a4 dc cf 3e
       -0.20591119 0.005444153 0.17862847 0.40598023
000070 f2 e8 a4 3e 46 f1 0f bf 30 2a b3 be 6f bd ac 3e
       0.32208973 -0.5622753 -0.34993124 0.33738276
000080 12 e1 2c 3e 05 4d e8 be 15 0a a1 be df 60 70 be
       0.16882733 -0.4537126 -0.31453004 -0.23474453
000090 11 a7 b6 be fa 57 cd be b2 a2 98 3e 17 0b bb be
       -0.35674337 -0.40106183 0.29811627 -0.36531898
0000a0 82 fa ca 3e 56 7c 0b bf e2 d2 0e 3f 80 f1 9c 3e
       0.39644247 -0.54486597 0.5579053 0.30653
0000b0 9b 95 0a bf 15 ef 3a be f0 41 92 3e 3b 28 9a be
       -0.5413453 -0.18255265 0.2856593 -0.30108818
0000c0 5a 4c 8c 3e 9f ef 71 3e 27 35 22 bf cf 84 95 be
       0.27402002 0.23626564 -0.63362354 -0.29202887
0000d0 80 4f c8 3e 51 7f bb bd 9b 55 da be 9a 3a 51 3e
       0.39123154 -0.09155143 -0.42643437 0.20432511
0000e0 19 88 f0 be f3 cf 1c 3e 85 5b 16 bf dc d0 11 3e
       -0.46978834 0.15313701 -0.587334 0.1423983
0000f0 c0 ad d5 be 56 0d ea be 94 bd 01 bf 8c a3 9e 3e
       -0.41734123 -0.457133 -0.506799 0.3098415
000100 24 40 c5 be 6b 25 b3 3e 67 10 ef 3d 25 cf f0 be
       -0.38525498 0.34989485 0.116730504 -0.4703304
000110 d6 88 63 3e 8a 2c b1 3e 7a 78 de be 95 f5 f2 bd
       0.22220168 0.34604293 -0.4345129 -0.11863247
000120 78 29 87 3e c5 df 0c be 9e 45 2e 3e 1e 56 39 be
       0.26398826 -0.13757236 0.17018744 -0.18099257
000130 13 e0 97 be 89 5f 81 3d 93 26 07 3e 11 41 ee 3e
       -0.29663143 0.0631705 0.13198309 0.46534017
000140 de 59 d7 be f4 cf 4e be 57 5b 6f be 7e 0b a9 be
       -0.4206075 -0.20196515 -0.23374687 -0.3301658
000150 0d 8c cf be 3b 9c 4e be 4d 36 a9 be 66 2e b3 be
       -0.40536538 -0.20176785 -0.3304924 -0.34996337
000160 5c 91 83 be 99 a8 93 3e 68 6b 4d 3e 45 05 62 be
       -0.25696838 0.28839567 0.20060503 -0.22072323
000170 8e e4 04 3f 10 bf 96 3e d0 49 e9 be db f3 d5 3e
       0.51911247 0.29442644 -0.45564127 0.4178761
000180 14 27 31 bd 1b fa 8c 3e e0 f9 82 be 1e a2 80 be
       -0.04325016 0.27534565 -0.25581264 -0.25123686
000190 58 89 55 3e a1 47 0f bf 50 d1 2a 3e 79 09 ca be
       0.20853174 -0.5596867 0.16681409 -0.39460352
0001a0 4a 74 e5 be 57 c9 a4 be db 8f 04 bf d9 b8 c8 be
       -0.44815284 -0.3218486 -0.51782006 -0.39203528
0001b0 cd 85 68 be f5 e6 c4 be 2a e8 96 3c 99 6d 19 bf
       -0.22707291 -0.38457456 0.018421251 -0.5993286
0001c0 68 f7 7d 3e 0f b1 3a 3d b2 28 ae 3d 5f e7 b3 3e
       0.24801409 0.045579012 0.08503856 0.3513746
0001d0 9e c0 9d be b6 49 9a be 08 a7 17 bf 6c c9 b5 3e
       -0.30811018 -0.30134362 -0.59239244 0.35505235
0001e0 74 ee 54 be 00 15 17 bf 4d 7b 87 bd c6 b0 c6 be
       -0.20794088 -0.5901642 -0.06615315 -0.38806742
0001f0 4d 10 15 bf 4f e9 39 be 63 be b5 be 31 92 8e 3e
       -0.58228 -0.18155406 -0.35496816 0.2784591
000200 b4 75 de be c5 5b 08 bf 38 b6 04 bf d2 06 a2 be
       -0.43449175 -0.5326503 -0.51840544 -0.31645828
000210 f1 86 07 3e 96 b7 86 3e 8c ae 31 3e 61 c1 39 be
       0.1323507 0.2631194 0.1735174 -0.18140174
000220 ad cf a1 3e a0 74 d6 be 27 c0 b5 bd 55 bf 71 3e
       0.31603757 -0.41885853 -0.08874541 0.23608144
000230 3d 7d 2a be 6c 87 e2 3e 25 1a 74 3e fd 0d d8 3d
       -0.16649337 0.44243944 0.23838098 0.10549543
000240 2c 70 c2 be 49 c4 bf be f5 ec ad 3e 86 8a 70 3e
       -0.37976205 -0.3745444 0.33969846 0.23490342
000250 07 3e ac be 76 13 cd be be f8 0c bf f2 28 66 3e
       -0.33641073 -0.4005391 -0.5506705 0.22476557
000260 15 0f 6a 3e a0 f1 a3 3e 90 ff e7 3e 30 ad a8 3e
       0.22857316 0.32020283 0.45312166 0.32944632
000270 08 9a 13 3f c7 1c e2 be 80 9c dd 3e fd 3c bb be
       0.5765691 -0.4416258 0.43283463 -0.36569968
000280 9e 9c c3 be b4 b0 52 3e 59 9e 96 be 24 86 26 bd
       -0.38205427 0.2057522 -0.29417685 -0.04065527
000290 51 6b 6b bc 20 11 e2 3e 71 b9 10 bf 4a 11 4a 3e
       -0.014368848 0.4415369 -0.5653296 0.19733158
0002a0 39 f9 a2 3e 27 d5 bc bd 43 55 a5 3e 73 d9 08 bf
       0.31830767 -0.09220343 0.32291612 -0.534568
0002b0 a8 d7 cf 3e e4 b7 77 be 9c 41 cc be a8 61 cb bd
       0.4059422 -0.24191242 -0.39893806 -0.09930736
0002c0 b6 ae d4 be ae b7 13 3e e3 fc 23 3e a4 c6 8c 3e
       -0.41539544 0.14425537 0.16014437 0.274953
0002d0 3a 37 1c 3e e4 0e b1 be df 4c 4e be 05 23 5a be
       0.15255442 -0.34581673 -0.20146511 -0.21302421
0002e0 75 bf a2 be ca b9 ea 3d 06 71 86 3e 00 ed ab 3e
       -0.31786695 0.11461218 0.26258105 0.33579254
0002f0 3b 06 47 3e 31 07 05 3f be b4 b4 3e 50 85 b8 be
       0.1943597 0.519641 0.35294145 -0.3603921
000300 f7 54 5c be 42 23 1d bf a2 59 18 bf 26 a4 23 3e
       -0.21516787 -0.61381924 -0.5951177 0.15980586
000310 fd ae c1 be a0 97 04 bf 93 44 80 3e 73 6a 07 bf
       -0.37828818 -0.5179386 0.25052318 -0.52896804
000320 60 31 de be 73 86 02 bf f0 39 8a 3e 19 1c 85 3e
       -0.43397045 -0.50986403 0.26997328 0.25998
000330 d7 7c 2c bf f6 be fe be 08 96 ab 3e 3a 20 e9 3e
       -0.6737799 -0.49755067 0.33512902 0.455324
000340 be 51 a7 3e c9 a8 46 3e a6 32 6f 3e 03 91 80 3e
       0.32679552 0.19400324 0.23359165 0.25110635
000350 ea 58 73 3e 88 95 9b be 71 2f 7a 3e 2c b9 6f be
       0.23764387 -0.3038752 0.2443216 -0.23410481
000360 54 9a ea 3d 8a 88 ec be e8 37 17 be 6a c9 fc be
       0.11455217 -0.4619792 -0.1476742 -0.49372417
000370 e0 3e fa be d4 0c 1d 3e 4f 95 9a be ea 30 39 3e
       -0.48876095 0.15336925 -0.30192038 0.18085065
000380 3f 0c c1 be 3f b5 43 3e 9d c9 e7 be 7d ec bc be
       -0.37704656 0.19112109 -0.45271006 -0.36899176
000390 eb d2 aa be 8a 68 e1 3e 66 b9 09 bf b5 d3 0d bf
       -0.33364043 0.4402507 -0.5379852 -0.55401164
0003a0 dc 24 da 3e 83 66 64 3e e7 b2 0b be 9f d7 df be
       0.42606246 0.2230473 -0.13642465 -0.43719193
0003b0 e6 30 a7 3e 49 c4 a8 be 36 d3 c2 be ae 28 c4 3e
       0.32654494 -0.32962254 -0.38051766 0.38312286
0003c0 17 7b 03 3f eb a0 a1 3e 20 07 f5 3e b8 82 19 bf
       0.51359695 0.31568083 0.47856998 -0.59965086
0003d0 19 90 df be 87 60 b1 3e cd e5 b6 be 42 55 b9 be
       -0.43664625 0.34643957 -0.357222 -0.3619786
0003e0 29 7b d8 3d f2 06 7f 3e d3 1e e6 3e af b2 b9 be
       0.10570366 0.24904993 0.44945392 -0.36269137
0003f0 f2 37 7e 3e 5c 0f dd 3e 10 3f cc be 89 9d 0a bf
       0.24826029 0.4317578 -0.39891863 -0.5414663

conv1.bias f4 [512]
000000 a8 29 27 3d 4e 8e 36 3d 9e a5 93 3d c5 2a 41 bd
       0.04081121 0.044569306 0.07209323 -0.04715993
000010 5a bb 33 bc 4d 9f 05 bd 58 66 83 bd 0e f6 30 3d
       -0.010969961 -0.032622624 -0.06416005 0.043203406
000020 b8 a0 dd ba 72 6b 79 bd c6 c9 9f 3d 73 e1 ac bd
       -0.001690886 -0.060893483 0.07802157 -0.084414385
000030 07 b1 0f bd d4 77 57 3c 85 de b8 3c 2d 06 e7 bc
       -0.035080936 0.013151128 0.022567043 -0.028201187
000040 48 65 b4 bd fb 9d c9 3c f5 c4 f3 bc 52 02 14 bd
       -0.0880838 0.024611464 -0.029757002 -0.036135025
000050 8f 84 fb bc d4 20 0d bd 21 42 ca bb 24 2d cf 3c
       -0.030702857 -0.034455135 -0.006172434 0.02529008
000060 a8 93 3e bd f4 65 a9 bc f6 2b 3f 3c a5 a9 9f ba
       -0.046527535 -0.020678498 0.011668196 -0.0012181295
000070 01 d0 90 bb d8 03 24 38 f1 7a e5 bc aa aa 85 bc
       -0.0044193272 3.9104227e-05 -0.028012725 -0.01631673
000080 71 a2 13 3d ba 55 d9 bc 2f 62 5f 3d 69 1b 32 bc
       0.036043588 -0.026530135 0.054536995 -0.010870793
000090 19 d3 71 bc a0 9c 2a 3c c9 76 93 bd a3 ba b0 bb
       -0.014759802 0.010413319 -0.07200391 -0.0053933426
0000a0 22 05 fa 3c a0 e0 04 bd 4a 11 76 bd 4f 84 bf bc
       0.030520026 -0.03244078 -0.060075082 -0.02337852
0000b0 34 15 4a 3d 13 ad 23 3d e8 6c 05 3d f3 e3 62 bd
       0.049336627 0.03995998 0.032574564 -0.05539317
0000c0 5b 50 e7 bc 81 05 4c 3d 6c e2 0d bd 64 8b f5 bc
       -0.028236559 0.049809936 -0.03463976 -0.029973693
0000d0 aa 85 b9 3c 4e 41 31 bc ea 8d c3 3c ea e1 9c 3c
       0.022646744 -0.0108187925 0.02387138 0.019150693
0000e0 98 2e 75 bd ec 8b cd bc 90 6a 59 3c bf 0f eb bc
       -0.05985889 -0.025091134 0.013270035 -0.028694032
0000f0 1e 67 24 3c 9a 03 28 3d 6a 34 66 3d 09 1d 8c bc
       0.010034351 0.04101906 0.05620233 -0.017103689
000100 b2 30 1e 3d ea 04 86 3d ac b7 41 bd 5c f1 90 3b
       0.03862066 0.06543906 -0.047294304 0.0044233035
000110 db 9f a2 3c 10 96 d2 bc f9 bb ec bc 67 2b 4b 3c
       0.019851616 -0.025706321 -0.028898226 0.012400485
000120 2c 08 a4 3c 2c 63 0c bd 6b 0e 9b bc 22 10 43 bd
       0.020023428 -0.034274265 -0.018927773 -0.047622807
000130 25 b1 30 bd 43 87 b9 3c 5a d8 30 bc e6 21 ca 3c
       -0.04313769 0.022647506 -0.01079377 0.024674367
000140 c9 bd 34 3c e8 04 4e bd 9e 0b ee 3c 6a f5 ef 3c
       0.011031576 -0.050297648 0.029058274 0.029291827
000150 b1 a4 2e 3d 73 45 12 bd d7 96 6a 3b 80 a9 68 bd
       0.04263753 -0.035710763 0.0035795474 -0.056802273
000160 92 cf 5d 3d 96 22 3c 3d d2 0a 69 bd 40 12 8b 3c
       0.054153033 0.04593142 -0.056895085 0.016976476
000170 60 43 a7 3d 98 66 a9 3d f8 ae 69 bc 68 9e 3a 3d
       0.08167148 0.08271521 -0.014262907 0.045561224
000180 8f 27 ba bc 54 c2 a3 bd 6c 92 50 3c e2 b2 72 3c
       -0.022723941 -0.079960495 0.012730222 0.014813157
000190 1e d9 8c 3d 07 de 18 3c eb ca ac bc ca c5 04 bd
       0.06877349 0.009330279 -0.021092853 -0.03241519
0001a0 8a 2f 92 3c cb 4b b5 3c 78 90 ee 3c 5f 0b 8d bd
       0.017844934 0.022130867 0.029121622 -0.068869345
0001b0 e8 ee 77 3c fa 43 0a bc 15 ae 0c 3c 90 d8 cf 3c
       0.015132643 -0.008439058 0.008586426 0.02537182
0001c0 52 a3 96 bc 79 d9 99 bd b6 7a 1f bd b9 14 93 3c
       -0.018388424 -0.07512183 -0.038935386 0.017954217
0001d0 2a cc b6 3c e5 b8 19 3d cf d9 12 3d 76 12 cb 3b
       0.02231415 0.037529845 0.03585225 0.006197269
0001e0 8b 48 67 bd c1 c9 ca bb 13 6b b6 3c 2a 79 59 3b
       -0.056465667 -0.0061886017 0.022267854 0.0033183792
0001f0 48 bb ca 3c c6 61 25 bd 73 1a 65 bc b4 6f 09 3c
       0.024747506 -0.040376447 -0.013983357 0.0083884485
000200 82 97 35 bd 61 21 de 3d cf f2 18 3d 73 09 aa bb
       -0.044333942 0.1084621 0.037340935 -0.0051891147
000210 c3 56 a8 bc be d1 92 bd d7 3d 44 bc 0b 28 0a 3d
       -0.020549184 -0.071689114 -0.011977634 0.033729594
000220 d5 8e ac bc 72 ce 21 3d cf f0 5c bd c3 17 f1 3c
       -0.021064201 0.039503522 -0.05394059 0.029430276
000230 87 67 37 3c 54 b4 71 3b 99 cb 4d bd a5 e8 c1 bc
       0.011194116 0.0036881166 -0.050242994 -0.023670504
000240 b3 0f 5c 3c 3a 45 39 bd f1 86 80 bc 5e 8d b2 3c
       0.013431477 -0.045232035 -0.015689345 0.021795925
000250 81 20 25 bd 94 41 b8 3c 85 c7 19 3d a6 8f 29 bd
       -0.0403142 0.022492208 0.037543792 -0.04139676
000260 d5 64 a8 bd 12 c9 37 bc 96 05 65 3c 4d e3 00 bd
       -0.08222357 -0.0112173725 0.013978383 -0.03146677
000270 5b cc b0 3c 44 78 89 3c ca dc 6f 3c 7a ca 56 bc
       0.02158182 0.01678098 0.014640043 -0.013109798
000280 17 5a 70 bc d3 0d ab bc 96 71 e8 bc 80 b0 94 3c
       -0.014669917 -0.020880615 -0.028374474 0.018150568
000290 0b 45 58 bd 91 1c 23 3d 05 3e eb 3c d2 aa 17 bc
       -0.05280022 0.039822165 0.028716097 -0.009257035
0002a0 4f c9 1b bd f4 ec 92 bc 25 b3 bb bd 34 33 81 3c
       -0.03803378 -0.017935254 -0.091650285 0.015771486
0002b0 54 6f 26 bd d8 80 d4 bc 0d 96 47 bd fc 8e 42 ba
       -0.040633515 -0.025940344 -0.048727084 -0.0007421819
0002c0 1b 70 12 3d 66 02 98 bd 47 b4 19 bd b9 82 8b bc
       0.035751443 -0.074223325 -0.03752544 -0.017030107
0002d0 2d bb af bc 6e b5 d5 3c d2 f4 bb bc ba 85 23 3d
       -0.021451557 0.026087489 -0.022943888 0.039922453
0002e0 c5 8b 6a 3c c0 35 36 bd ce d5 e7 b9 91 1b 39 bd
       0.01431555 -0.044484854 -0.0004421905 -0.045192305
0002f0 82 e5 ca bc 7c de 6b 3d 07 a5 a2 bd 97 5a 35 bd
       -0.024767641 0.057585225 -0.07941633 -0.044275846
000300 46 3b c7 bc 32 94 96 3c f5 6a 03 3d 11 25 79 bc
       -0.024320256 0.018381212 0.032084424 -0.015206591
000310 22 56 b4 3c 01 b2 84 bb 5a 74 7a 3d e9 00 ea bd
       0.022013728 -0.00404954 0.061146118 -0.11425955
000320 3a be 13 3d 31 76 92 3c 83 89 11 bc 08 d0 13 3d
       0.036070086 0.017878624 -0.008882883 0.036087066
000330 b1 da 53 bd 60 62 5d 3d 17 08 88 bc f5 e6 df 3c
       -0.051722232 0.054048896 -0.01660542 0.027331809
000340 fb 28 b8 bc fd bb 09 3d 19 9f 96 bd 8c 43 5f 3d
       -0.022480479 0.033626545 -0.07354564 0.054507777
000350 1c 24 f2 3c 2e 74 36 bc 16 7c 34 3d 24 e1 36 bd
       0.029558234 -0.011136098 0.04406365 -0.044648305
000360 67 72 db bc 33 55 a9 3c 1a a2 44 bd 53 67 e8 3c
       -0.02678795 0.020670509 -0.048006155 0.028369581
000370 b5 1c b7 bc 4d ea a4 3c 8a 76 28 3c de 42 48 3c
       -0.022352556 0.020131255 0.010282168 0.012222974
000380 6e 75 08 bd ce ca 10 bd de 25 b8 3c 2c 52 02 bc
       -0.033315115 -0.03534966 0.022478994 -0.007954162
000390 fc 0e 44 bd 61 7f 19 bd 5d 21 a8 bc 66 df 75 bc
       -0.047865853 -0.037474994 -0.020523721 -0.015006876
0003a0 79 13 fe bc 69 4b a7 bd 96 f0 1c 3d d5 fa 6b 3b
       -0.031015145 -0.0816868 0.038315378 0.0036007662
0003b0 d7 58 05 3d 63 5c 7f bb 52 02 44 bd 26 28 b3 3c
       0.032555427 -0.003896498 -0.047853775 0.02186973
0003c0 b4 e4 18 bd b7 48 94 bc 16 ca d0 3c a6 96 2b 3d
       -0.037327483 -0.01810108 0.025486987 0.041891716
0003d0 36 9a 4c 3d 20 bf 68 bc 7d e6 68 3c 7b d2 3d 3c
       0.049951755 -0.014205724 0.014215109 0.011585827
0003e0 3e 1a 27 bd 4b 70 2d 3d bb ac a6 3c c6 6a 55 3c
       -0.04079651 0.04234342 0.020346036 0.013025945
0003f0 fd 78 e8 bc cf 9b ea 3c b5 c9 ce bd 01 6d 5a 3d
       -0.028378004 0.028638748 -0.10097066 0.05332661

conv1.lin_l.weight f4 [512, 8]
000000 52 bf 23 3e f6 1c 96 bd 8d 76 88 bd d8 fe 92 bd
       0.15990952 -0.073297426 -0.06663237 -0.07177514
000010 f0 1d f6 3d 4d e4 42 3c a1 65 1c 3e b9 73 9c bd
       0.12017429 0.011895251 0.15273143 -0.0763926
000020 ec 09 c3 bd 20 c8 a6 3d b9 df 1a 3e 6f 62 bd 3c
       -0.09523377 0.081436396 0.15124406 0.023118226
000030 14 c5 a5 3d 99 7c 9f bc c5 28 bb bc c7 95 2b bd
       0.0809423 -0.019468592 -0.022846589 -0.041890886
000040 4a f9 d2 bd 53 b1 2f bd d7 d1 5a be 05 5c 92 3a
       -0.10301454 -0.04289372 -0.2136911 0.001116634
000050 a3 12 32 be 06 f3 1b be 63 09 50 3d 14 c6 86 3c
       -0.17389922 -0.15229425 0.050790202 0.016451873
000060 c5 39 cc bd fc 77 5f 3d e8 26 fa bb 06 3f e2 bc
       -0.09971956 0.054557785 -0.0076340325 -0.027617943
000070 40 9a 96 3d 9b 83 7e 3c af 39 32 3e 0d f7 56 3d
       0.073536396 0.015534307 0.17404817 0.0524817
000080 35 a5 30 3e 13 07 24 bd cf 9d b7 3c 0b c9 f2 bd
       0.17250521 -0.04004581 0.022414116 -0.11854752
000090 2b a9 f0 3c ee 9f 38 3d 60 b3 c1 bc a3 9c 4c bd
       0.02937754 0.045074396 -0.023645103 -0.049954068
0000a0 54 02 b4 3a 7e b1 02 bd 3c bf 86 3d dd b5 d1 bc
       0.0013733604 -0.03190755 0.06579444 -0.025599414
0000b0 65 d5 a5 3d 02 80 e1 3b e4 d0 e7 3d 3c b4 a4 3d
       0.080973424 0.006881715 0.113191396 0.080421895
0000c0 f8 27 82 3c d8 70 cc bc 43 e0 8d 3d af 85 59 ba
       0.0158882 -0.024956152 0.0692754 -0.00082978135
0000d0 4b 66 18 bc 79 cd 51 3d 7a 5e 85 bc 8a 30 85 bc
       -0.009301732 0.051221345 -0.016280401 -0.016258497
0000e0 00 06 e4 bd 17 69 4a 3d fe 55 41 3d 64 ca 35 bc
       -0.11133957 0.049416628 0.04720115 -0.011095617
0000f0 1d 16 6c 3d 7f af 68 3d 9e f0 1d 3e 35 ef 03 be
       0.057638276 0.05680799 0.1542382 -0.12884219
000100 fe 4d df 3c a8 45 c6 ba 5e ff 76 be e7 a7 5a bd
       0.02725887 -0.001512696 -0.24120852 -0.05338278
000110 62 ba ef bd e2 de 8e 3a 41 aa ad 3d 4b 0e 17 3d
       -0.117054716 0.0010900164 0.08479739 0.036878865
000120 97 6c 9b 3b e4 6e 5d 3b 23 58 e2 3d 99 c0 20 3d
       0.0047431695 0.003378802 0.11051967 0.039246175
000130 c8 16 36 3e 9e 07 10 3d 27 d9 82 3c ae 1e 95 3d
       0.17782128 0.035163514 0.015972687 0.07281242
000140 f4 24 51 3e 44 d2 72 bd 5b 8b 5d be b3 fa 23 be
       0.20424253 -0.059282556 -0.21635191 -0.16013603
000150 df c2 36 3e b6 24 60 3c 47 58 f2 3d bb ae 6f bd
       0.17847775 0.013680628 0.11833244 -0.058516245
000160 ab 40 8e bc 70 c8 8f 3d a8 cb e9 bd 6c b3 3d 3d
       -0.01736482 0.07020652 -0.114157975 0.04631369
000170 39 29 e5 bd f2 e3 51 3d 16 a5 ad bd 70 67 66 bc
       -0.11189503 0.051242776 -0.08478753 -0.014062747
000180 77 63 0b 3d 52 8b c3 bb 24 c7 c9 bb 75 92 23 3c
       0.034030404 -0.005967536 -0.0061577726 0.009983649
000190 1d dc ac bd 89 b3 e5 3c e0 61 33 b7 f6 eb a4 3d
       -0.08440421 0.02803971 -1.069202e-05 0.080528185
0001a0 99 68 5a 3d 94 1f 4f bd f1 c2 a1 3d a4 5c 61 bd
       0.05332241 -0.050567225 0.0789851 -0.05501999
0001b0 d2 7e f4 3d 31 6d 24 bd 90 68 9f bd 0b ef b9 bd
       0.119382516 -0.040143196 -0.077836156 -0.09078797
0001c0 76 36 d5 bc c8 53 f2 3b 49 fe f8 3b 30 14 fc bc
       -0.026026946 0.0073952414 0.0075986725 -0.030771345
0001d0 f2 e3 e3 3d 54 f1 0c 3d 25 14 6d 3e 93 d8 08 bd
       0.111274615 0.034409836 0.23152216 -0.033409666
0001e0 cc 32 c3 3d 5d 8b 21 3d 62 e0 08 be de 47 01 be
       0.09531173 0.039439548 -0.13366845 -0.12625071
0001f0 c7 ce d9 3d e0 25 d7 bb 6a 0d 16 3c 2a 58 18 3d
       0.10635143 -0.0065657943 0.009158472 0.037193455
000200 75 76 ec bd 11 49 92 3c 74 91 52 3e 6e 15 ed 3d
       -0.115460314 0.017857106 0.20563298 0.11576353
000210 b0 7c 3d 3e a7 b6 f1 3b 59 44 f7 3c 84 16 5d bd
       0.18504596 0.00737651 0.030183958 -0.05397655
000220 47 7d 0a bc d3 d7 97 bd 85 0b 15 be 17 bf f5 bc
       -0.00845272 -0.07414212 -0.14555176 -0.029998345
000230 7c ba 83 3d 3e 8f 5b 3d 9e e3 77 bd 36 bb 38 3d
       0.064320534 0.053603403 -0.060519807 0.045100413
000240 fb 27 26 be 8e 65 9c 3c 8b 46 cf 3c 08 51 9e bc
       -0.16226189 0.019091394 0.025302192 -0.019325748
000250 87 41 22 3d da 6b 83 bd 0f df 8a bd f1 82 48 3d
       0.039613273 -0.064170554 -0.06780826 0.048953
000260 a3 7f 2a 3d 77 87 17 bd c1 86 e7 bc 26 39 93 bd
       0.04162563 -0.036994424 -0.028262498 -0.071886346
000270 a1 d7 3e bd d7 22 6a 3d f4 bf 86 bd 6c 23 8a 3d
       -0.04659236 0.057162132 -0.06579581 0.067450374
000280 93 30 9c bd 97 6d 30 39 67 f1 0b 3d 0d 50 c0 bc
       -0.07626452 0.00016825493 0.034165766 -0.023475671
000290 d5 e3 c2 bc ee 4b d7 bc 6f be 15 3d a1 77 4f bd
       -0.02379028 -0.026281323 0.036558565 -0.050651196
0002a0 02 72 c1 bd fd ea 47 3d 75 b8 29 bd aa c9 b9 bc
       -0.094455734 0.048808087 -0.041435678 -0.022679169
0002b0 c3 ba ae 3d 4d 54 b1 3a 84 33 1e bd 15 a1 81 3c
       0.08531716 0.0013529152 -0.038623348 0.01582388
0002c0 69 ee c0 bc 30 ee c6 ba 31 39 ce 3d 70 cc 0b bd
       -0.023551183 -0.0015177187 0.10069502 -0.034130514
0002d0 b3 29 ff 3d e1 72 96 3c c1 fe 50 3d d1 0e 03 bd
       0.12459125 0.018365325 0.051024202 -0.031996552
0002e0 ee 64 cb 3d 0b f5 d8 bb 8a 0f 89 3d 4f 36 1d 3d
       0.0993136 -0.0066210083 0.06692417 0.03838187
0002f0 eb b0 78 3d b5 09 d8 3b 6c 1a 03 3e 8e 89 e6 3c
       0.060715597 0.006592954 0.12803048 0.028141763
000300 36 4d 39 3d d7 09 8a bb 56 db c5 bd 67 89 8d bd
       0.04523965 -0.004212599 -0.09660976 -0.06910973
000310 7f 29 fd 3d 07 37 d5 3c 53 09 9c 3d 9c 9f a1 bc
       0.123614304 0.026027216 0.07618966 -0.019729428
000320 6e e0 8b 3c 3f 00 88 3b 83 5b 77 3c 78 80 08 bd
       0.01707479 0.00415042 0.015097502 -0.033325642
000330 ab 11 ee bc 28 2c ba bc 2f 3f 6f bc d1 52 44 3d
       -0.02906116 -0.022726133 -0.0146024665 0.047930542
000340 b9 81 e0 3b f6 43 d1 ba 3b 34 a7 bc cd eb d3 bc
       0.0068514016 -0.0015965689 -0.020410648 -0.025869275
000350 a2 71 22 bb c8 34 83 bc 59 d5 2d be 42 2a 3b bd
       -0.0024786969 -0.016016379 -0.16975917 -0.045694597
000360 95 20 61 bd b8 a0 f1 3a 0f cf ab 3d 4e 08 34 3d
       -0.054962713 0.0018434739 0.08389103 0.043953232
000370 f6 d3 38 3d 81 de 0c 3d 98 bc ef 3d c6 44 e6 bd
       0.045124017 0.034391884 0.11705893 -0.11243586
000380 b8 01 86 3d 64 df 13 bc 42 1c e9 bd 87 59 37 bd
       0.065432966 -0.009025428 -0.11382343 -0.044763114
000390 f6 78 46 bd f8 78 0e 3d b6 63 02 be 33 d6 02 3d
       -0.0484552 0.034783334 -0.12733349 0.031942558
0003a0 cc e8 ed bd 1a 21 22 3d 4f 17 52 bd a9 e2 84 3d
       -0.11616668 0.03958235 -0.05129176 0.064885445
0003b0 6f 86 24 be 7b e6 2b bc c2 2c 55 be e0 e2 2b 3c
       -0.16066907 -0.010491963 -0.20817855 0.010491103
0003c0 42 17 de bd c3 e5 86 3d ab 9f 0d 3e 12 56 16 bd
       -0.1084428 0.06586792 0.1383044 -0.036703177
0003d0 2f 19 09 3e 2e f6 e5 ba 91 fb 64 bd e4 68 a3 bd
       0.13388513 -0.0017544681 -0.055903975 -0.07978991
0003e0 98 ba 82 3c e1 65 2b bd 30 ad 6a bc fb 25 45 bd
       0.015958115 -0.041845206 -0.014323518 -0.048131924
0003f0 95 87 d0 bd fc bb 8d bd e1 6f 26 3e 28 40 1a bc
       -0.1018211 -0.06920621 0.16253616 -0.00941471

conv1.lin_l.bias f4 [512]
000000 c4 3f bb bd 46 9d e6 bd 96 0f 21 be fe 13 d5 3d
       -0.09143022 -0.11260466 -0.15728602 0.10404204
000010 be d4 d8 3c 1e bb b5 3d 6e cf 0e 3e bb 6f f1 bd
       0.02646863 0.088735804 0.13946316 -0.11788889
000020 8e ce 97 3c 21 6e 23 3e 57 4f 1e be 62 4a 38 3e
       0.01853111 0.1595998 -0.15459953 0.17997125
000030 ad c5 03 3e de 4d d2 bd 59 01 77 be 47 96 c9 3d
       0.12868376 -0.10268758 -0.24121608 0.09843116
000040 fc 4f 4e 3c aa 53 ff bd 49 0d e0 3d 8f b4 13 3d
       0.012592312 -0.124671295 0.10940034 0.036060866
000050 e3 bf 97 3e 2c 65 e5 3d 3e eb 12 3d b3 5f 99 be
       0.29638585 0.11200938 0.035868876 -0.29955825
000060 c5 6b 32 3e ed af 88 3e db 5d b2 bd c8 4b 20 bd
       0.17423923 0.2669672 -0.08709308 -0.03913477
000070 4e aa 8a bc f3 c7 ac bc 7b cf 01 3e c8 fd 97 3c
       -0.01692691 -0.021091437 0.12676804 0.01855363
000080 f2 0d 80 be 19 a8 9c 3d b4 68 d9 bd 09 37 a3 3d
       -0.2501064 0.076492496 -0.10615674 0.079694815
000090 3e a5 f9 3d 96 55 18 be be 2a f3 3d 1b 43 e1 bc
       0.121897206 -0.14876398 0.11873387 -0.027497819
0000a0 8f 1e 2d be 7c b3 6d 3e 22 e5 da 3d a8 90 59 3e
       -0.16906188 0.23212999 0.10688235 0.21246588
0000b0 8b 49 07 be d4 4c 40 be 71 77 64 be 1b d7 d4 3d
       -0.13211648 -0.18779308 -0.22311188 0.103925906
0000c0 89 1b 24 3e 2c e0 33 be 55 e4 ab 3d b0 d7 cf 3c
       0.16026129 -0.17565984 0.0839316 0.025371403
0000d0 74 09 05 be 09 ea c7 bc b7 b3 36 be e1 b4 b3 bd
       -0.12991887 -0.024403589 -0.17841993 -0.08774734
0000e0 58 5b 2a 3d d0 65 7f 3c 8d dc 6c be 29 54 3d 3d
       0.04159102 0.015588239 -0.23131008 0.04622284
0000f0 8c 1f 77 bd 80 40 3a be 1e 2e 53 be b8 32 a3 bc
       -0.06033282 -0.18188667 -0.20623061 -0.019921646
000100 00 b8 24 be e1 8c 05 be a0 ff 37 3b 29 4a c8 bb
       -0.16085815 -0.13042022 0.0028075948 -0.006112356
000110 cd f8 17 be ef 50 ec 3c 95 80 ff 3d 22 a5 f0 bd
       -0.14841004 0.028847186 0.12475697 -0.117502466
000120 32 f0 d3 bd bc a1 08 3b 26 67 7c 3d 5c 57 fb 3c
       -0.10348548 0.0020848354 0.061621808 0.030681305
000130 7b 38 2a 3e 10 43 43 bc cf f5 b7 3d f4 b1 2d be
       0.16623108 -0.011917844 0.08982431 -0.16962415
000140 b8 52 22 bd 07 91 45 3e b9 c2 52 be 82 da 30 be
       -0.039629668 0.19293605 -0.20582093 -0.17270854
000150 09 31 6e be 9a 9a 74 3e 73 c8 24 bd c8 e1 63 3e
       -0.23260893 0.23887101 -0.040230226 0.22254097
000160 f9 db cf bd 59 8b 8e bd b1 6e 0b 3e a5 99 9c be
       -0.10149378 -0.06960172 0.13616444 -0.3058597
000170 56 96 6c be 72 ca 05 be b7 af ef ba 71 9f 70 be
       -0.23104224 -0.13065508 -0.001828662 -0.23498322
000180 63 ef fe 3c 86 57 3b 3e 0e 3c 5c bd cc c9 69 bd
       0.031120008 0.18295106 -0.05376821 -0.057077214
000190 72 5c 55 be 12 da 64 bd 78 6e 86 bc ab a3 a3 3c
       -0.20836046 -0.05587203 -0.016410097 0.019975504
0001a0 df 19 a5 bd 2e 10 35 be 5f ac 24 be 91 4e 10 3e
       -0.08061575 -0.17681953 -0.1608138 0.1409247
0001b0 29 38 24 be d3 04 4e bb 1b d3 4d bd 95 37 dc bd
       -0.16037048 -0.003143598 -0.050250154 -0.10752789
0001c0 f9 e2 3d bd 3d 99 21 3e b1 bd 4e 3e c8 48 5c bd
       -0.046359036 0.15781112 0.20189549 -0.053780347
0001d0 c2 7e c5 bd 7e 64 1c be f7 96 df bd 24 fa 43 bd
       -0.09643318 -0.1527271 -0.10917466 -0.047845975
0001e0 f0 47 1b 3e cc 81 c2 3c a2 65 86 be aa 9d a8 bd
       0.1516416 0.023743533 -0.26249415 -0.08233197
0001f0 13 c6 7b be b3 1d 83 3e 2c 06 6c bc 73 08 ab bd
       -0.24587278 0.25608596 -0.014405768 -0.08351221
000200 39 e4 67 3d c0 88 2e be 36 fd a9 bd b2 b7 0e 3b
       0.056614134 -0.17044353 -0.08300249 0.0021776971
000210 1b 78 5e 3e 33 17 28 3e ed c3 fe bc 58 c9 90 be
       0.21725504 0.164151 -0.031099284 -0.28278613
000220 c1 08 fb 3a b3 09 eb bd ba 79 59 3e 63 d8 d3 bd
       0.0019152389 -0.11476459 0.21237841 -0.10344007
000230 f6 38 aa bd 4b 14 74 bd b9 84 7d 3e 97 f3 ef 3d
       -0.08311646 -0.059589665 0.24757661 0.11716383
000240 3d 93 55 be 8a 52 6d bc 47 24 b1 3d b4 42 94 bd
       -0.20856948 -0.014485011 0.086494975 -0.07239285
000250 52 7c 20 3d 6e f7 76 be a2 ec 1f be 50 9b 1b 3e
       0.03918106 -0.24117824 -0.15617612 0.15195966
000260 38 26 35 3e b4 a3 ae 3d 8a ac 2b be 8c 76 8f 3d
       0.1769036 0.08527318 -0.16765037 0.07005033
000270 d3 5d 2c be 27 36 76 be b6 29 56 be 5e ae 06 bd
       -0.16832666 -0.24044095 -0.20914349 -0.032881133
000280 0d 2d 17 3d 2f d3 6d bc 59 be 91 3e 2a 42 d9 bc
       0.0369082 -0.014515682 0.28465536 -0.026520807
000290 df 12 80 3e 53 6e 5c be e3 ce f7 bd b2 44 a5 3c
       0.25014398 -0.2152646 -0.121000074 0.020174358
0002a0 6b 77 0d 3e ab af 66 3d 82 1e 34 3e 16 00 24 be
       0.13815086 0.056319874 0.17589763 -0.16015658
0002b0 bc 68 87 3e 59 0b 8d 3d 10 14 0b 3d 80 56 1d bd
       0.26447093 0.0688693 0.03395468 -0.03841257
0002c0 e6 e2 4e be f9 7f a8 3d 63 63 ab 3c b9 a4 5b 3e
       -0.20203742 0.08227534 0.020921415 0.21449555
0002d0 87 49 62 3e c7 9e 7b be f0 45 90 3e 47 a8 a4 bd
       0.22098361 -0.24572287 0.28178358 -0.08039909
0002e0 c8 44 53 be 6b 09 72 3e dd af 60 bd 3a 4f 26 bc
       -0.20631707 0.23636405 -0.054855216 -0.010150725
0002f0 af 3a d1 3c 56 24 de bd 6f b7 ab 3d 72 5a 47 3d
       0.025540678 -0.10846774 0.083845966 0.04867024
000300 84 ea 76 3e b4 42 90 bd a7 e8 45 be 52 4a 20 3d
       0.24112898 -0.070439726 -0.19327031 0.039133377
000310 9a 28 9d bd a7 02 e5 bc b7 f3 4d be 0e 19 ff 3d
       -0.0767376 -0.027955366 -0.20112501 0.12455951
000320 78 75 0f be c9 1a eb bc 00 c3 49 bd de 26 ec bd
       -0.14009655 -0.028699296 -0.049258232 -0.11530851
000330 46 60 13 3e 73 a7 36 be ca 85 b4 bd 52 ac 25 be
       0.14392194 -0.17837314 -0.08814581 -0.16179016
000340 b4 e9 2f 3e 15 37 38 be a2 d8 32 3e 38 cd 49 be
       0.17178994 -0.17989762 0.17465451 -0.19707191
000350 70 cf 93 be 9c e5 28 bd d0 82 7b be 92 cb 7b 3e
       -0.288692 -0.041234598 -0.2456162 0.24589375
000360 55 30 8c 3e cc c7 f3 bd 32 ed 35 3e ff 65 be bd
       0.27380624 -0.119033426 0.17766264 -0.09296798
000370 f2 cc 44 3d 51 d9 57 be 87 3b db bc ec 73 ab bd
       0.048047014 -0.21078993 -0.026761783 -0.0837172
000380 84 2c 33 3c 48 10 56 3d ac 8c 96 be dd 6e 73 3c
       0.010935906 0.05226162 -0.294042 0.014857975
000390 d9 fa 2f 3e 2e 33 56 3e cf 95 e7 3d 4a f3 db bc
       0.17185535 0.20917961 0.113078706 -0.026849408
0003a0 67 f3 45 3e 86 cb 92 3d 69 57 24 be 81 38 79 bc
       0.19331132 0.07167725 -0.1604897 -0.0152112255
0003b0 c8 5e 7f be 25 b3 b4 3b af 95 97 bb d5 15 52 be
       -0.249385 0.0055145198 -0.004625998 -0.20516141
0003c0 e9 53 38 3d 11 5e 50 3e 79 75 80 be ec e2 6c be
       0.045001898 0.20348383 -0.25089625 -0.23133439
0003d0 63 49 cb bd c6 5d 40 3c 49 1f 9e be ee b2 75 bd
       -0.09926107 0.011741107 -0.30883244 -0.059985094
0003e0 a2 3d 60 3e 1e 92 5d be f3 36 96 bd ee 55 7c bd
       0.21898511 -0.2163777 -0.073346995 -0.061605386
0003f0 27 cf 1e 3e 1b a3 cf bd b6 75 ce 3d c1 99 01 be
       0.1550871 -0.10138532 0.10081045 -0.12656309

conv1.lin_r.weight f4 [512, 8]
000000 72 a9 47 be bd b5 9a 3d fd 75 b9 3d a2 9b da 3d
       -0.19498232 0.07554195 0.090557076 0.10674216
000010 ec 50 03 be 32 eb 2e bc 15 52 4a be f1 ba 71 bd
       -0.12823838 -0.010676192 -0.19757874 -0.05901617
000020 79 22 0a be 25 e6 db 3d eb 4b 15 3e df ff 87 3d
       -0.13489713 0.10737256 0.14579742 0.066406004
000030 96 e8 8e 3d e5 0d af bb 47 9f d1 bc bc 83 a9 bd
       0.06977956 -0.0053422325 -0.025588645 -0.082770795
000040 b2 0d dc 3d db 5c 3d 3d 6f 21 84 3e 81 b8 6c 3d
       0.107448 0.046231132 0.25806758 0.057793144
000050 67 a4 59 3e b3 4d 37 3e 84 97 e6 bc 95 bb 21 3d
       0.21254121 0.17900734 -0.02814842 0.039485533
000060 cd aa ed 3d c4 a0 31 bd a4 ea fb 3b 11 da bf bb
       0.11604843 -0.04336621 0.0076878835 -0.005854853
000070 ba c4 e2 bd 0f d6 89 3c dd b0 55 be a1 bb 73 bc
       -0.11072679 0.016825704 -0.20868249 -0.014876277
000080 6c 90 1a 3e f3 6f 4b bd ec 36 9e bd 92 a7 6a bd
       0.15094155 -0.04966731 -0.07725319 -0.057288714
000090 ba 3d b3 bc d2 91 73 3d 9d 0c 2d bd 6d 8c 39 bd
       -0.02188002 0.059465237 -0.042248357 -0.045299936
0000a0 06 58 29 3d dd e0 a2 3c 70 12 b1 bd dc 19 4e bd
       0.04134371 0.019882614 -0.08646095 -0.05031763
0000b0 ef 90 18 be 01 a5 38 bc f4 c7 0a be 1d 88 15 3d
       -0.14899038 -0.011269809 -0.13552839 0.03650676
0000c0 45 2d b3 3c c1 23 10 bc 7f be 40 3d 8e 13 29 3c
       0.021872172 -0.008797587 0.04705667 0.010319604
0000d0 88 80 a1 3c de 65 b6 3c 88 23 94 bc 79 74 7d bd
       0.019714609 0.022265371 -0.018083349 -0.061878655
0000e0 70 73 01 be df 27 94 3d ce 43 3a 3d eb 0b 82 3d
       -0.12641692 0.07234167 0.04547482 0.063499294
0000f0 74 da 08 3e 73 97 a2 3d 6f c6 07 3e c3 55 84 3d
       0.13364583 0.07939043 0.1325929 0.0646167
000100 79 ae 58 3d 75 3e 18 bc ea 36 83 be 3f 2f a9 bd
       0.052900765 -0.009292235 -0.25627834 -0.082609646
000110 8e d5 3a be 80 10 17 bd 90 32 bf 3d 69 87 b6 3d
       -0.18245527 -0.03688097 0.09335816 0.08912546
000120 15 9f 84 3d cb 33 2a bc fb 4e 30 be 82 b6 cd bd
       0.06475655 -0.010388325 -0.17217629 -0.10044576
000130 36 2e 85 be 1d e9 88 bd f3 3d ce 3c a2 bc 1e 3d
       -0.2601182 -0.06685088 0.025176024 0.038754113
000140 1b bd 84 3e c6 fc 16 be 23 ec 48 be db eb 19 be
       0.25925526 -0.14744863 -0.19621329 -0.15031378
000150 6e ed de 3d 17 b9 80 bc d9 1d 67 3e 83 5b 74 3d
       0.1088513 -0.015713258 0.2256998 0.059657585
000160 4f 4e 34 3d b9 bd 73 bc f0 a5 ac bd 45 19 44 bd
       0.044019993 -0.014876776 -0.084300876 -0.04787566
000170 b2 7c ba bd 52 77 07 bd 6a ea 96 bd 42 6b d8 bc
       -0.09105815 -0.033072777 -0.0736893 -0.026418332
000180 e1 3a 85 bd ba b7 b1 3c b3 ce 1d 3c 22 60 0c 3d
       -0.06505371 0.021694053 0.0096318 0.034271367
000190 71 1f 09 3e e7 d9 66 3c bd b0 fa 3c 5e b9 23 bd
       0.133909 0.014090038 0.030601854 -0.0399717
0001a0 f0 0b 6b 3c 43 a4 10 3c 20 79 8b 3d 4f 05 28 3d
       0.014346108 0.008828226 0.06810212 0.041020688
0001b0 80 8f 88 3d 94 3e 65 3c f1 1c 9c bd b7 11 74 bc
       0.066679955 0.013991971 -0.07622708 -0.014896802
0001c0 b4 19 1f 3d c2 17 02 3c bd d7 39 bb e4 aa 62 bc
       0.03884287 0.007940235 -0.002835735 -0.013834689
0001d0 a5 14 25 be 0d 72 80 bd 48 ba 8f be 41 fd a4 bc
       -0.16121157 -0.062717535 -0.2807181 -0.020140292
0001e0 7c 18 9a 3d b3 cb 15 bd a8 d0 82 bd 3d 5f a8 bd
       0.07524201 -0.036571216 -0.06387454 -0.0822129
0001f0 22 54 c5 3c de ea 41 bd 0f ba 10 3c 6e f7 c1 bd
       0.02408797 -0.047343127 0.008833422 -0.094710216
000200 5a 49 37 3e b9 2a ff bc ad 40 7b be e4 cf 1c be
       0.17899075 -0.031148301 -0.2453639 -0.15313679
000210 ef 54 8b be 50 5f fe bd 69 56 5a bd 1b 66 bf bc
       -0.27213237 -0.12420523 -0.053305063 -0.023364117
000220 7d 96 40 3c fa 86 dd bc 51 ce e8 bd 66 d5 92 ba
       0.011754629 -0.0270419 -0.11367477 -0.0011202514
000230 2e d8 eb 3c fd 43 03 3d 1d 04 13 be 7b 53 6f bd
       0.028789606 0.03204726 -0.14357038 -0.058429223
000240 73 67 5b 3e 61 81 53 bd 37 eb 82 bd df 44 1b bd
       0.21426181 -0.051637057 -0.0639252 -0.037907477
000250 5f c9 b8 bd 31 27 f6 3c 4b 15 1f 3e c8 6d e2 bc
       -0.090227835 0.030047985 0.15535466 -0.027640238
000260 bc 40 b2 bd 52 40 14 3d dd 57 fd 3c 4e 31 e8 3d
       -0.08703753 0.036194153 0.030925686 0.11337529
000270 85 48 b3 3d 2a 87 b4 bc 77 a1 ab 3d b6 c7 89 bd
       0.087540664 -0.022037107 0.08380406 -0.06727545
000280 c2 c4 9b 3d 29 a6 a6 3c 15 4b 42 3d 7b 9f 7f 3d
       0.07605888 0.020342903 0.047434885 0.06240795
000290 02 8e 9e 3c 59 96 a3 3c 4e 7d 58 bd d8 83 7f bc
       0.019354824 0.019969152 -0.052853875 -0.015595399
0002a0 44 b8 f7 3d 77 39 7d bd 33 07 17 3d 72 76 fc bb
       0.12095693 -0.06182238 0.0368721 -0.0077045495
0002b0 ca 5c 0e be 8e d9 a9 39 59 11 64 3d ad 6b 0a 3d
       -0.13902584 0.00032396283 0.055680607 0.033794094
0002c0 e7 db be bc 97 02 51 3c 0f 47 14 3e d7 99 0f 3d
       -0.023298217 0.012756965 0.14480232 0.035058822
0002d0 44 15 3f 3e 40 c8 f4 3c 8b 5c 02 3e 18 09 5f b9
       0.18660456 0.029880643 0.12730615 -0.00021270325
0002e0 e6 6c 72 ba 51 06 be 3c 8c f7 c6 3d 63 ca 7b 3d
       -0.00092477945 0.023196371 0.097151846 0.061472308
0002f0 29 ec ba 3d 34 34 d4 3c c4 54 c4 3d b0 17 83 3c
       0.09127075 0.025903799 0.0958648 0.016002506
000300 5a 74 9b bd 00 18 24 3b db bb eb 3d 2d 08 f3 3d
       -0.07590552 0.002503872 0.1151044 0.11866794
000310 71 b7 e8 bd 56 68 86 3d c5 e2 c8 bd d7 a5 11 bd
       -0.11363114 0.06562869 -0.09808878 -0.035558548
000320 0f 34 7b b7 ac 6d bb 37 ab 24 55 3b 0e e5 95 39
       -1.4972887e-05 2.2343207e-05 0.0032523077 0.00028590154
000330 7f ea 1a b8 b7 1c 2e bb 8d e0 22 3a 0a 5c a8 bc
       -3.6934853e-05 -0.0026567408 0.000621327 -0.0205517
000340 b8 f7 b7 3c 2b 5d 9e bc d3 a9 07 bd 8b a4 30 bd
       0.022456989 -0.019331535 -0.03312094 -0.04312567
000350 7a 31 48 bd e2 7e 2c bc b7 9d be bd e2 cf 41 bc
       -0.04887531 -0.010528298 -0.093074255 -0.011829348
000360 20 9a 38 bd 89 8b 9e 3c f6 1c 05 3e a2 2a 8b 3d
       -0.04506886 0.019353645 0.12999329 0.06795241
000370 65 a8 06 3e 8b b1 66 3d fa 27 1b 3e c9 ce 81 3c
       0.13150175 0.056321662 0.15151969 0.015845673
000380 9c 27 1b 3d 11 46 90 bc 8e 26 0f be 8e 5a 2f bd
       0.03787957 -0.017611535 -0.13979551 -0.04281097
000390 25 fc 07 be fb 37 78 bc 7f f2 f3 bd 43 af 10 bd
       -0.1327978 -0.0151500655 -0.11911487 -0.035323393
0003a0 bd f0 f8 3d f0 d3 4f bd a7 b5 30 3d 39 62 a1 bd
       0.12155292 -0.05073923 0.043141987 -0.078800626
0003b0 74 0a 4b 3e 7b fc d6 3c 5c 0d 61 3e be 2f b8 bc
       0.19828206 0.026243439 0.21977752 -0.022483703
0003c0 51 c2 35 3e 7a 52 ca bd 8c 5b 36 be 82 34 0c bd
       0.17749907 -0.098790124 -0.1780836 -0.034229763
0003d0 4c 45 4d be 05 b0 04 bd 50 16 81 3d 5e eb 26 bd
       -0.20045966 -0.032394428 0.06303084 -0.040751807
0003e0 b8 43 57 3d 64 f0 9e bd 7f 0a eb bc 49 8d 6e bd
       0.052554816 -0.077606946 -0.028691528 -0.05824021
0003f0 39 65 9d bd ad d1 9d bd 5a 2b 3a 3e a4 2e e0 3c
       -0.07685322 -0.07706008 0.181806 0.02736599

conv1.lin_r.bias f4 [512]
000000 fb 80 8e 3d 8b b0 df bd 07 e5 23 3e 72 98 d1 bd
       0.06958195 -0.10922345 0.16005336 -0.10234155
000010 0e 0c f6 bb 31 a9 b8 bd 99 37 23 bd a4 5f 57 bd
       -0.0075087612 -0.09016646 -0.039847944 -0.052581444
000020 93 33 47 3e 20 2b ec bd 9b 6e 86 3d 5b 00 12 bd
       0.19453268 -0.11531663 0.06564065 -0.03564487
000030 49 7d bb bd 94 9f 9c 3c cc 07 1c 3e 78 ed 1a 3c
       -0.091547556 0.019119062 0.1523735 0.009456031
000040 96 d5 37 bd 4c b3 d5 3c 53 ed e9 bd d3 68 aa bc
       -0.044881426 0.026086472 -0.11422219 -0.020801937
000050 b9 bd 2d bd 1d 17 c3 bd a4 6c e3 bd 37 48 87 3d
       -0.04241726 -0.09525893 -0.11104706 0.06605571
000060 35 89 df bd 73 72 73 b9 f7 dc 39 3d 83 e4 07 be
       -0.10914842 -0.00023216922 0.045376744 -0.13270764
000070 01 1e fb 3d c2 14 ed 3c 72 17 12 be d5 14 4a 3d
       0.12261582 0.028940562 -0.14266756 0.049336273
000080 a8 b0 a2 3c 03 ef 83 bd e8 c0 53 3d c3 d4 8d bd
       0.019859627 -0.06442072 0.05169764 -0.06925347
000090 f7 95 9e bd ae 29 16 3e c3 5e 67 bd 1b 27 b2 3b
       -0.07743447 0.14664337 -0.056486856 0.0054367906
0000a0 30 6e 08 be b5 ee 70 be 2f 11 58 be 74 bd d5 bd
       -0.13323283 -0.2352856 -0.21100305 -0.10436526
0000b0 cd 26 e4 3d d3 8e e3 3d e5 5e da 3c 9c 49 f3 bd
       0.11140213 0.11111226 0.026656577 -0.11879274
0000c0 6f 34 98 bc 77 ed ea bc a0 1f 3b bd a2 9c a7 ba
       -0.01857969 -0.028677685 -0.045684457 -0.0012787769
0000d0 20 70 23 bd 35 e4 c2 3b bb 6f b6 3d 73 6b 17 3b
       -0.039901853 0.0059476146 0.0890803 0.0023104816
0000e0 40 39 a8 bd 3f b2 b4 bb d1 4d 5c 3e d0 c3 5b 3c
       -0.082140446 -0.0055144127 0.2151406 0.013413385
0000f0 a1 c0 26 3d 08 a1 16 3e 88 8d 25 3e 97 e4 c2 bd
       0.04071105 0.14709866 0.16167271 -0.09516256
000100 d3 48 dc 3d 12 dc 46 3d 6c c9 9b b9 86 0e d2 3c
       0.107560776 0.04854972 -0.00029713975 0.025641691
000110 a8 2b 3f 3d d3 a4 c9 3b 56 63 f9 bd 6e ec 55 3d
       0.046672493 0.006153682 -0.1217715 0.05222743
000120 f0 2b 4c 3d b3 8a 3d 3c 68 1e 08 bd 81 59 38 bd
       0.04984659 0.011568713 -0.033232123 -0.045007233
000130 89 be f6 bd 48 60 59 3c cf ef 2c bc 0b ae 44 3c
       -0.120480604 0.013267584 -0.010555222 0.012004386
000140 92 60 43 3d dc 6d 16 be 5a 55 07 3e d6 26 31 3e
       0.04769952 -0.14690346 0.13216153 0.17299971
000150 33 e0 0c 3e 38 41 f2 bd a6 a0 43 3d c6 8c 6e be
       0.137574 -0.11828846 0.04776063 -0.23295888
000160 07 a2 32 3d 18 fe 81 3d d3 6e 94 bd 99 78 da 3d
       0.043611553 0.06347293 -0.072477005 0.106675334
000170 b5 b2 db 3c ca df 61 3d 4c fb 2d 3c 3e d8 e3 3d
       0.026818613 0.055145063 0.010618996 0.11125229
000180 a0 5d d8 bc 1b c8 ae bd 7d 74 57 3d f0 b6 cf 38
       -0.026411831 -0.08534261 0.052601326 9.904604e-05
000190 82 12 b5 3d da 23 a8 3b 5b 3a 1d 3d ec cd 68 bd
       0.08841421 0.005131227 0.03838573 -0.056837007
0001a0 12 28 aa 3d ab 0a 1d 3e 52 69 99 3d 49 93 ce bd
       0.08308424 0.15336101 0.074907914 -0.10086686
0001b0 f2 26 e2 3d 3d d6 e3 3c 9c 5c 36 3b 47 22 e9 3c
       0.110425845 0.027812118 0.0027826196 0.028458728
0001c0 f4 37 99 bd db 05 2f bc 88 63 8f bc 26 64 09 3c
       -0.07481375 -0.010682548 -0.017503515 0.008385694
0001d0 c0 db d5 3c 35 59 cc 3d 00 ff 03 3e 1c b0 b7 bb
       0.026105762 0.099779524 0.12890244 -0.0056057107
0001e0 a3 50 ed bd c5 95 11 3d 12 84 5b 3c b2 f8 b3 3d
       -0.11587646 0.035543222 0.013398187 0.08787669
0001f0 b8 66 5d 3e 92 d9 06 be 4a 89 c0 3c b5 91 8a bc
       0.21621215 -0.13168934 0.023502965 -0.016915182
000200 37 be 2b bd dc 71 17 3e 55 fe af 3d 42 fa 04 3c
       -0.04192945 0.14789528 0.08593432 0.008116307
000210 a6 e8 1e bd d7 c2 15 bd 5f 77 d2 3a af d6 4a 3e
       -0.03879609 -0.036562767 0.0016057304 0.19808458
000220 6b df b7 3d b6 fb b2 3d ff d6 8a bd f7 1d a7 3d
       0.089781605 0.08739416 -0.067792885 0.08160012
000230 50 93 95 3d 4c f8 39 bb ff 5b 83 bd 64 10 0c 3c
       0.07303488 -0.0028376756 -0.06414031 0.00854883
000240 d6 52 37 3e 20 b4 30 3c 98 e0 7e bc c3 2b 1d 3c
       0.17902693 0.010785133 -0.015556477 0.009592953
000250 c3 93 a9 bc 63 bc 36 3e 47 81 25 3e 88 9a 92 bd
       -0.020700341 0.17845301 0.16162597 -0.07158381
000260 36 da e0 3c 39 50 40 3d 5c 5f 4c bd 1c f3 b4 3d
       0.027447801 0.046951506 -0.04989563 0.08835432
000270 8e 7c 0e 3e 45 ab 57 3e e7 b2 cc bd d3 fc 1d 3d
       0.13914701 0.21061428 -0.099950604 0.03857119
000280 9e 0d 39 bd 9b 0c d1 3c 18 ee 65 be 7a 9c c4 3b
       -0.045179002 0.025518706 -0.22454107 0.006000099
000290 c9 a0 cb b9 d5 6c 0a 3e 12 3e df 3d 50 6b 33 3d
       -0.00038838972 0.13518079 0.10900511 0.043803513
0002a0 2f 08 e4 3b 30 d6 60 bd 69 ac 97 3c ea a3 25 3e
       0.0069589834 -0.054891765 0.018514829 0.1617581
0002b0 b8 6a 28 3d ad da 3f bd 59 c1 df bc b4 49 10 3d
       0.0411174 -0.046839405 -0.027313875 0.03522654
0002c0 3d e7 3a 3e 3b 6d f2 bc 55 79 dd bb 2a f0 86 bd
       0.18252273 -0.0295931 -0.0067588487 -0.065887764
0002d0 f4 a7 8d bd 1c 90 30 3e 37 75 30 be 19 56 24 3d
       -0.069168 0.17242473 -0.17232214 0.04012117
0002e0 46 fb d3 3d 2d 25 2c bd f1 c9 69 bd 9f 6d 01 bd
       0.10350661 -0.04202764 -0.057077352 -0.031598683
0002f0 fc 3b 95 bc 78 62 3a 3e 03 e6 09 be e7 ed d0 bc
       -0.01821708 0.18201625 -0.13466649 -0.025504066
000300 35 4a fe bd 60 cf 98 3a 1f 6d 3e 3e 54 e7 21 bd
       -0.124164976 0.0011658482 0.18596314 -0.039527252
000310 86 e9 9c 3d c1 b3 42 3d 13 11 34 3d 55 6e 91 bd
       0.076617286 0.047534708 0.043961596 -0.07101122
000320 26 52 cc 3d ed 1d 90 3d 37 1b 83 bc f8 de d5 3c
       0.09976606 0.07036958 -0.016004188 0.026107296
000330 9a 08 73 bd 2e af 3e 3e 6c ba 2f bd 0e 85 0e 3d
       -0.059334375 0.18621513 -0.042902395 0.03479486
000340 a5 c8 0f bd 39 7e e2 3c 62 ac dd bc 5d 58 c8 3d
       -0.03510346 0.027648078 -0.027059738 0.09782479
000350 c6 f3 7e 3d 84 ed cd 3c 92 1a c5 3c f1 d3 19 be
       0.0622442 0.02513767 0.024060521 -0.15022255
000360 08 d9 26 bc cb c0 58 3d 2b 28 db bd 33 ed 34 3d
       -0.01018358 0.052918237 -0.10701021 0.044171523
000370 a9 f3 e8 3b ea b4 bd 3c 76 9f 6b bb 86 6f ee 3c
       0.0071091247 0.023157556 -0.00359532 0.029105913
000380 5c da ec 39 5b c1 87 bc 8b 69 47 3e ce d7 9c 3c
       0.00045176118 -0.016571691 0.19473855 0.019145872
000390 8c 9d 37 be 18 8b 2a be 34 43 0b be e5 4d e0 ba
       -0.17931193 -0.16654623 -0.13599855 -0.0017113058
0003a0 b3 37 ed 3c 13 70 b2 bc 01 fa da 3d 9f 9e 40 3d
       0.028957224 -0.021781957 0.10692216 0.047026273
0003b0 2e 2a 81 3d 1d 7e ac 3c f6 59 ff bc aa c6 25 bd
       0.06306873 0.02105623 -0.031170826 -0.040472664
0003c0 f3 25 f5 3d bb 79 85 bd d0 c0 32 3e 4d d4 12 3e
       0.11970129 -0.06517359 0.17456365 0.14338799
0003d0 94 b5 a8 3d 52 8a 34 3c af 40 fe 3d 84 1e f3 3c
       0.08237758 0.011019306 0.12414681 0.029677637
0003e0 d0 11 70 bc 9e 61 33 3d fe b7 99 3d e9 43 a3 3d
       -0.014652684 0.043794267 0.07505797 0.07971937
0003f0 91 cc 40 bd 08 47 ac 3d 02 2e 87 bd 46 a6 df 3d
       -0.04707009 0.08411986 -0.06600572 0.10920386

conv2.att f4 [1, 1, 64]
000000 64 fe 94 3d c6 92 a2 be b2 2c d9 bd b9 3c 87 3e
       0.07275084 -0.31752604 -0.10604228 0.26413515
000010 38 3e 93 3c e5 ab f2 be 63 47 6e 3e 02 81 b4 be
       0.017974004 -0.4739677 0.2326942 -0.35254675
000020 2d 55 e5 bd 0b f9 4e 3d 08 48 4a be 77 de 3c bd
       -0.111978866 0.050530475 -0.1975404 -0.046110597
000030 14 c6 6e 3d 2b cd e4 be 35 13 07 3d a4 ef 0f 3e
       0.05829437 -0.4468778 0.0329773 0.1405626
000040 57 de 9b be 4b 0f bc be e9 d0 a3 3d e2 68 39 3d
       -0.3044307 -0.36730418 0.07998831 0.04526604
000050 6d 29 17 bd 47 a0 ff bd f4 77 7e be fc af 67 be
       -0.03690474 -0.12481742 -0.24850446 -0.22625726
000060 70 da 22 be 2d 64 8d be 73 93 4e be 8b fe ce be
       -0.1590364 -0.2761549 -0.20173435 -0.40428576
000070 8b cc 19 3e d3 5e 85 be 39 b4 a7 3d a4 50 f6 bd
       0.15019433 -0.26048908 0.081886716 -0.120271
000080 2e 75 87 be 5a df af be ac 3a 82 be 54 8f 74 bd
       -0.26456589 -0.3435009 -0.25435388 -0.059707
000090 66 30 b4 3d b2 b6 36 be fa 87 a5 be 1f 9f 54 3d
       0.08798294 -0.1784313 -0.32330304 0.051909562
0000a0 97 4b 8d be 63 b7 a0 3c 25 77 bf 3d 54 20 00 3e
       -0.27596733 0.019618696 0.09348897 0.12512332
0000b0 0e 32 0e be 44 d0 35 3e f8 d7 08 be ae 56 69 3d
       -0.13886282 0.17755228 -0.13363636 0.05696743
0000c0 bd c5 4d 3d b9 27 02 3d 2c c5 05 3e 8e a3 a5 be
       0.050237406 0.031776164 0.13063496 -0.32351345
0000d0 91 35 e2 3d a7 07 1b bd cd 46 95 be 8c 6a 97 3c
       0.11045373 -0.037849095 -0.2915558 0.018483423
0000e0 81 66 ed 3d 8e ca c3 be 36 cc 8d 3d 3b e2 a6 be
       0.11591817 -0.38240474 0.06923716 -0.32594475
0000f0 76 13 c0 bd 2e fe 06 3e 19 8e 92 be c3 1a d6 3d
       -0.09378712 0.131829 -0.28624037 0.10454323

conv2.bias f4 [64]
000000 0f 71 56 3d 94 9c 42 bd 8d 8b 40 bc 62 00 82 bc
       0.052353915 -0.047512606 -0.0117520215 -0.015869323
000010 94 fa 82 3b f0 42 16 3c a6 75 80 3c 83 c7 58 bc
       0.0039971564 0.009171233 0.0156811 -0.013231161
000020 7b de 61 3d b5 b2 38 3c 3c 57 85 bc 5a 8a 11 bc
       0.055143815 0.011273076 -0.016276948 -0.008883083
000030 33 b8 79 bb 4a 59 35 bd 8d 4f 94 3d 26 2e 3b 3c
       -0.0038104176 -0.044274606 0.072417356 0.011424577
000040 64 f4 9e 3c ff ff 22 bc bb 6c fb bb 79 94 ff 3d
       0.019403644 -0.00994873 -0.007672874 0.12479491
000050 62 42 07 bd d8 d7 d1 bc 1d 71 8f 3d eb c2 52 bd
       -0.033022292 -0.025615618 0.070039965 -0.05145542
000060 b5 88 83 3d 58 2d 6d 3c ab cc 80 3c 2a dd 86 3d
       0.06422559 0.014476143 0.015722593 0.065851524
000070 85 e5 c8 bc ec 9c 80 bb b0 35 aa 3d 7f 5e 6f 3c
       -0.024523506 -0.0039249565 0.08311021 0.014609932
000080 37 0b 10 bd bc 29 48 bc b3 b7 a8 3b 06 80 a5 3d
       -0.035166945 -0.0122169815 0.005148852 0.08081059
000090 8d cd 11 bc 3f 76 c0 bb 0d 29 98 bd 40 da 1b 3c
       -0.008899105 -0.005873471 -0.07429705 0.009512484
0000a0 ed e8 1c 3c 25 85 88 bd 95 cf cc 3a 31 43 e0 3c
       0.009577018 -0.0666602 0.0015625829 0.02737579
0000b0 ae 1e 00 3e 53 19 21 bc 24 ac 45 3d a2 5e a5 3d
       0.12511703 -0.009832698 0.04825987 0.080746904
0000c0 46 7c bc bc cc bf 10 3d 76 1b 71 3c fb 33 29 3d
       -0.023008477 0.03533916 0.01471602 0.041309338
0000d0 1a 27 1c bd db 50 24 3c 06 32 85 3d e9 ab de 3c
       -0.038123228 0.010029043 0.06503682 0.027181583
0000e0 ae 72 cf 3c 28 12 fe bc 4d 89 d1 bb af 85 3e 3c
       0.025323238 -0.031014517 -0.0063945414 0.011628552
0000f0 45 94 5b 3b 82 ea df bc a6 fc 09 3d 6e 83 4e bc
       0.0033505124 -0.027333502 0.03368821 -0.0126045775
