models/best_model.pt (torch, 311778 bytes, 16 tensors)

conv1.att f4 [1, 8, 64]
0	0xbd673131	-0.056443397
1	0x3a9b88a8	0.0011866288
2	0xbe666499	-0.22499312
3	0xbdff3b7a	-0.12462516
4	0x3e26737c	0.16254991
5	0xbe0625f8	-0.13100421
6	0x3df02f42	0.11727764
7	0xb70daf14	-8.4450185e-06
8	0x3e1b4562	0.15163186
9	0xbddbd852	-0.10734619
10	0x3e2acf28	0.16680586
11	0xbd493412	-0.049121924
12	0xbe44a863	-0.1920486
13	0x3db67a02	0.0890999
14	0xbe11bbf4	-0.14231855
15	0x3ddedef7	0.10882371
16	0xbe32272b	-0.17397754
17	0x3b867a76	0.004103954
18	0xbc9cedc3	-0.019156342
19	0xbd1f3d48	-0.0388768
20	0xbe5bd9b9	-0.21469773
21	0xbe09b74f	-0.13448833
22	0x3e6df004	0.2323609
23	0x3e057180	0.13031578
24	0xbdae742e	-0.08518253
25	0x3d923212	0.071384564
26	0x3dda04f1	0.10645474
27	0x3dcdeec8	0.100553095
28	0x3e71cd27	0.23613416
29	0xbe4964a9	-0.19667305
30	0xbde1ad50	-0.11019385
31	0x3e89c1fa	0.26905805
32	0xbbc82f3f	-0.006109148
33	0xbe47c25c	-0.19507736
34	0xbdd9bccd	-0.10631714
35	0xbe3849ae	-0.17996857
36	0xbe9a7e22	-0.30174357
37	0xbe6a74ab	-0.22896068
38	0x3e8075f1	0.25089982
39	0xb639788d	-2.7637318e-06
40	0x3e1efc2e	0.15525886
41	0xbe99ef24	-0.30065262
42	0x3da82755	0.08210627
43	0x3d919607	0.071086936
44	0xbe6f3396	-0.23359522
45	0xbde943e5	-0.11389903
46	0x3dd3dbf4	0.10344687
47	0xbe3b5cb2	-0.18297079
48	0x3e14f26f	0.14545606
49	0x3e42b130	0.19012904
50	0xbe988a38	-0.29792953
51	0xbe14a069	-0.14514317
52	0x3e253cbc	0.1613645
53	0xbd966a6d	-0.07344518
54	0xbe4db86b	-0.20089881
55	0x3dda98b8	0.1067366
56	0xbe51bc49	-0.20481981
57	0x3d6f8b59	0.0584825
58	0xbe061cda	-0.13096943
59	0x3d95e8c9	0.07319791
60	0xbde898d8	-0.11357278
61	0xbde85959	-0.11345167
62	0xbe2d4b86	-0.16923341
63	0x3deeae0f	0.11654293
64	0xbe98ba0e	-0.29829448
65	0x3e524f28	0.20538008
66	0x3dbad985	0.0912352
67	0xbe1f8eb7	-0.15581785
68	0x3e04534a	0.12922397
69	0x3e52f0e9	0.20599712
70	0xbddc7211	-0.10763944
71	0x3d5acd40	0.053418398
72	0x3de08fc3	0.1096492
73	0xbdb53fa6	-0.088500306
74	0x3e1bad17	0.15202747
75	0xbdbf5298	-0.093419254
76	0xbcf97388	-0.030450597
77	0x3d15b1af	0.036546405
78	0x3e252ae1	0.16129638
79	0x3e7a857a	0.2446498
80	0xbe8042b1	-0.25050882
81	0xbde82f19	-0.11337108
82	0xbe27e656	-0.1639646
83	0xbe0d2abe	-0.13785836
84	0xbe022230	-0.12708354
85	0xbe37bf57	-0.17944084
86	0xbe0ab4ad	-0.13545485
87	0xbe474f45	-0.19463833
88	0xbe6eb846	-0.23312482
89	0x3e1d9a8c	0.15390986
90	0x3dfbcb30	0.12294614
91	0xbdbee50b	-0.0932103
92	0x3e6d3b1a	0.23167077
93	0x3d82b69f	0.063824885
94	0xbe83e4af	-0.2576041
95	0x3e38422d	0.17993994
96	0xbc52ea5e	-0.01287326
97	0x3e551811	0.20809962
98	0x3b8a6485	0.0042234086
99	0xbe1fad37	-0.1559342
100	0x3e6efd42	0.23338798
101	0xbe9d0b6e	-0.30672783
102	0x3e0c01af	0.13672517
103	0xbe50ea04	-0.2040177
104	0xbd9207fb	-0.071304284
105	0xbd898d80	-0.06716442
106	0xbe9c65ee	-0.30546516
107	0xbe488227	-0.19580899
108	0xbe0eeba5	-0.13957079
109	0xbc180c17	-0.009280226
110	0x3cbffeac	0.023436867
111	0xbe1d6592	-0.15370777
112	0x3e422474	0.18959218
113	0x3c0de310	0.008660093
114	0x3cfae070	0.030624598
115	0x3d09c69b	0.03363667
116	0xbe17e8c6	-0.1483489
117	0x3d056ec8	0.032576352
118	0xbe68411e	-0.2268109
119	0x3e6a7479	0.22895993
120	0xbda85862	-0.08219983
121	0xbe6cefef	-0.23138402
122	0x3d000001	0.031250004
123	0xbe37550b	-0.17903535
124	0xbe4bc569	-0.19899525
125	0xbe1eed0c	-0.15520114
126	0xbd9deb65	-0.077109136
127	0x3e079c77	0.1324328
128	0xbe83f021	-0.2576914
129	0xbc53cf96	-0.01292791
130	0xbdc4d6db	-0.09611293
131	0xbe1f7dc5	-0.15575321
132	0x3db71508	0.08939558
133	0x3e6db966	0.23215255
134	0x3d850634	0.06495324
135	0xbe1024a5	-0.14076479
136	0x3df76d3d	0.120813824
137	0xbe22d4db	-0.1590151
138	0xbd447ab0	-0.047968566
139	0x3e0799ce	0.13242266
140	0xbdc00673	-0.0937623
141	0x3e9d92ab	0.3077596
142	0x3e82ebc9	0.25570515
143	0x3d55075b	0.052008968
144	0xbd6c5fbb	-0.057708483
145	0xbdcb26b5	-0.09919492
146	0x3e17a714	0.14809829
147	0x3d973f71	0.07385147
148	0xbe5a75dd	-0.21334024
149	0xbe8d7110	-0.27625322
150	0xbce5c05e	-0.02804583
151	0x3d2d97b1	0.042380992
152	0x3e55c45f	0.20875691
153	0x3e70952b	0.23494403
154	0x3df88b98	0.121360004
155	0x3e3b1f92	0.18273762
156	0x3e3adf0e	0.18249151
157	0xbe731ca5	-0.23741396
158	0x3e79d44b	0.2439739
159	0xbddea768	-0.10871774
160	0xbe1c7230	-0.15277934
161	0x3d8b0099	0.06787223
162	0xbe66468d	-0.2248785
163	0xbc14d6b0	-0.009084389
164	0xbca39534	-0.019968607
165	0x3d6db25b	0.05803142
166	0xbe09dca7	-0.13463078
167	0x3e34f9b5	0.1767338
168	0x3e3ce105	0.18445213
169	0x3d68c3ea	0.056827463
170	0x3dd78150	0.10522711
171	0xbe09f93b	-0.1347398
172	0x3e1c9469	0.15290989
173	0xbe4b9111	-0.19879557
174	0xbe07c37d	-0.13258167
175	0xbdad0616	-0.084484264
176	0xbd029d34	-0.0318882
177	0x3e6c79fd	0.2309341
178	0x3c4c8cd4	0.012484748
179	0x3ea18ef0	0.31554365
180	0x3d1c9985	0.038232345
181	0xbdf64bd3	-0.12026181
182	0xbe007a58	-0.1254667
183	0x3aecc48a	0.0018063944
184	0xbe60ce3d	-0.21953674
185	0x3e101dd3	0.14073877
186	0x3e6970a5	0.22796877
187	0x3e488d39	0.19585122
188	0x3e53554e	0.2063801
189	0x3e9edc0d	0.3102726
190	0x3d89f1ed	0.06735597
191	0x3c49a0a6	0.012306368
192	0xbde84dcc	-0.113429636
193	0xbe327a85	-0.1742955
194	0xbe0c389a	-0.13693467
195	0xbd3bbec0	-0.04583621
196	0xbe237140	-0.1596117
197	0xbe26422e	-0.16236183
198	0x3c968da3	0.018378085
199	0xbde0477b	-0.10951134
200	0xbe320e20	-0.17388201
201	0xbe48888d	-0.1958334
202	0x3dd1f1fd	0.10251234
203	0x3be4b250	0.0069792643
204	0xbe68fa06	-0.22751626
205	0xbe5fc0c5	-0.2185088
206	0x3d9cacff	0.07650184
207	0x3e564d2a	0.20927873
208	0x3dfe4473	0.124153994
209	0x3dd1f036	0.10250895
210	0xbd283ebe	-0.04107546
211	0x3d9848f7	0.07435792
212	0x3dd3f6e8	0.10349828
213	0xbe353ac2	-0.17698196
214	0x3dbb173d	0.09135292
215	0xbddb8d83	-0.107203506
216	0x3de619a0	0.11235356
217	0xbe744121	-0.2385297
218	0xbe394ffd	-0.1809692
219	0xbdee17b9	-0.116256185
220	0xbd8d3039	-0.06893963
221	0x3e10a0ff	0.14123915
222	0xbe2654c2	-0.1624327
223	0x3d029915	0.03188427
224	0xbd87872b	-0.06617578
225	0x3cea7856	0.028621834
226	0xbe248f6a	-0.16070333
227	0xbe484bbc	-0.1956014
228	0xbe81f2ab	-0.25380453
229	0xbc20360a	-0.009778509
230	0xbe960f8f	-0.29308745
231	0xbe80c315	-0.25148836
232	0x3e8cef03	0.275261
233	0x3e0a6c46	0.13517866
234	0xbdb5dbbc	-0.08879802
235	0xbde6b13e	-0.11264275
236	0x3e675827	0.22592221
237	0xbd12f6a8	-0.03587976
238	0xbe8776bb	-0.26457772
239	0x3e18a650	0.14907193
240	0x3e7ed658	0.24886453
241	0x3dabed8c	0.08394918
242	0x3dcd81fe	0.1003456
243	0xbe86b6a0	-0.26311207
244	0xbc72734f	-0.0147979995
245	0x3e18fbcb	0.14939801
246	0xbe9ac70a	-0.3022998
247	0xbe8d7027	-0.27624628
248	0xbbf1814c	-0.0073701497
249	0x3d4dcbf6	0.05024334
250	0x3cda67e1	0.026660861
251	0xbdba1c09	-0.090873785
252	0x3e82de63	0.25560293
253	0x3e045f89	0.12927069
254	0xbe74377b	-0.23849289
255	0xbe430d7e	-0.19048116

conv1.bias f4 [512]
0	0x3b62ea2a	0.0034624436
1	0xbcaf0d2d	-0.021368587
2	0x3c837208	0.016045585
3	0xbd674c29	-0.056469116
4	0xbc17af53	-0.009258109
5	0xbc99a38b	-0.018754741
6	0xbd148e9c	-0.036268815
7	0xbcd6d840	-0.026226163
8	0x3c0b9798	0.0085200295
9	0x3c070247	0.008240289
10	0x3d5b100f	0.05348211
11	0xbd26bdb3	-0.040708255
12	0x3c2e1335	0.0106246965
13	0xbbfa5837	-0.0076399106
14	0x3a5e3809	0.0008476978
15	0xbcb8ca67	-0.02255745
16	0xbd657efb	-0.0560293
17	0x3d088ebd	0.03333925
18	0xbcf8d729	-0.030376034
19	0x3c800cf1	0.015631171
20	0xbcecd2d6	-0.028909128
21	0x3bbe483d	0.0058069513
22	0x3c9df294	0.01928071
23	0xbc1812e9	-0.009281852
24	0xbd0e1a6e	-0.034693174
25	0xbcc69d7f	-0.024245022
26	0xb9b093da	-0.00033679494
27	0xbc926a74	-0.017873026
28	0x3c4f25f0	0.012643322
29	0xbcc0c020	-0.023529112
30	0xbc8876e2	-0.01665825
31	0xbc1e833d	-0.009674844
32	0xbca1c640	-0.019747853
33	0xbce9f093	-0.028557098
34	0x3ca286e0	0.019839704
35	0xbcb414e5	-0.02198262
36	0xbc846f86	-0.01616646
37	0xbbf4b1d7	-0.007467489
38	0xbd392239	-0.045198653
39	0xbcf871c3	-0.030327683
40	0xbd1e1348	-0.038592607
41	0xbd1a18b8	-0.03762123
42	0xbd54cd9d	-0.0519539
43	0xbd250ac8	-0.040293485
44	0x3c9c823f	0.019105075
45	0xbb36f5e7	-0.0027917565
46	0x3cc3d0dc	0.023903303
47	0xbd1f4dec	-0.03889267
48	0xbc897831	-0.016780945
49	0x3d1b48a3	0.03791107
50	0xbd3b3794	-0.0457073
51	0xbca86392	-0.020555291
52	0x3c495caa	0.012290159
53	0xbd1da772	-0.038489766
54	0xbb0d5d82	-0.0021570628
55	0x3c2e1f91	0.010627643
56	0xbd4c8ae8	-0.04993716
57	0x3c39882b	0.011323969
58	0xbca3af8d	-0.01998117
59	0xbca2b811	-0.01986316
60	0xbaa4fa8a	-0.0012586873
61	0xbcf71fc1	-0.030166509
62	0xbd2bbc55	-0.041927654
63	0xbc622985	-0.013803844
64	0xbccd0c23	-0.025030201
65	0x3d6cf55e	0.057851188
66	0xbd3f52cf	-0.04670983
67	0xbc75afa5	-0.01499549
68	0x3d0c57e0	0.03426349
69	0xbcee997d	-0.029125923
70	0xbcccb350	-0.024987847
71	0x3cba72f0	0.022759885
72	0x3c0559ef	0.008139118
73	0xbc2afd2b	-0.0104363365
74	0x3c5264b0	0.012841389
75	0xbceb2bd9	-0.028707432
76	0xbc9e83ce	-0.019349959
77	0xbd0d5197	-0.03450164
78	0xbcc264eb	-0.023729762
79	0x3cdf72a5	0.027276346
80	0xbbfe3cc0	-0.007758707
81	0xbd121c14	-0.03567131
82	0xbccaf0bf	-0.024773
83	0xbac23fb1	-0.0014820007
84	0x3b033afd	0.0020024173
85	0xbc777711	-0.015104071
86	0x3d0f1d13	0.034939837
87	0xbd01a32b	-0.03164975
88	0xbd0ba9d1	-0.034097496
89	0x3d24dd8a	0.04025034
90	0xbcb8bc58	-0.022550747
91	0xbbf24c7e	-0.0073943725
92	0xbc9e1658	-0.019297764
93	0xbd10a78a	-0.035316028
94	0xbcd990d5	-0.02655832
95	0xbb544343	-0.0032388724
96	0xbc97343a	-0.01845752
97	0x3c671ef1	0.014106498
98	0xbbe25663	-0.0069072708
99	0xbce0f2ae	-0.027459469
100	0xbcd6081c	-0.026126914
101	0xbc19cec6	-0.009387678
102	0xbc66d595	-0.014089008
103	0xbcb2c3aa	-0.021821816
104	0xbc12a20b	-0.008949767
105	0xba88d7ff	-0.0010440348
106	0xbce9d946	-0.028545987
107	0xbcf9f192	-0.030510698
108	0xbcb233d5	-0.021753231
109	0x3c8cf921	0.017208638
110	0xbcff9854	-0.031200565
111	0x3c539501	0.012913943
112	0xbd2aaf39	-0.04167101
113	0xbc4f68fb	-0.012659307
114	0xbd501d2d	-0.050809074
115	0xbc234c12	-0.009966867
116	0x3cc2d782	0.023784403
117	0x3cb182bb	0.021668782
118	0xbd6bc861	-0.057564143
119	0xbcd07a63	-0.025448984
120	0xbd2bc823	-0.041938912
121	0x3d73c653	0.05951531
122	0x3c23e758	0.010003887
123	0xbc55769b	-0.013028766
124	0x3ce2bd80	0.027678251
125	0xbd11c184	-0.03558494
126	0x3c689714	0.014196176
127	0x3a90da6d	0.0011051424
128	0xbc2ec357	-0.01066669
129	0xbc61b431	-0.013775871
130	0xbd0d8a0a	-0.034555472
131	0xbc794d80	-0.015216231
132	0xbce89810	-0.028392822
133	0xbcf06fa0	-0.029350102
134	0xbc2e332a	-0.010632316
135	0xbca61c1c	-0.020277075
136	0x3d1e0cc4	0.038586393
137	0x3c1eee0c	0.0097003095
138	0xbcacca53	-0.02109257
139	0x3ceadbfa	0.028669346
140	0x3c5451cc	0.012958955
141	0x3ce58bb3	0.028020715
142	0xbcb376d9	-0.021907257
143	0xbcd865bc	-0.026415698
144	0xbc98cd81	-0.01865268
145	0xbcf1c386	-0.029512178
146	0xbc854bd0	-0.016271502
147	0x3cda9bb2	0.02668557
148	0x3cdb094e	0.026737835
149	0xbcd272b4	-0.02568946
150	0xbca788cc	-0.020450972
151	0xbcad59fb	-0.02116107
152	0xbd46a63f	-0.04849839
153	0x3bdc76d8	0.0067280345
154	0x3d45769e	0.048208825
155	0xbca5b52e	-0.020227995
156	0xbc4ab758	-0.012372814
157	0xbc6b1611	-0.014348523
158	0x3bab8a69	0.0052350056
159	0x3cd55008	0.026039138
160	0x3c7a6f71	0.015285359
161	0xbc9c313c	-0.019066446
162	0x3b60b23a	0.0034285919
163	0xbd6384b5	-0.05554648
164	0xbccf854c	-0.025332116
165	0x3be0f698	0.0068653338
166	0x3d2a7b28	0.041621357
167	0x3d18d5e7	0.03731337
168	0xbcd512ba	-0.026009906
169	0x3cb63ce7	0.022245837
170	0xbd2cebf6	-0.042217217
171	0xbaebef59	-0.0018000408
172	0x3c1e5045	0.009662692
173	0xbc890ac2	-0.016728763
174	0xbd193816	-0.037407003
175	0xbb8700d1	-0.0041199704
176	0xbc129cd2	-0.008948522
177	0xbd57e92e	-0.05271261
178	0xbcd1bbf2	-0.025602315
179	0xbd0ca3f7	-0.034336057
180	0xba1e2d3f	-0.0006033964
181	0xbcc5f507	-0.02416469
182	0xbb55efa0	-0.0032644048
183	0x3a72ba85	0.0009259361
184	0xbb1ebed2	-0.0024222624
185	0xbd00c86b	-0.031441133
186	0xbd308ff1	-0.043106023
187	0xbcfe4168	-0.031037048
188	0xbc103a6c	-0.008802991
189	0x3d1844e6	0.03717508
190	0xbc884377	-0.016633732
191	0xbc3efb11	-0.011656539
192	0xbcfcb54f	-0.030848173
193	0xbc3b7c15	-0.011443158
194	0x3a8fb499	0.0010963856
195	0xbc85fa71	-0.016354771
196	0x3c9f2ac6	0.019429576
197	0xbcef571c	-0.029216342
198	0xbca3c5e2	-0.019991819
199	0xbd1d59c3	-0.03841568
200	0x3cca7e64	0.02471847
201	0xbca39e57	-0.019972963
202	0x3c227c2c	0.0099173
203	0x3bea63a3	0.007152991
204	0x3c6deb82	0.0145214815
205	0xbcf56495	-0.029955188
206	0xbb030d3b	-0.00199969
207	0xbcffa61c	-0.031207137
208	0x3b7e54ac	0.0038807793
209	0x3c9ba178	0.018997893
210	0xbcd79f86	-0.026321184
211	0xbc30e107	-0.010795838
212	0x3c8da5ff	0.017291067
213	0x3af85576	0.0018946368
214	0x3aa95510	0.0012919027
215	0xbc832da9	-0.016012983
216	0xbd43078f	-0.04761463
217	0x3c7425da	0.014901603
218	0xbcd2bd50	-0.025725037
219	0x3cb6bedb	0.022307804
220	0xbc1ad333	-0.009449768
221	0xbc8c4439	-0.017122375
222	0xbcabc38f	-0.020967273
223	0xbcdec964	-0.02719564
224	0xbd55651d	-0.052098382
225	0xbce33219	-0.02773385
226	0xbc016d61	-0.007899613
227	0xbc8b2211	-0.016984018
228	0xbc8acb17	-0.016942544
229	0xbd43463a	-0.047674395
230	0xbc4e194f	-0.012579276
231	0xbca880e3	-0.02056927
232	0x3cb44407	0.022005094
233	0x3cadb385	0.021203766
234	0xbcb9e6d9	-0.022693085
235	0xbd07993c	-0.03310512
236	0x3d48cb18	0.04902181
237	0xbcea2fa2	-0.028587166
238	0xbd3c4a72	-0.045969434
239	0x3c068bd1	0.008212046
240	0x3d0d4029	0.034485016
241	0x3c1f848e	0.009736193
242	0xbbf40344	-0.0074466784
243	0x3cb35542	0.02189124
244	0xbca02da9	-0.019553022
245	0xbc6222eb	-0.01380227
246	0xbc53f308	-0.012936361
247	0xbd1f9cba	-0.038967825
248	0xbd1bbe43	-0.038023245
249	0xbb968a44	-0.0045941193
250	0xbb9bd378	-0.0047554336
251	0xbca01e5e	-0.01954573
252	0xbc0ea922	-0.008707317
253	0x3c43edcb	0.01195855
254	0x3c8071fb	0.01567935
255	0x3d8efe18	0.06982058

conv1.lin_l.weight f4 [512, 8]
0	0x3c9e5d0e	0.019331481
1	0xbd418e0e	-0.047254615
2	0xbcaeb6db	-0.021327427
3	0x3c6efd23	0.01458672
4	0x3ce0a803	0.027423864
5	0x3cd75fb8	0.02629076
6	0x3c0fd501	0.008778811
7	0xbd825e74	-0.06365672
8	0x3c28d19f	0.010303884
9	0xbd338910	-0.043831885
10	0x3c231a2c	0.00995497
11	0x3d48181a	0.04885111
12	0x3bb15ac4	0.0054124314
13	0xbd91578e	-0.07096778
14	0xbcde2fe4	-0.027122445
15	0x3d70585d	0.05867802
16	0xbc5b2ff9	-0.013378137
17	0x3c579d3a	0.013160044
18	0x3a2f3367	0.000668338
19	0x3d38a32a	0.04507748
20	0x39034449	0.00012518572
21	0xbdbf8184	-0.09350875
22	0x3b7bb7f0	0.0038409196
23	0xbd885ed5	-0.06658713
24	0xbc168f55	-0.009189446
25	0x3cf6d7ce	0.0301322
26	0x3c0fc2ea	0.0087744985
27	0xbd6f408e	-0.058411174
28	0x3b143f5c	0.0022620773
29	0xbd72d3c2	-0.05928398
30	0xbb9fde1f	-0.004878774
31	0x3d6092d9	0.054827545
32	0x3cbfe183	0.023422962
33	0xbcb06dd8	-0.021536753
34	0x3b8e0ee4	0.004335271
35	0xbe01fa4b	-0.12693135
36	0x3bd57946	0.006514701
37	0x3d31af08	0.043379813
38	0x3bafd45d	0.005365892
39	0xbc9897dd	-0.018627102
40	0xbbeb1c4b	-0.0071750036
41	0xba0b2e84	-0.00053093606
42	0x3bd1c783	0.0064019575
43	0x3c26e83a	0.010187203
44	0x3b9f4f19	0.004861724
45	0xbd12caee	-0.03583806
46	0x3d1cf6dc	0.03832136
47	0xbd630ee2	-0.055434115
48	0xba91dc3e	-0.0011128259
49	0xbc66f309	-0.01409603
50	0x3cce3302	0.025170807
51	0xbd944611	-0.072399266
52	0xbcfd909c	-0.030952744
53	0xbdc2bec1	-0.0950904
54	0x3caf1999	0.02137451
55	0x3d1e495b	0.038644176
56	0xbb329195	-0.0027247418
57	0x3be21f39	0.0069006947
58	0xbab9bf47	-0.0014171385
59	0xbdacdf8d	-0.084410764
60	0xbb1b96c8	-0.0023740996
61	0x3d55ec0e	0.052227072
62	0x3be34ae2	0.006936417
63	0xbdeadfeb	-0.1146849
64	0xbcd9d170	-0.026589125
65	0xbd0b2f23	-0.0339805
66	0xbca35c14	-0.019941367
67	0xbd124fe9	-0.03572074
68	0x3c4691cc	0.012119722
69	0x3d357d0c	0.044308707
70	0x3cdbc0ae	0.026825275
71	0x3b9e62fe	0.004833578
72	0x3c3a6312	0.011376159
73	0xbd7d6375	-0.061862428
74	0x3d7eba67	0.062189486
75	0x3d54720a	0.05186657
76	0xbae6d635	-0.0017611446
77	0xbc2ace22	-0.010425122
78	0x3c32a2fe	0.010903118
79	0x3d6d8050	0.057983696
80	0x3b7355c4	0.0037129978
81	0xbba6cd35	-0.0050903806
82	0xbca198dd	-0.019726211
83	0xbb90a498	-0.0044141524
84	0x3bc5ca8d	0.006036109
85	0xbd7754b7	-0.060383525
86	0x3c729d62	0.014808031
87	0x3d50cabb	0.05097459
88	0x3c262c5b	0.010142411
89	0x3cb57983	0.022152668
90	0xbc7004ae	-0.014649553
91	0xbbfd2c13	-0.0077262013
92	0xbb8c50fa	-0.004282114
93	0x3cb24902	0.021763328
94	0xbc6cb912	-0.014448421
95	0xbde9e96a	-0.11421473
96	0x3b22c0e9	0.0024834222
97	0xbd949536	-0.07255022
98	0xbb1cb24f	-0.002390999
99	0x3cb84ee1	0.02249855
100	0xbb414db2	-0.0029495773
101	0x3ccdc6ea	0.025119264
102	0x3b158d8b	0.0022819962
103	0x3d63024a	0.055422105
104	0x3d3f1618	0.04665193
105	0x3d04ee0b	0.032453578
106	0x3a42f529	0.00074370444
107	0xbdec6da7	-0.11544352
108	0x3cbcde9d	0.023055369
109	0xbdba75b3	-0.091044806
110	0xbc379d99	-0.011207008
111	0xbdb50bed	-0.08840165
112	0xbcf9bcac	-0.030485474
113	0x3b71e243	0.0036908544
114	0x3a0eeeac	0.0005452435
115	0xbd958cbd	-0.07302234
116	0x3c42fba3	0.011900815
117	0x3db401bf	0.087893955
118	0x3c67b8ea	0.014143208
119	0xbdf263de	-0.118354544
120	0x3d012987	0.031533744
121	0xba8ef1ac	-0.0010905764
122	0xbd09029b	-0.03344975
123	0xbdbbeb92	-0.09175791
124	0xbc99f697	-0.018794341
125	0xbc672116	-0.014107009
126	0xbbe21dcf	-0.006900526
127	0x3c392e3f	0.01130253
128	0x3c59cde3	0.013293716
129	0xbc530325	-0.012879168
130	0x3c87f128	0.016594484
131	0x3d7ab009	0.061203036
132	0xbb4e54a6	-0.003148356
133	0x3cd9e155	0.026596704
134	0x3c44a95e	0.012003271
135	0xbd2bf7a7	-0.041984227
136	0x3ab21c3f	0.001358874
137	0xbd0ca959	-0.03434119
138	0xbbc822b2	-0.0061076516
139	0xbcea1e81	-0.028578999
140	0x3b565014	0.003270154
141	0x3d52cc71	0.0514645
142	0x3c14f8b1	0.009092496
143	0x3d9a3372	0.07529344
144	0xbc300edc	-0.01074573
145	0x3d6ee96d	0.05832808
146	0x3b9d88ad	0.004807553
147	0xbdb14b69	-0.086569615
148	0xbb07dda0	-0.0020731464
149	0xbdcf401e	-0.10119651
150	0xbc15508a	-0.00911344
151	0x3cbb8cd3	0.022894299
152	0x3b914f2f	0.0044344882
153	0xbd5764f2	-0.052586503
154	0xbb890255	-0.004181186
155	0xbca7b8d7	-0.02047388
156	0xbc08d33a	-0.008351142
157	0x3cf4258e	0.029803064
158	0x3bcc82a5	0.00624116
159	0xbbe3b07b	-0.0069485283
160	0xbcc4e8dd	-0.02403682
161	0x3ca11fc6	0.019668471
162	0x3c845f44	0.016158707
163	0x3b80fbb1	0.003936254
164	0x3c70528d	0.014668119
165	0xbd0239ef	-0.03179353
166	0xbce695a2	-0.028147522
167	0xbe0b21f2	-0.13587168
168	0xbd99d585	-0.07511429
169	0x3d1ab21b	0.03776751
170	0xbc9c1151	-0.019051226
171	0x3da3a93d	0.07991264
172	0x3d4b2ba3	0.049602162
173	0xbd9aafbc	-0.0755305
174	0xbd03de50	-0.032194436
175	0x3cb89beb	0.022535285
176	0xbb04fe70	-0.0020293258
177	0xbd3ca694	-0.0460573
178	0x3d0b276e	0.03397315
179	0xbd30f6bc	-0.043204054
180	0x380e2778	3.3892196e-05
181	0xbd2cfff9	-0.042236302
182	0x3cf82ef6	0.03029583
183	0x3ad7e620	0.0016471781
184	0x3cea023a	0.028565515
185	0x3b53ee12	0.0032337946
186	0x3d2d76c5	0.042349596
187	0xbcc942fc	-0.024568073
188	0x39884bfd	0.00025996557
189	0x3d420f0c	0.04737763
190	0x3c1e8724	0.009675775
191	0x3cbc896c	0.023014747
192	0x3c02ce00	0.007983685
193	0x3ab84513	0.0014058672
194	0xbd899e23	-0.06719615
195	0xbd9d901a	-0.07693501
196	0x3c75eff7	0.015010825
197	0xbd49c3df	-0.049259063
198	0xbd0dcb84	-0.034617916
199	0xbddcd6f9	-0.1078319
200	0x3d108677	0.035284486
201	0xbcc42cae	-0.023947086
202	0xbb2635da	-0.0025361688
203	0xbcfe260b	-0.031024
204	0xbd25492a	-0.040352978
205	0xbd92a429	-0.07160217
206	0xbc96f042	-0.01842511
207	0x3cf91a1b	0.030407956
208	0x3d427c92	0.04748208
209	0x3cf32051	0.029678496
210	0x3cf2f6f6	0.029658776
211	0xbda3381a	-0.07969685
212	0xbb8af046	-0.0042400686
213	0xbd737986	-0.059442066
214	0xbc9085e8	-0.017641976
215	0xbdc3ab0c	-0.09554109
216	0x3c61a768	0.013772823
217	0x3c5409a2	0.01294175
218	0x3cdde10f	0.027084855
219	0x3a1203c1	0.00055700174
220	0xbbf0aece	-0.007345057
221	0xbc3d38e0	-0.011549205
222	0xbc040deb	-0.008059959
223	0xbcc01e9a	-0.023452092
224	0xbb18dcc6	-0.002332495
225	0xbca931b6	-0.020653587
226	0xbcd7604f	-0.02629104
227	0xbdf716a3	-0.120648645
228	0xb8e03540	-0.00010691071
229	0x3c9728ad	0.018452013
230	0xbc9ce509	-0.019152181
231	0x3ccefeaf	0.025267927
232	0xbcda9a62	-0.026684944
233	0x3d863ad0	0.06554186
234	0xbd8267c1	-0.06367446
235	0x3da7ca86	0.08192925
236	0xba5ef912	-0.00085057423
237	0xbd3e813e	-0.046509974
238	0xbda402d6	-0.080083534
239	0xbdb8c5c9	-0.090220995
240	0xbc47b777	-0.0121897375
241	0x3b9755ff	0.004618406
242	0x3d40d9e2	0.04708279
243	0x3d29cbb7	0.041454043
244	0x3c3369bc	0.010950502
245	0x3c1cde57	0.009574494
246	0xbbe3665c	-0.0069396924
247	0xbd343718	-0.043997854
248	0xbc268cb1	-0.010165379
249	0xbdc969c1	-0.09834624
250	0x3bfaa6cc	0.0076492783
251	0xbd7c046c	-0.061527655
252	0x3a0141a3	0.000493074
253	0x3d3f5c56	0.046718918
254	0x3bb410d7	0.0054951715
255	0x3aa29aef	0.0012405793

conv1.lin_l.bias f4 [512]
0	0xbe02c3df	-0.12770031
1	0xbe104534	-0.14088899
2	0xbe8d3ddd	-0.2758626
3	0x3e07a6b3	0.13247184
4	0x3d173bba	0.036922194
5	0x3e07ab13	0.13248853
6	0x3e3c6ac2	0.184001
7	0xbe172598	-0.14760435
8	0x3d0723df	0.032993194
9	0x3e8418be	0.25800127
10	0xbe3f64da	-0.18690816
11	0x3e7c4b2d	0.24638052
12	0x3e07136d	0.13191004
13	0xbdf23360	-0.11826205
14	0xbe93bb83	-0.28853998
15	0x3dfdc94c	0.1239191
16	0x3de1cd88	0.1102553
17	0xbe0a5801	-0.13510133
18	0x3e09a0da	0.13440266
19	0x3d87c59c	0.06629488
20	0x3e9f1d93	0.3107725
21	0x3e209ca0	0.15684748
22	0x3d87c815	0.066299595
23	0xbe9342d4	-0.28761923
24	0x3e595946	0.21225461
25	0x3e87835e	0.26467413
26	0xbdbfa012	-0.09356703
27	0xbd12fcd1	-0.035885636
28	0xbbeb787b	-0.0071859933
29	0xbd31edb3	-0.04343958
30	0x3e26b44b	0.16279714
31	0x3d70a24f	0.05874854
32	0xbea6b6eb	-0.3256143
33	0x3da5568f	0.0807315
34	0xbe38a782	-0.18032649
35	0x3d9defce	0.07711755
36	0x3de5a8c4	0.1121383
37	0xbe3c8c68	-0.18412936
38	0x3e3882c2	0.1801863
39	0xbca63dc6	-0.020293128
40	0xbe39610e	-0.1810343
41	0x3e832d22	0.2562037
42	0x3e04e0dc	0.12976402
43	0x3e50a26c	0.20374459
44	0xbe5c599e	-0.21518561
45	0xbe947b82	-0.2900048
46	0xbe4f6638	-0.20253837
47	0x3e30bf01	0.17260362
48	0x3e30f85b	0.1728224
49	0xbe1537b2	-0.14572027
50	0x3d73a924	0.059487477
51	0x3d25c4a6	0.04047074
52	0xbdfe0cbe	-0.12404774
53	0xbce77efa	-0.02825879
54	0xbe3c9fbc	-0.18420309
55	0xbdb1aaa2	-0.08675124
56	0x3d8c1528	0.06839973
57	0x3d5216b3	0.05129118
58	0xbe88d886	-0.26727694
59	0x3d477ba6	0.048701905
60	0xbd16763a	-0.036733843
61	0xbe6f2a3e	-0.23355958
62	0xbeb8c5d1	-0.36088422
63	0x3c9f0a88	0.019414201
64	0xbe6ee8de	-0.2333102
65	0xbe0dfab5	-0.13865168
66	0x3d9a1fa4	0.07525566
67	0xbc4b44f9	-0.012406581
68	0xbe1321f0	-0.14368415
69	0x3cbbe22c	0.022934996
70	0x3e150457	0.14552437
71	0xbddaacbf	-0.1067748
72	0xbdd31f9f	-0.103087656
73	0x3c23048d	0.009949815
74	0x3dab6eef	0.08370768
75	0x3da67aed	0.08128915
76	0x3e4d4f25	0.20049722
77	0xbd6b2643	-0.057409536
78	0x3dbc0259	0.09180135
79	0xbe1b58aa	-0.15170541
80	0xbd279d93	-0.04092176
81	0x3e58ef9d	0.21185155
82	0xbe9770ab	-0.29578146
83	0xbe6ab365	-0.22919996
84	0xbe96cfe1	-0.29455474
85	0x3e80a7e9	0.25128105
86	0xbbaad5c2	-0.00521347
87	0x3e92ca30	0.28669882
88	0xbe68e7b5	-0.22744639
89	0x3b7c33a8	0.0038482938
90	0x3e0b28cb	0.1358978
91	0xbe9f428f	-0.31105468
92	0xbebdec41	-0.3709431
93	0xbe8144a9	-0.25247696
94	0xbcc7fb83	-0.024411922
95	0xbe7ad368	-0.24494708
96	0x3d25bf62	0.04046572
97	0x3e88c219	0.26710585
98	0xbd815eda	-0.063169196
99	0xbdb15e54	-0.0866057
100	0xbea9c98f	-0.3316159
101	0xbdb31282	-0.087437645
102	0x3c672669	0.014108279
103	0x3d18f778	0.03734538
104	0xbe088fea	-0.13336149
105	0xbe64b8e7	-0.2233616
106	0xbe496982	-0.19669154
107	0x3e2b3dd4	0.16722804
108	0xbe557945	-0.20847042
109	0x3cf15c63	0.029462999
110	0xbdc0d86f	-0.094162814
111	0xbe250332	-0.161145
112	0xbd784b28	-0.06061855
113	0x3e5eb803	0.21749882
114	0x3e1d9a1f	0.15390824
115	0xbdaece81	-0.08535481
116	0xbd8ff162	-0.07028462
117	0xbe1eaa01	-0.15494539
118	0xbe438db9	-0.19097032
119	0xbdbd20e8	-0.09234792
120	0x3e110d2f	0.14165185
121	0x3da4c74b	0.080458246
122	0xbe99dcea	-0.30051357
123	0xbdd627b9	-0.10456795
124	0xbe746fe6	-0.23870811
125	0x3e661464	0.22468716
126	0x3c202dbe	0.009776531
127	0xbdc38e32	-0.09548606
128	0x3ddf5051	0.10903991
129	0xbea93be2	-0.330535
130	0xbe1add6d	-0.1512353
131	0x3b57cddb	0.0032929096
132	0x3e60b042	0.21942237
133	0x3e95becd	0.29247132
134	0xbcb3fac2	-0.021970157
135	0xbeb2be85	-0.3491098
136	0x3dd4ca1e	0.10390113
137	0xbe32fe64	-0.17479855
138	0x3e8f5c78	0.28000236
139	0xbd60aa81	-0.054850105
140	0xbd916dbf	-0.071010105
141	0xbc678194	-0.014130015
142	0x3eab13a6	0.33413428
143	0x3e2527e3	0.16128497
144	0xbe88b1cc	-0.26698148
145	0xb9d0fffa	-0.0003986357
146	0x3e0af5cf	0.13570331
147	0xbd020570	-0.031743467
148	0x3df797d1	0.120895036
149	0xbe90056e	-0.28129143
150	0xbe3e4de8	-0.18584406
151	0x3e6a611e	0.2288861
152	0x3ea65176	0.32484025
153	0x3e0b74e7	0.13618813
154	0xbdf7e206	-0.121036574
155	0x3e0f3ee0	0.13988829
156	0xbe61af52	-0.22039536
157	0xbe7b5db7	-0.24547468
158	0xbe863fb2	-0.2622047
159	0xbc168bb7	-0.009188584
160	0x3d290328	0.041262776
161	0x3cc53489	0.024072902
162	0x3e902216	0.28151006
163	0xbdacb1f2	-0.08432378
164	0x3e9042bf	0.28175923
165	0xbe848d66	-0.25889128
166	0xbe46d317	-0.19416462
167	0x3dac873d	0.08424232
168	0x3e2b88a1	0.16751339
169	0x3e059371	0.13044526
170	0x3e6ec138	0.23315895
171	0xbe2a94f9	-0.16658391
172	0x3eb1deb1	0.34740213
173	0x3da4de83	0.08050253
174	0x3dcf95c6	0.10135989
175	0xbcc45721	-0.023967328
176	0xbe6f9c9c	-0.23399585
177	0x3e44921e	0.19196364
178	0x3d3b9df9	0.04580495
179	0x3e892ac1	0.2679043
180	0x3e72eb58	0.23722589
181	0xbe9c4e38	-0.30528426
182	0x3e87df8d	0.26537743
183	0xbd5d8209	-0.05407909
184	0xbe626c7a	-0.22111693
185	0x3e696a26	0.22794399
186	0xbd59f69d	-0.053213704
187	0x3cd08594	0.02545432
188	0x3ce1308b	0.027488967
189	0xbe1ead31	-0.15495755
190	0x3e470f57	0.19439445
191	0x3dc050f1	0.09390438
192	0x3e79dd2b	0.24400775
193	0xbde1e88b	-0.11030682
194	0xbe7e586d	-0.2483842
195	0x3d2e899d	0.042611707
196	0xbdabf48d	-0.08396254
197	0xbcfd41de	-0.030915197
198	0xbe929528	-0.28629422
199	0x3e7adfd3	0.24499445
200	0xbe112f5c	-0.14178222
201	0xbd67ca67	-0.05658951
202	0x3bd9370f	0.006628878
203	0xbe1427dc	-0.1446833
204	0x3e439c59	0.1910261
205	0xbe8a9630	-0.2706771
206	0xbdd9f323	-0.10642078
207	0xbe4bc607	-0.1989976
208	0x3e50e150	0.2039845
209	0xbe6f78a1	-0.2338586
210	0x3e5f511f	0.21808289
211	0xbeab9382	-0.33510977
212	0xbeb3fc9a	-0.35153657
213	0xbc3a415d	-0.011368123
214	0xbea66deb	-0.32505736
215	0x3e914972	0.28376347
216	0x3e82d28b	0.25551257
217	0xbe0db95c	-0.1384024
218	0x3e57398f	0.2101805
219	0xbe14aa45	-0.14518078
220	0x3d93266e	0.07185064
221	0xbe826a95	-0.2547194
222	0xbd6a6d11	-0.05723292
223	0xbe0d29a1	-0.13785411
224	0x3c9ed6cf	0.019389538
225	0x3d3c18f1	0.045922223
226	0xbeaeb30c	-0.34120977
227	0x3b299f14	0.0025882171
228	0x3e6b0322	0.22950414
229	0x3e728d51	0.2368672
230	0x3e090523	0.13380866
231	0xbc8f22cf	-0.017472653
232	0x3e75e275	0.24012168
233	0x3e42ac48	0.19011033
234	0xbe6c5b10	-0.23081613
235	0xbd467818	-0.048454374
236	0xbe86c8ac	-0.26324975
237	0x3c26324c	0.010143828
238	0xbceb2bee	-0.02870747
239	0xbe551c10	-0.20811486
240	0x3dd1f0ef	0.102510326
241	0x3e4fb8ea	0.20285383
242	0xbe8a571b	-0.2701958
243	0xbe9212f5	-0.28530088
244	0xbdd37e5d	-0.10326836
245	0x3d58c706	0.05292418
246	0xbeb06c20	-0.34457493
247	0xbda19013	-0.07888808
248	0x3e6bf29b	0.23041765
249	0xbe4ab49d	-0.19795461
250	0xbdbbf4b9	-0.091775365
251	0xbdab8717	-0.08375376
252	0x3e25430a	0.16138855
253	0xbdfb3122	-0.12265231
254	0x3e68c9fa	0.22733298
255	0xbd8973e6	-0.06711559

conv1.lin_r.weight f4 [512, 8]
0	0xb78c1545	-1.6699205e-05
1	0x3a20f344	0.0006139765
2	0xb59bc61a	-1.1606055e-06
3	0xb93ba079	-0.0001789349
4	0x376b630d	1.4030154e-05
5	0x399a508b	0.00029433178
6	0x3849a7fc	4.8078582e-05
7	0x3aef6e81	0.0018267186
8	0x34a32e64	3.039487e-07
9	0xbc8d3517	-0.01723723
10	0xb3fd5238	-1.1796186e-07
11	0x38ba2cd2	8.8775196e-05
12	0xb3d930e1	-1.0113741e-07
13	0xba953ca0	-0.0011385866
14	0xb57e8ff6	-9.4831864e-07
15	0xb688f904	-4.082105e-06
16	0xb89f0431	-7.5824915e-05
17	0x3be7dc1b	0.007075799
18	0x37201154	9.540778e-06
19	0xbd23f8b6	-0.04003211
20	0x362e8b62	2.6009152e-06
21	0x3c1bf414	0.009518642
22	0x37dfe8c4	2.6692062e-05
23	0x3c84767d	0.01616978
24	0x37eabef5	2.7983895e-05
25	0x3d7b75e1	0.061391715
26	0x35350128	6.7429437e-07
27	0x3d6ebf09	0.058287654
28	0xb611d9e0	-2.1733504e-06
29	0x3d4b7dbc	0.049680457
30	0xb79a4d36	-1.8394185e-05
31	0xbd2d395c	-0.04229103
32	0xb817bcdd	-3.6177098e-05
33	0x3d4e7d04	0.050412193
34	0xbc1eba4b	-0.00968797
35	0x3d87d015	0.066314854
36	0xb54b1791	-7.5657687e-07
37	0x3cbb65ba	0.022875655
38	0x384fb388	4.9519847e-05
39	0x3d8881cd	0.066653825
40	0xb698732b	-4.5433603e-06
41	0xbba3ae92	-0.0049951756
42	0x3695843c	4.45594e-06
43	0x3d0a2fa7	0.03373685
44	0xb7e8bb2c	-2.7743714e-05
45	0xbbc2f628	-0.0059497543
46	0x378b2803	1.6588723e-05
47	0xbc0d0ab4	-0.008608509
48	0xb8a74882	-7.976686e-05
49	0x3c64a5f3	0.013955581
50	0x3780501d	1.5296095e-05
51	0x3c1d0b1f	0.009585171
52	0xb766c659	-1.375525e-05
53	0x3aac8be4	0.0013164249
54	0x3896d28f	7.191777e-05
55	0x3c07074c	0.008241486
56	0x32c30f26	2.2707876e-08
57	0x3cc025ac	0.023455463
58	0x3a2859e8	0.00064220885
59	0xbabe9588	-0.0014540413
60	0xb1025dd1	-1.8970818e-09
61	0xbcb9b2d3	-0.022668278
62	0x2f886738	2.4811597e-10
63	0xbc886cb7	-0.016653402
64	0xb8d50a8b	-0.00010158595
65	0x3c81ae49	0.015830176
66	0x3796add7	1.7962344e-05
67	0x3d9ebe6d	0.077511646
68	0xb79133b5	-1.7309425e-05
69	0x3c8c749c	0.017145447
70	0x37b4f6a8	2.157253e-05
71	0x3d563e21	0.052305344
72	0x37b922ea	2.2069977e-05
73	0xbd969b49	-0.07353837
74	0xbb65dd3b	-0.003507449
75	0x3c2829b6	0.010263851
76	0xb6ddc933	-6.609736e-06
77	0xbbaa4779	-0.0051965085
78	0xb70ab3bd	-8.26729e-06
79	0x3d0930a5	0.033493657
80	0xb5c59ddc	-1.4723587e-06
81	0x3d5e6994	0.054299906
82	0x35615044	8.3935834e-07
83	0x3d02fd91	0.0319801
84	0x370bdd01	8.336502e-06
85	0xbc30239f	-0.01075068
86	0x371597da	8.916448e-06
87	0xbd62a9fb	-0.055337887
88	0xb8167f9d	-3.5881636e-05
89	0xb9976f11	-0.00028883715
90	0xb5c46e24	-1.4635193e-06
91	0xba2b4381	-0.0006533191
92	0xb7156ab5	-8.905937e-06
93	0x385dbaec	5.286459e-05
94	0xb6a9cf61	-5.0607346e-06
95	0xb92f62e4	-0.0001672614
96	0x388880e5	6.508994e-05
97	0xbbcee9f8	-0.0063145123
98	0xb7ed60c2	-2.8297658e-05
99	0xbdd25678	-0.10270399
100	0x378fd992	1.7148242e-05
101	0x3c09e913	0.008417386
102	0x384325c7	4.6526806e-05
103	0x3c5e3eda	0.01356479
104	0xb69a1005	-4.5914226e-06
105	0x3d411afd	0.04714488
106	0x37e7f48d	2.7651224e-05
107	0x3d9b2727	0.07575827
108	0xb6ca9a9d	-6.0380685e-06
109	0xb7d3e81e	-2.5261248e-05
110	0x361ce5f0	2.3379653e-06
111	0x3d5e4878	0.05426833
112	0xb0939a00	-1.0739427e-09
113	0xbda9503f	-0.08267259
114	0x3c7059d5	0.014669855
115	0x3cc8107c	0.024421923
116	0x34a8de1c	3.1454044e-07
117	0xbd48a40d	-0.048984576
118	0xbacc9f0c	-0.0015611365
119	0x3c6a6dcc	0.014308404
120	0xb79b399d	-1.8504268e-05
121	0xbc674108	-0.014114626
122	0x3ab2d916	0.0013645019
123	0x3d48ca2f	0.049020942
124	0xb68d5fed	-4.2132947e-06
125	0x3d2fc51f	0.0429126
126	0x384e57c0	4.919595e-05
127	0x3d000537	0.031254973
128	0x37847bd6	1.5793292e-05
129	0xbdb56ee6	-0.08859043
130	0xb6536207	-3.149851e-06
131	0x3cbd1580	0.023081541
132	0xb766dd95	-1.3760659e-05
133	0x3c0f42b0	0.008743927
134	0xb7abf9c1	-2.050109e-05
135	0xbc50c948	-0.012743302
136	0x3521e698	6.031273e-07
137	0xbc1905e9	-0.009339788
138	0x34b6ca9d	3.4047562e-07
139	0xbc106756	-0.0088137
140	0xb425e2d5	-1.5449343e-07
141	0xb78c1431	-1.6698703e-05
142	0xb4922a02	-2.7225184e-07
143	0xbd0f1895	-0.034935553
144	0xb69baa1d	-4.6391638e-06
145	0x3d6ca337	0.05777284
146	0x3b022ad2	0.0019861949
147	0xbc13f54b	-0.00903065
148	0x35c83878	1.4917596e-06
149	0xbce48fb0	-0.027900547
150	0xb625ba3d	-2.469532e-06
151	0xbd1c3912	-0.038140364
152	0x3726f28b	9.9508425e-06
153	0xbcd82cf2	-0.02638862
154	0x3c861a54	0.016369976
155	0x3ccf2be5	0.025289485
156	0xb5562fe2	-7.979089e-07
157	0xbd18b69a	-0.037283517
158	0xb4e29f86	-4.221185e-07
159	0xbd4cff80	-0.05004835
160	0x36c3f60a	5.8400956e-06
161	0x3c2fc7de	0.010728804
162	0xb77952f2	-1.4860869e-05
163	0x3d8992fa	0.06717487
164	0x37ac9f91	2.0578302e-05
165	0x3b087244	0.002082006
166	0x38933a3e	7.020355e-05
167	0xbc9e8c88	-0.01935412
168	0x37c39a52	2.3317672e-05
169	0x3ba7c3ba	0.005119768
170	0xb59ed5b4	-1.1834113e-06
171	0x3c444c1a	0.011981035
172	0xb560be4e	-8.372343e-07
173	0xb9cceee3	-0.00039087897
174	0xb862f72d	-5.41128e-05
175	0xb9b9e685	-0.000354577
176	0xb92e0ce8	-0.00016598741
177	0x3cfaa053	0.030594027
178	0x3682b6a6	3.895565e-06
179	0x3cd476ae	0.025935497
180	0x365dc6c0	3.3047254e-06
181	0x3c80675c	0.015674286
182	0x37a69a51	1.9860601e-05
183	0x3b1c165e	0.0023817043
184	0x36184d92	2.2694917e-06
185	0xbd827d6a	-0.06371577
186	0x35d34832	1.5741737e-06
187	0xbc9d3ecf	-0.019194989
188	0x377ca7dc	1.5059453e-05
189	0x3d215de4	0.03939618
190	0xb655eff4	-3.1879144e-06
191	0xba22a66b	-0.0006204608
192	0x37bc0214	2.2412314e-05
193	0xbd9a66d5	-0.07539145
194	0xbb7554cf	-0.0037434583
195	0x3b6f6157	0.0036526525
196	0xb69ead21	-4.728922e-06
197	0x3d1df9b4	0.038568214
198	0xb83f30ba	-4.558333e-05
199	0x3baaa6a6	0.0052078543
200	0xb83dd95e	-4.526355e-05
201	0x3ade79b4	0.0016973526
202	0xba318ca1	-0.00067729695
203	0x3d1a66b0	0.037695587
204	0x35b9cd80	1.3843382e-06
205	0x3b4de197	0.003141498
206	0xb7c345ad	-2.3278257e-05
207	0xbd14514d	-0.036210347
208	0x3812c892	3.499591e-05
209	0xbc2494eb	-0.01004527
210	0xb65b2e78	-3.2660591e-06
211	0x3d5026d0	0.050818264
212	0x37e5c4e3	2.739061e-05
213	0x3c40d77d	0.011770126
214	0x37631da7	1.3537158e-05
215	0x3c365a82	0.011129977
216	0x38253671	3.9389768e-05
217	0xbd5c02f3	-0.05371375
218	0xb78ead1c	-1.700833e-05
219	0xbd7606af	-0.060064968
220	0x36174b79	2.2544684e-06
221	0x3c0d0009	0.008605965
222	0xb81ddfec	-3.764026e-05
223	0xbc391eda	-0.0112988595
224	0xb7fdaece	-3.024135e-05
225	0x3d85d42c	0.06534609
226	0xbc525552	-0.012837725
227	0x3d39a871	0.045326654
228	0x34efbf98	4.4656622e-07
229	0x3d1242ed	0.035708357
230	0x38a5d216	7.906945e-05
231	0x3db1591b	0.08659574
232	0xb82f7622	-4.183327e-05
233	0x3d3e267b	0.046423417
234	0x3cb73e4c	0.022368573
235	0x3c771060	0.015079588
236	0xb7683508	-1.3840625e-05
237	0xbd0d3b4d	-0.03448038
238	0x384edb83	4.9318664e-05
239	0xbd19a65b	-0.037512165
240	0xb5be16fc	-1.4162792e-06
241	0x3d34a3eb	0.044101637
242	0xbc182f5d	-0.009288636
243	0xbc51e175	-0.012810101
244	0xb6167034	-2.2417053e-06
245	0xbd0adc59	-0.033901546
246	0x36925a2a	4.3616355e-06
247	0x3ca9c5e0	0.020724237
248	0xb8e7dfd8	-0.000110566325
249	0x3cc30bdc	0.023809366
250	0x380309d3	3.1241983e-05
251	0x3c46e115	0.012138625
252	0xb83c59d6	-4.490636e-05
253	0x3d78cad0	0.060740292
254	0xb78c471d	-1.6722415e-05
255	0xbb413f14	-0.002948706

conv1.lin_r.bias f4 [512]
0	0x38870f82	6.44019e-05
1	0xbc22e24e	-0.009941651
2	0x3dda57c5	0.10661272
3	0xbca18d94	-0.01972083
4	0xbd312676	-0.04324957
5	0x3af62d38	0.0018781787
6	0x3ce3cc32	0.027807329
7	0xbd8950c0	-0.06704855
8	0x3cfbe850	0.030750424
9	0xbb227e69	-0.0024794585
10	0xbc53744f	-0.012906148
11	0x35962af6	1.1188374e-06
12	0xbc58b9f9	-0.013227933
13	0xbab2255e	-0.0013591459
14	0xbd1aaada	-0.037760593
15	0x3dfb5304	0.12271693
16	0xbdb833c6	-0.0899425
17	0xb77afd30	-1.4960111e-05
18	0xbe0a9992	-0.13535145
19	0x3d46a3ae	0.04849594
20	0x3c3087ee	0.010774596
21	0xb93acfbf	-0.00017815734
22	0x3d855b49	0.06511552
23	0xb93bb7c0	-0.00017902162
24	0xbdaeced0	-0.0853554
25	0x3d97a9d7	0.07405441
26	0xbbcd450c	-0.0062643345
27	0x3c6e96a2	0.014562281
28	0x3e8fe8dd	0.28107348
29	0xbe4b7bc6	-0.19871435
30	0x3e4be28f	0.19910644
31	0x3d7f233e	0.06228947
32	0xbd493ae4	-0.049128428
33	0xbe005b43	-0.12534814
34	0xbd6f9f4f	-0.058501538
35	0x3927605d	0.00015962259
36	0x3e146b8f	0.14494155
37	0xbd493c42	-0.049129732
38	0xbe41a9c2	-0.18912414
39	0xbc0068a0	-0.007837445
40	0xbdd9e93a	-0.106401876
41	0xbd09a90a	-0.033608474
42	0xbd55db80	-0.052211285
43	0xbdaf35b4	-0.08555165
44	0xbe5d293a	-0.21597758
45	0x3b03bddd	0.002010218
46	0xb98b5203	-0.0002657325
47	0x3bf3245b	0.0074201054
48	0x3d9d8b69	0.07692606
49	0x3c5500d5	0.013000687
50	0xbcbbd38e	-0.022928026
51	0x3b92655c	0.0044676494
52	0xbd1edb1c	-0.038783178
53	0x3a25522d	0.00063064956
54	0xbd422de2	-0.04740704
55	0xbde8c4a5	-0.11365632
56	0xbcd2f7f5	-0.025753
57	0xbd05a546	-0.03262832
58	0x3b65eddf	0.003508441
59	0xbd84e11c	-0.06488249
60	0x3c539787	0.012914545
61	0xbc6ed8e1	-0.014578075
62	0xbe1c0be9	-0.15238918
63	0xbd2354e4	-0.03987588
64	0xbe25d91d	-0.16196103
65	0xbde9e41c	-0.114204615
66	0xbe94fa8e	-0.29097408
67	0x3e297d23	0.16551642
68	0x3decaa4a	0.115559176
69	0x3e07a270	0.13245559
70	0xb839948a	-4.4245775e-05
71	0x3ca1c99d	0.019749457
72	0xbcdfd8a5	-0.027324984
73	0x3a802be6	0.0009778708
74	0xbbcbbc56	-0.0062175198
75	0x394f0768	0.00019743817
76	0x3d1cea2f	0.038309272
77	0xbe0f8512	-0.14015606
78	0x3c6de491	0.0145198265
79	0xbdf7cbaf	-0.120993964
80	0x3e1a67bc	0.15078634
81	0xb8a33b38	-7.783476e-05
82	0x3cc80dc7	0.024420632
83	0xbde496b1	-0.111615546
84	0x3d5a18a8	0.05324617
85	0xbb6f7217	-0.0036536509
86	0x3d1a757a	0.03770969
87	0xbc55e32a	-0.013054648
88	0xbda425aa	-0.08014996
89	0x39c637b9	0.0003780702
90	0xbdc9765f	-0.098370306
91	0xbb8e326a	-0.004339506
92	0xbe88f9ec	-0.26753175
93	0x3d818c56	0.06325595
94	0xbe58c7ee	-0.21170017
95	0x391d0616	0.00014974954
96	0xbb0d6484	-0.0021574805
97	0xbe104893	-0.14090185
98	0xb8a96f14	-8.079238e-05
99	0x3dfa1a16	0.12212007
100	0xbd187590	-0.03722149
101	0x3c71df8c	0.01476277
102	0x3c897c22	0.016782824
103	0xbd994679	-0.07484145
104	0x3ba5608e	0.0050469106
105	0x3d80a513	0.062814854
106	0xbd1aa9f0	-0.03775972
107	0xbe3db90d	-0.18527623
108	0x3d7d676c	0.06186621
109	0xb81e32f9	-3.7717607e-05
110	0xbe46d545	-0.19417293
111	0xbdbaf52c	-0.09128794
112	0x3c3c2127	0.0114825135
113	0x3b9a6187	0.004711333
114	0x36ad1602	5.158364e-06
115	0xbd151697	-0.036398496
116	0x3e773726	0.24142131
117	0xb9004e22	-0.00012236138
118	0x3de4431c	0.111456126
119	0xbe09830d	-0.13428898
120	0x3d2534eb	0.04033367
121	0xbd65b80f	-0.056083735
122	0xbc1b5f3a	-0.009483153
123	0x3e38f239	0.1806115
124	0xbd9c9464	-0.07645491
125	0x3c375917	0.011190674
126	0xbd6d9bf7	-0.058010068
127	0x3e829dcb	0.2551101
128	0xbc9d62c8	-0.019212142
129	0xbda0bf40	-0.07848978
130	0x3e2315f9	0.1592635
131	0x3e82b94f	0.25532004
132	0xbce886fd	-0.02838468
133	0x3e84bb19	0.25923994
134	0xbdaf5e41	-0.085628994
135	0xbe2101dc	-0.15723366
136	0xbe0d303b	-0.1378793
137	0xbe9b57f4	-0.3034054
138	0xb72a1690	-1.0138043e-05
139	0x3dec6fb3	0.115447424
140	0xbe50df27	-0.20397626
141	0xbe474b39	-0.19462289
142	0x3e7c80ba	0.2465848
143	0x3d391818	0.045188993
144	0xbe45abbe	-0.19303796
145	0xbbad2f0b	-0.005285149
146	0xbdc41ab6	-0.09575407
147	0x3d814cce	0.063134775
148	0xbe297f44	-0.16552454
149	0xbe088cac	-0.13334912
150	0xbdb40aab	-0.08791097
151	0xbde27e68	-0.11059266
152	0x3d0fbf93	0.03509481
153	0x3e4b8f4f	0.19878887
154	0x3b80d164	0.0039312113
155	0x3e80f787	0.25188848
156	0xbe05d2c2	-0.13068679
157	0xbdba1163	-0.090853475
158	0xbe76c39a	-0.24098054
159	0xbe96adaa	-0.2942937
160	0xbe5152d0	-0.20441747
161	0xbd063171	-0.032761995
162	0x3e98f6e4	0.29875863
163	0xbe90b2be	-0.2826137
164	0x3c60c08b	0.013717781
165	0x3e14dccc	0.14537352
166	0x3e12a7ac	0.14321774
167	0x3e5b294f	0.21402477
168	0x3e4f979b	0.20272677
169	0x3ea01fb0	0.31274176
170	0x3e1912fb	0.14948647
171	0xbdada3c8	-0.084785044
172	0x3e244234	0.1604088
173	0x3b14842b	0.0022661786
174	0xbe0d6223	-0.13806967
175	0x3e15a6b1	0.14614369
176	0x379f1f16	1.8968753e-05
177	0x3e93ea26	0.2888958
178	0xbe2d0f81	-0.16900446
179	0xba7a0b60	-0.0009538438
180	0x3e19dc82	0.15025523
181	0x3e585153	0.21124773
182	0xbea0e53f	-0.314249
183	0x3c786582	0.01516092
184	0xbc2979da	-0.010343993
185	0x3eb903e3	0.36135778
186	0x3d845831	0.06462134
187	0xbdf2a88b	-0.11848553
188	0xbdd9110d	-0.10598955
189	0x3ea1666a	0.31523448
190	0xbd8da75a	-0.069166854
191	0x3d02d41a	0.031940557
192	0x3d1ebb9b	0.038753133
193	0xbe1184ad	-0.14210768
194	0xba885c13	-0.0010403417
195	0xb8dd4605	-0.00010551143
196	0xbd43925b	-0.047746997
197	0x3d6d7132	0.05796928
198	0xb73a3fc1	-1.1101308e-05
199	0x3bece40f	0.007229335
200	0xba5d904c	-0.0008451983
201	0x3cdc5448	0.026895657
202	0x38d8b816	0.00010333971
203	0xb746cbc4	-1.1849163e-05
204	0xbd9f8cc8	-0.07790524
205	0x3d9f5535	0.07779924
206	0xb9ff6c04	-0.00048717868
207	0x3cbb5ae8	0.022870496
208	0xbd485e4f	-0.048918065
209	0x3bb7f0a4	0.0056134034
210	0xb8e32591	-0.00010831201
211	0xbd5abfcf	-0.05340558
212	0x3d5d3c72	0.054012723
213	0x37dcb475	2.6310076e-05
214	0xbcc6a185	-0.02424694
215	0xbb14445f	-0.002262376
216	0x3c986220	0.018601477
217	0xbcee978c	-0.029124998
218	0x3d686419	0.056736086
219	0x3b3c374e	0.0028719488
220	0x3e010105	0.12598045
221	0xbd4acf77	-0.04951426
222	0xb9575749	-0.00020536514
223	0xb8ff105d	-0.000121623954
224	0xbb16e66e	-0.002302553
225	0x36b11df4	5.278498e-06
226	0xbbad567d	-0.005289851
227	0x3d3835e5	0.044973273
228	0xb51ca2b0	-5.835127e-07
229	0xba9bae79	-0.0011877558
230	0x3d4d205f	0.0500797
231	0x3d05a1e1	0.032625083
232	0x3e06c1a8	0.13159811
233	0x3d6bc4fb	0.057560902
234	0xba9e5f6d	-0.0012082882
235	0x39f15d76	0.00046036736
236	0x3e48d443	0.19612221
237	0xb8e3c33d	-0.000108605695
238	0xbd17cb2a	-0.037058987
239	0x3cced810	0.025249511
240	0x3caab00f	0.020835904
241	0x3d2e3de9	0.04253951
242	0x360a6093	2.0619816e-06
243	0xbc2da175	-0.010597576
244	0x36a85c4f	5.0175363e-06
245	0x3ba769bb	0.0051090396
246	0xbd9d894b	-0.07692202
247	0x3dd7c3e0	0.10535407
248	0x361941d9	2.2837105e-06
249	0x3c1d38a1	0.009596021
250	0xb7fe1886	-3.029058e-05
251	0xbbc8d024	-0.006128328
252	0xbdf97c26	-0.121818826
253	0x3c2bf6d5	0.010495861
254	0x3e1bf386	0.15229616
255	0xbce870e5	-0.028374145

conv2.att f4 [1, 1, 64]
0	0x3e6561c0	0.2240057
1	0xbe26a44f	-0.16273616
2	0xbd149027	-0.036270287
3	0x3e89f558	0.26944995
4	0x3ce5d565	0.028055856
5	0xbe89458e	-0.2681088
6	0x3e9b6300	0.30348969
7	0xbe8d43fe	-0.27590936
8	0xbcaf1435	-0.02137194
9	0x3d5139f3	0.051080655
10	0xbd13f83b	-0.036125403
11	0xbd4eb53c	-0.050465807
12	0x3d946396	0.07245557
13	0xbea00c94	-0.31259596
14	0x3d8c7fe1	0.068603285
15	0x3e1f8e65	0.15581663
16	0xbe5bc683	-0.21462445
17	0xbe2d53f9	-0.16926564
18	0x3e491bb5	0.19639476
19	0x3dd3e3f5	0.10346214
20	0xbe6d163f	-0.23153017
21	0xbe714d0f	-0.23564552
22	0xbe8b9b01	-0.27266696
23	0xbe1d8b1e	-0.153851
24	0xbdebb075	-0.11508266
25	0xbe3dffac	-0.18554562
26	0xbddfe3a3	-0.1093209
27	0xbe75e535	-0.24013217
28	0x3e5aade0	0.2135539
29	0xbe7029cd	-0.23453446
30	0x3e1d3658	0.15352762
31	0xbe93a178	-0.28834128
32	0xbe82cbae	-0.2554602
33	0xbe87bee7	-0.26512834
34	0xbe5f74fe	-0.21821973
35	0xbd29d2d1	-0.041460816
36	0x3e3a6f20	0.18206453
37	0xbe377429	-0.17915405
38	0xbe57869a	-0.2104744
39	0x3d9bc09b	0.07605096
40	0xbe689355	-0.22712453
41	0x3dabd4c7	0.083901934
42	0x3e931010	0.28723192
43	0x3e21ed91	0.1581328
44	0xbd0c2255	-0.03421243
45	0x3e82962f	0.25505206
46	0xbe866f23	-0.26256666
47	0x3e531892	0.20614842
48	0x3de12f18	0.109953105
49	0xbce238fb	-0.027615061
50	0x3e48e41a	0.19618264
51	0xbe6fb97d	-0.23410602
52	0x3e2e62a0	0.1702981
53	0x3aad0b45	0.0013202211
54	0xbe4789e9	-0.19486202
55	0x3c4f2ce9	0.012644985
56	0x3e5a0565	0.2129112
57	0xbe639ee7	-0.22228585
58	0x3cbca39b	0.023027232
59	0xbe2526d4	-0.16128093
60	0xbe6d6dbb	-0.2318639
61	0x3e38c0db	0.18042319
62	0xbe765d2e	-0.24058983
63	0x3e53dfa3	0.2069078

conv2.bias f4 [64]
0	0x3a3a237c	0.00071006245
1	0xbbecb0a9	-0.007223208
2	0xbd051dc0	-0.032499075
3	0xbc96daa2	-0.0184148
4	0x3c19bdaa	0.009383598
5	0xbc5690df	-0.013096063
6	0x3c46f1b9	0.012142592
7	0x3bdcce89	0.006738488
8	0x3c02f615	0.007993241
9	0x3cb1d1f0	0.021706551
10	0xbcb9d762	-0.02268571
11	0xbd2b71b8	-0.041856498
12	0x3c20a384	0.00980461
13	0xbda252a2	-0.07925917
14	0x3c7c979b	0.015417005
15	0xbbe421b9	-0.006962028
16	0x3ba8454c	0.005135214
17	0x3d07e4be	0.03317713
18	0xbc66cd0e	-0.014086975
19	0x3d2a7e68	0.041624457
20	0xbd0c7b97	-0.034297552
21	0xbccd2c86	-0.025045644
22	0x3d135799	0.03597221
23	0xbd31b59f	-0.043386098
24	0x3dbdb1ea	0.0926245
25	0x3c5f99e2	0.013647528
26	0x3c2d6043	0.010582033
27	0x3c7868f8	0.015161745
28	0xbca5ab70	-0.02022335
29	0x3c12f00a	0.008968363
30	0x3d386657	0.045019474
31	0x3c8acf3d	0.016944522
32	0xbc99972c	-0.018748842
33	0x388d8b19	6.749313e-05
34	0xbb78ce27	-0.0037964673
35	0x3da3e50d	0.08002672
36	0xbc818926	-0.015812468
37	0xbc4dbc42	-0.012557091
38	0xbc819702	-0.015819076
39	0x3cf1b0b8	0.029503211
40	0x3b5ae52c	0.0033400757
41	0xbc2e0caa	-0.010623137
42	0x3c97ce44	0.018530972
43	0x3c784e3e	0.015155373
44	0x3d0fe897	0.035133924
45	0x3cea48e1	0.028599204
46	0x3c25c3da	0.010117495
47	0x3d241c63	0.040066134
48	0xbcb03c89	-0.02151324
49	0x3d17ad35	0.037030417
50	0x3cc3a741	0.023883464
51	0x3d875435	0.06607858
52	0x3be97de1	0.0071256016
53	0x3bd23b32	0.006415748
54	0x3d3f5d18	0.04671964
55	0x3d1b5a1d	0.037927736
56	0x3d37e35a	0.044894554
57	0x3bdbf003	0.0067119612
58	0xbc8c1b85	-0.017102966
59	0x3c6f26e8	0.014596678
60	0x3c4a6a39	0.012354427
61	0xbd96a324	-0.07355335
62	0x3d027dab	0.031858128
63	0xbca10748	-0.019656792
