models/best_model.pt (torch, 311778 bytes, 16 tensors)

conv1.att f4 [1, 8, 64]
0	0xbd974a9d	-0.07387278
1	0x3e05c797	0.13064419
2	0xbe4d7ad6	-0.2006639
3	0xbd4fb759	-0.050711963
4	0x3e3c6a84	0.18400007
5	0x3e6ef7f7	0.23336779
6	0xbe0bd2d5	-0.13654645
7	0x3e2e7a93	0.17038946
8	0x3e7b1578	0.24519908
9	0x3e5953b9	0.21223344
10	0xbe59e131	-0.2127731
11	0xbe6aedc8	-0.22942269
12	0x3dd5dd29	0.104425736
13	0xbdf28b63	-0.11842992
14	0x3d5bc32b	0.053652924
15	0x3db469ab	0.08809217
16	0x3e3c381c	0.18380779
17	0xbe6aa246	-0.22913465
18	0x3e6ef118	0.23334157
19	0xbe4b04e1	-0.1982608
20	0x3ce0214e	0.02735963
21	0x3e06eb97	0.13175808
22	0xbe593ccc	-0.21214598
23	0x3e156f25	0.1459318
24	0x3e3f2cb9	0.18669404
25	0xbcf9d1e3	-0.03049559
26	0x3df44615	0.119274296
27	0xbcb54bcb	-0.022130867
28	0x3e6368e2	0.22207978
29	0xbd9df513	-0.0771276
30	0xbe8c561b	-0.27409443
31	0x3d58617b	0.05282734
32	0xbe64e995	-0.2235473
33	0xbe877c71	-0.2646213
34	0xbd428a51	-0.04749519
35	0xbd555ede	-0.052092426
36	0x3dbd5de2	0.09246422
37	0xbe7384f6	-0.2378119
38	0xbdd60a3c	-0.10451171
39	0x3e62753c	0.22115034
40	0x3e2ed10f	0.17071937
41	0x3e56fc34	0.20994645
42	0xbe0fe007	-0.14050303
43	0xbe24917e	-0.16071126
44	0xbde73463	-0.11289289
45	0xbe111d91	-0.14171435
46	0xbe3b84b4	-0.18312341
47	0x3cebb504	0.028772838
48	0x3bc9f23c	0.00616291
49	0xbcf087e8	-0.02936168
50	0x3da897bf	0.08232068
51	0x3df77351	0.12082542
52	0xbde9f5fb	-0.1142387
53	0x3d72ea68	0.05930558
54	0xbe542989	-0.2071897
55	0xbe34d99c	-0.17661136
56	0x3d9d6306	0.07684903
57	0x3e49583b	0.19662564
58	0xbcb30b74	-0.021856047
59	0xbcc8610f	-0.024460344
60	0x3e36c954	0.17850238
61	0xbd9e13c4	-0.07718614
62	0x3e2c7292	0.1684058
63	0xbe7af683	-0.245081
64	0xbe8ae2bd	-0.27126113
65	0xbdea83b9	-0.11450905
66	0xbe403ee9	-0.18773998
67	0x3ccc9dfc	0.024977677
68	0x3e686a52	0.22696808
69	0x3e27c432	0.16383436
70	0xbdd21c8f	-0.10259353
71	0x3e71917a	0.23590651
72	0xbe5b0f57	-0.2139257
73	0x3c86f72a	0.016475279
74	0x3e85933e	0.260889
75	0x3d2a5d16	0.04159268
76	0xbe49a8ac	-0.1969325
77	0x3e2e97bd	0.17050071
78	0x3e156587	0.14589511
79	0xbca71c59	-0.02039926
80	0xbe7ccdda	-0.24687901
81	0x3e3fce3b	0.18731014
82	0xbe393546	-0.18086728
83	0xbe0658e1	-0.13119842
84	0x3e80c18b	0.25147662
85	0xbe302657	-0.17202125
86	0xbe29c84e	-0.16580316
87	0xbdfc870d	-0.123304464
88	0x3ca429d6	0.02003948
89	0xbe821ff7	-0.25415012
90	0xbe5b55bf	-0.21419428
91	0xbdbda257	-0.092594795
92	0xbd79a56a	-0.060948767
93	0x3e724fcc	0.23663253
94	0x3dabfeff	0.08398246
95	0x3dbf2158	0.09332532
96	0x3e630acc	0.22172087
97	0x3e64967c	0.2232303
98	0x3d3fd783	0.046836387
99	0xbe8ea49a	-0.27859956
100	0xbe2dd664	-0.16976315
101	0x3e60a84a	0.21939197
102	0x3d903a58	0.07042378
103	0xbd9a2e32	-0.07528342
104	0x3e3ff7e5	0.18746908
105	0xbe1ca099	-0.15295638
106	0x3da6d0fd	0.0814533
107	0x3e1c137e	0.1524181
108	0xbe4f4e8e	-0.2024481
109	0x3d8f3995	0.06993405
110	0xbe5601f5	-0.20899184
111	0xbe771e8a	-0.24132743
112	0x3e2c3e52	0.16820648
113	0xbdc8d4e0	-0.09806228
114	0x3e2a9442	0.16658118
115	0xbe5c85a6	-0.21535358
116	0x3e7a1f67	0.24426042
117	0x3e55b5fd	0.20870204
118	0x3e329b7c	0.17442125
119	0x3e202741	0.15639974
120	0xbdc3e851	-0.09565795
121	0x3e4842b8	0.19556701
122	0x3e5ef84c	0.21774405
123	0xbe8adf2b	-0.2712339
124	0xbd65c314	-0.056094244
125	0xbdb725e6	-0.089427754
126	0xbdf0b357	-0.11752956
127	0xbe26fe0a	-0.16307846
128	0x3c4928c7	0.0122777885
129	0xbe5f84f7	-0.21828066
130	0x3d9480a0	0.07251096
131	0x3ea60064	0.32422173
132	0xbda5beaa	-0.08093007
133	0x3e49a9e3	0.19693713
134	0x3e0eca69	0.13944401
135	0x3db66450	0.08905852
136	0x3e0102ba	0.12598696
137	0xbdee22ca	-0.11627729
138	0x3d2f4fe8	0.042800814
139	0x3e3b7d60	0.18309546
140	0xbd903a2f	-0.07042348
141	0xbe185c40	-0.1487894
142	0x3e1f5609	0.15560164
143	0x3b8598e7	0.0040770653
144	0xbdc0533a	-0.09390874
145	0x3e5757eb	0.21029632
146	0x3d468a9f	0.048472043
147	0xbd984933	-0.07435837
148	0x3e0eadbc	0.13933462
149	0xbc9fdf69	-0.01951571
150	0xbd4e71e9	-0.050401602
151	0x3e5def1e	0.21673247
152	0xbb895871	-0.0041914512
153	0x3cbb0331	0.02282867
154	0x3df12e10	0.11776364
155	0x3dff1366	0.12454872
156	0x3d41cf54	0.047316864
157	0xbe0aa215	-0.13538392
158	0xbd3c87dd	-0.046028007
159	0x3e48c59b	0.1960663
160	0x3ea65882	0.324894
161	0xbd375e08	-0.04476741
162	0xbe85aa63	-0.26106557
163	0x3dfc88af	0.12330758
164	0xbe40950e	-0.1880686
165	0x3d7b988c	0.061424777
166	0x3e603c70	0.21898055
167	0x3b91d63d	0.004450588
168	0x3e8857f6	0.2662961
169	0x3dd90b12	0.105978146
170	0x3e78467c	0.24245638
171	0xbd45678b	-0.04819445
172	0xbd838b56	-0.064230606
173	0x3e815947	0.25263426
174	0x3ce5723e	0.028008576
175	0x3db3f40c	0.087867826
176	0xbe5e246a	-0.21693578
177	0xbe0884a9	-0.13331856
178	0xbd36bb7c	-0.044612393
179	0xbe94f724	-0.29094803
180	0xbd32a4e8	-0.043614298
181	0x3d659dff	0.05605888
182	0xbc3292a4	-0.01089922
183	0xbe2da047	-0.16955672
184	0xbe8210a6	-0.25403327
185	0xbd5887e8	-0.052863985
186	0x3e62ea60	0.2215972
187	0xbe4108dc	-0.18851036
188	0x3e773bd0	0.2414391
189	0x3e35a1d9	0.17737521
190	0x3e83398b	0.2562984
191	0x3e68b9cd	0.22727127
192	0xbe942858	-0.2893703
193	0xbd60fe1c	-0.054929838
194	0xbd7826ef	-0.060584005
195	0xbe9bb4ca	-0.3041137
196	0xbe73c3d2	-0.23805168
197	0xbe5820d8	-0.21106279
198	0xbe83df2f	-0.25756213
199	0xbd08d106	-0.033402465
200	0xbd946340	-0.07245493
201	0xbe714646	-0.23561963
202	0x3e9544bb	0.29154
203	0xbce88bec	-0.028387032
204	0xbe6ab00c	-0.22918719
205	0x3d91f775	0.07127277
206	0xbe532779	-0.20620526
207	0xbd877821	-0.0661471
208	0x3c1bd87e	0.009512065
209	0x3e11e45e	0.14247271
210	0x3dd98f93	0.10623088
211	0x3e031b1b	0.12803309
212	0x3e23792c	0.15964192
213	0x3e640659	0.22268046
214	0x3e63b764	0.22237927
215	0x3e713dcb	0.23558728
216	0x3c762636	0.015023759
217	0xbe303916	-0.17209277
218	0xbe950cf2	-0.2911144
219	0x3d72b428	0.05925384
220	0x3de7fe55	0.11327807
221	0xbe5fab81	-0.21842767
222	0x3e236015	0.15954621
223	0xbdfa03b9	-0.12207741
224	0xbcdd6c38	-0.027029142
225	0x3e65eb38	0.2245301
226	0x3e1a1928	0.15048659
227	0xbe3f0406	-0.18653879
228	0x3e66d90e	0.22543737
229	0x3e681c79	0.22667111
230	0xbe01d997	-0.1268066
231	0x3d36e659	0.04465327
232	0xbe761cdc	-0.24034446
233	0xbdef620b	-0.11688622
234	0x3e87f82a	0.26556522
235	0x3e9bcdfa	0.30430585
236	0x3e19e032	0.1502693
237	0x3e813d2d	0.25241986
238	0x3dda1dc9	0.10650212
239	0x3d63a845	0.055580396
240	0xbdb78359	-0.089605995
241	0xbe28d394	-0.1648696
242	0x3cec3f58	0.028838798
243	0x3d92f74f	0.071760766
244	0xbe78e3ab	-0.24305598
245	0xbc1e11a3	-0.00964776
246	0x3d36e1cf	0.04464894
247	0x3e25f8e5	0.16208227
248	0x3e5c640b	0.21522538
249	0xbb3cb662	-0.0028795232
250	0x3e3d1b11	0.18467356
251	0xbd97ccde	-0.07412122
252	0x3e09c077	0.13452326
253	0xbe8f918a	-0.28040725
254	0x3e238da8	0.15972006
255	0xbe1213fc	-0.14265436

conv1.bias f4 [512]
0	0xbbec8323	-0.007217781
1	0x3c91359c	0.017725758
2	0xbd2a5fd5	-0.0415953
3	0x3b6dd6b5	0.0036291305
4	0xbd25b868	-0.040459067
5	0xbca3fa38	-0.020016775
6	0xbd85034e	-0.06494771
7	0x3d1bf9d0	0.038080037
8	0xbd1a79f4	-0.03771396
9	0x3bbbaf93	0.005727717
10	0xbbe12fb4	-0.0068721417
11	0xbd3033fb	-0.043018322
12	0xbd016eb1	-0.031599704
13	0xbc392d33	-0.01130228
14	0xbd168c35	-0.036754806
15	0x3ca19f38	0.019729242
16	0x3b8e039a	0.0043339254
17	0xbc55e836	-0.013055852
18	0x3d5af958	0.05346045
19	0x39c956ba	0.00038402324
20	0xbcbc1b0d	-0.022962118
21	0xbd47253c	-0.048619494
22	0xbc64142f	-0.013920828
23	0xbd31e818	-0.043434232
24	0xbd69904c	-0.057022378
25	0xbb88d245	-0.0041754567
26	0xbb9be86c	-0.0047579315
27	0x3c548e96	0.012973448
28	0xbd7426e9	-0.05960742
29	0xbd7f8f19	-0.062392328
30	0xbd35a49f	-0.044346448
31	0xbd143189	-0.036180053
32	0xbc8f481d	-0.017490441
33	0xbc39f08e	-0.011348857
34	0x3cdf5f1f	0.027267037
35	0xbc83569f	-0.016032515
36	0x3cb453f6	0.022012692
37	0x3b899e78	0.004199799
38	0xbc289877	-0.010290257
39	0x3d1875b8	0.03722164
40	0xbcbb051f	-0.02282959
41	0x3d866445	0.06562094
42	0xbd3911ae	-0.045182876
43	0xbcf28af8	-0.029607281
44	0x3b19bc06	0.0023458018
45	0xbcb94cee	-0.02261969
46	0xbc17737f	-0.009243845
47	0xbcca6848	-0.024707928
48	0xbad0acf3	-0.0015920684
49	0xbc2608b0	-0.010133907
50	0x3b6765f2	0.0035308567
51	0x3b8f66d2	0.004376271
52	0xbd8b0943	-0.06788876
53	0xbb2812e4	-0.0025646025
54	0xbc0f358a	-0.008740792
55	0x3d21d0f9	0.039505932
56	0x3aa11b47	0.0012291454
57	0x3c6c1ec7	0.014411635
58	0xbbabe448	-0.005245719
59	0xbd429ca3	-0.04751266
60	0x3ca243e4	0.019807763
61	0xbb4184cd	-0.0029528618
62	0x3c4ae5ca	0.012383888
63	0xbd1f0898	-0.038826555
64	0xbc4d8a60	-0.012545198
65	0xbd2a25f0	-0.041540086
66	0xbc486c25	-0.012232815
67	0xbba87fde	-0.005142196
68	0xbcbc687f	-0.022999046
69	0xbc75e2c1	-0.015007676
70	0x3cb353a3	0.021890467
71	0xbd1382d0	-0.036013424
72	0x3ca7816c	0.020447455
73	0xbcee25b0	-0.029070705
74	0xbc94ccdd	-0.018164093
75	0x3ba7232b	0.005100628
76	0xbcab9e29	-0.02094944
77	0xbc3a92a7	-0.011387504
78	0xbd1e9d61	-0.038724307
79	0xbc8d6a0b	-0.01726248
80	0xbc19175e	-0.00934395
81	0x3d1b9994	0.03798826
82	0xbd226920	-0.039651036
83	0xba8f1dfd	-0.0010918971
84	0xbd1853bb	-0.037189227
85	0x3c2cf9a9	0.0105575705
86	0xbd80022e	-0.06250416
87	0xbc3d2b2a	-0.011545936
88	0xbc4ebbed	-0.012618047
89	0xbd0840a0	-0.033264756
90	0xbc45316c	-0.012035709
91	0xbcd38f32	-0.025825117
92	0xbbc419c9	-0.005984519
93	0xbc0dda37	-0.0086579835
94	0x3d23ca9d	0.03998815
95	0xbc4655c1	-0.012105406
96	0x3cbf83c5	0.023378262
97	0xbc6492c1	-0.0139510045
98	0x3cbc7e9d	0.023009593
99	0x3b750a72	0.003739026
100	0xbc7a5fb8	-0.01528161
101	0xbd0db1d9	-0.034593437
102	0xbb09c87d	-0.0021024041
103	0xbca5f964	-0.02026052
104	0xbc4370c6	-0.011928743
105	0xbd05ca65	-0.03266372
106	0x3ca666f1	0.020312758
107	0xbcfca0ee	-0.030838456
108	0x3c7d39e0	0.015455693
109	0xbd9c2f97	-0.076262645
110	0x3cae1bc9	0.021253483
111	0x3cec2bef	0.028829543
112	0xbd0650f4	-0.032792047
113	0xbd67d781	-0.056602005
114	0x3c73d7a6	0.014882958
115	0x3cc14f02	0.023597244
116	0x3cb4d41a	0.022073794
117	0x3d6451f9	0.055742238
118	0x3cf75318	0.03019099
119	0xbc0c281e	-0.008554487
120	0xbc48d671	-0.012258158
121	0xbcd2f8ef	-0.025753466
122	0x3cc44790	0.023959905
123	0xbd01bffe	-0.03167724
124	0x39eb47ab	0.0004487609
125	0x3c66d294	0.014088292
126	0xbc8c4418	-0.017122313
127	0xbd8d663d	-0.06904266
128	0xbcbea674	-0.02327273
129	0x3c925c9d	0.017866427
130	0xbb05a128	-0.0020390246
131	0xbd128bf4	-0.035778
132	0xbc21a63b	-0.009866293
133	0xbc6ca5d7	-0.014443836
134	0xbbfc6565	-0.007702517
135	0x3ab4e544	0.0013801237
136	0xbd304091	-0.043030325
137	0x3d76337d	0.060107697
138	0xbbb5dffc	-0.0055503827
139	0x3cb2253f	0.021746276
140	0xbcc429cd	-0.023945713
141	0xbc90be63	-0.017668908
142	0x3c5c5486	0.013447886
143	0xbd16da1c	-0.0368291
144	0xbcc47220	-0.0239802
145	0xbc9ccd81	-0.01914096
146	0xbd276cd9	-0.04087529
147	0x3d14a08f	0.036285933
148	0xbcda13cd	-0.02662077
149	0x3a259263	0.0006316064
150	0xbc6dc87c	-0.014513131
151	0xbd0af021	-0.03392041
152	0x3d091bc2	0.033473738
153	0x3c1b3145	0.009472196
154	0x3d8dcb11	0.069234975
155	0xbc91ea22	-0.017811839
156	0x3ad10f47	0.0015949988
157	0xbd3e2fb7	-0.046432223
158	0x3c74114a	0.0148967
159	0xbca9375d	-0.020656282
160	0x3d240b2c	0.040049717
161	0xbce883b1	-0.028383108
162	0xbd3a0aed	-0.045420576
163	0x3c1a00eb	0.009399633
164	0xbd1b1c94	-0.03786905
165	0xbb9d0df8	-0.004792925
166	0xbd0283fe	-0.03186416
167	0x3c9a9fce	0.018875029
168	0x3c24aba1	0.010050685
169	0xbd0ac6f0	-0.033881128
170	0x3c557317	0.013027928
171	0xbc4e8231	-0.012604282
172	0xbc6a425a	-0.014298046
173	0x3c0f3823	0.008741411
174	0xbc1ed54c	-0.009694409
175	0xbccf7a5a	-0.025326896
176	0x3d314e27	0.043287423
177	0xbbda5c61	-0.0066638445
178	0x3c95917c	0.018257849
179	0xbd4811b8	-0.048845023
180	0xbc8154ec	-0.015787564
181	0xbd046633	-0.032324027
182	0xbc60e10b	-0.013725529
183	0xbc74a804	-0.014932636
184	0xbad45c06	-0.0016201742
185	0xbd04b811	-0.032402102
186	0x3c9507fb	0.018192282
187	0xbcb3f2a4	-0.021966286
188	0x3c1c716c	0.009548526
189	0x3cb75e94	0.022383966
190	0xbcc9a845	-0.02461637
191	0xbcfab73d	-0.030604953
192	0xbd268ca9	-0.040661488
193	0xbd1ec3e9	-0.038761053
194	0xbd27a970	-0.040933073
195	0xbc74a431	-0.014931724
196	0xbd73b188	-0.05949548
197	0x3cdf640d	0.027269388
198	0xbcb02b9b	-0.021505168
199	0xbc74f92a	-0.0149519835
200	0x3bdaa96e	0.0066730296
201	0x3c6b07ab	0.01434509
202	0x3bd403d0	0.006470181
203	0xbc5f7a7c	-0.013640042
204	0x3bb3750a	0.0054765986
205	0xbc5e8058	-0.013580404
206	0x3ccf9f90	0.02534464
207	0x3bf22f0b	0.007390862
208	0xbd1a45f0	-0.037664354
209	0x3a9fb65a	0.0012185082
210	0xbc451bf4	-0.01203059
211	0xbd00f390	-0.03148228
212	0x3c331720	0.010930806
213	0xbbe2544d	-0.006907022
214	0x3ba4f2a5	0.0050338083
215	0xbd3df2ca	-0.04637412
216	0x3d02d952	0.031945534
217	0xbd623d41	-0.055234198
218	0xbc459da9	-0.012061515
219	0x3cd938a6	0.02651627
220	0x3caf9043	0.021431094
221	0x3b8a1bc0	0.004214734
222	0x3bef09e6	0.007294881
223	0x3c544194	0.012955088
224	0xbc3672cf	-0.011135771
225	0xbc9b00b9	-0.018921243
226	0xbce89f43	-0.028396254
227	0xbc85a8ce	-0.016315844
228	0x3c494b26	0.012285983
229	0xbc34ebb8	-0.011042528
230	0x3c2553eb	0.010090808
231	0xbc82ce81	-0.01596761
232	0xbc7c0ca4	-0.015383873
233	0x3d00f868	0.0314869
234	0xbc80182d	-0.015636528
235	0x3cab5187	0.020912899
236	0xbc05c300	-0.008164167
237	0xbca9242a	-0.020647127
238	0xbd0ddf7e	-0.034636967
239	0xbc611631	-0.013738201
240	0x3d719545	0.058980245
241	0xbcf5af43	-0.029990798
242	0xbc7ce2a5	-0.015434896
243	0xbbba19c4	-0.005679341
244	0xbd93b052	-0.07211365
245	0xbd10e28f	-0.035372313
246	0x3c5fc771	0.01365839
247	0xbc64cb51	-0.01396449
248	0xbc64c268	-0.013962366
249	0x3a843edb	0.0010089533
250	0xba4126d6	-0.0007368153
251	0xbd88c2f3	-0.066778086
252	0x3c45636d	0.012047631
253	0xbcc31c7f	-0.023817299
254	0x3d194a84	0.03742458
255	0x3ca23ddf	0.019804893

conv1.lin_l.weight f4 [512, 8]
0	0xbc9981b3	-0.018738603
1	0xbd8f16d0	-0.06986773
2	0xbd70251c	-0.05862914
3	0x3d463d5b	0.048398357
4	0x3d02ecf1	0.031964246
5	0xbd7952e7	-0.060870077
6	0x3cb64c7a	0.022253264
7	0x3d79839f	0.06091654
8	0x3cfe6490	0.031053811
9	0xbd1dc2da	-0.038515903
10	0x3a87e2c6	0.0010367266
11	0xbd95ffc6	-0.073241755
12	0xbbc0b9f1	-0.005881541
13	0x3d6fc8c8	0.05854109
14	0x3bdd6411	0.0067563136
15	0xbca55a9a	-0.020184804
16	0xbc321889	-0.010870107
17	0xbce50dfb	-0.027960768
18	0xbcfb6320	-0.030686915
19	0xbc8e0bdb	-0.017339638
20	0xbc0032ef	-0.0078246435
21	0x3cda97b7	0.026683671
22	0x3c16685b	0.009180154
23	0xbdc2932f	-0.09500729
24	0xbbf89ef2	-0.007587307
25	0xbc539f32	-0.012916373
26	0x3b80c4cf	0.0039297114
27	0xbd00a7ec	-0.031410143
28	0x3b2cd06f	0.0026369353
29	0xbdbd69ee	-0.0924872
30	0xbcbe66e4	-0.023242421
31	0xbd15f215	-0.03660782
32	0x3d267b29	0.0406448
33	0xbdb93117	-0.09042566
34	0xb97dc43d	-0.00024201065
35	0x3d0c4be1	0.03425205
36	0x3b4f5d7b	0.0031641412
37	0xbcfa626e	-0.030564513
38	0x3d5baac5	0.053629655
39	0x3d888812	0.06666578
40	0xbd102ee9	-0.035200987
41	0xbd16f03d	-0.036850203
42	0x3d0665fd	0.032812107
43	0xbd0d7b5b	-0.03454147
44	0xbcf2f74b	-0.029658934
45	0xbd5494a7	-0.05189958
46	0x3caddef6	0.02122448
47	0x3cff1ed7	0.031142635
48	0xbd362a28	-0.044473797
49	0x3c159059	0.009128653
50	0x3d15c82b	0.03656785
51	0xbc5e18ae	-0.013555689
52	0xbcdebed2	-0.0271906
53	0x3cb5f110	0.022209674
54	0xbcc2d48b	-0.023782989
55	0x3d6dde71	0.058073465
56	0xbb24fd1a	-0.0025175274
57	0xbdf461d6	-0.11932723
58	0x3b8a3d9f	0.0042187716
59	0x3a672e1b	0.0008818821
60	0xbc02ee59	-0.007991397
61	0xbc480e69	-0.012210467
62	0x3ad48eda	0.001621689
63	0xbd92b389	-0.0716315
64	0x3c8d04be	0.017214175
65	0xbd4393d9	-0.04774842
66	0x3c24a8be	0.010049997
67	0x3d48985d	0.04897343
68	0xbb1516ac	-0.002274911
69	0xbd3d392b	-0.046197098
70	0xbd0c7441	-0.034290556
71	0x3df7b6fb	0.12095448
72	0xbabc8f46	-0.001438596
73	0xbc099265	-0.00839672
74	0x3a3f03ca	0.00072866364
75	0xbd5ecca9	-0.054394398
76	0x3a00d111	0.0004913966
77	0x3cca6761	0.024707498
78	0xbcb56733	-0.022143936
79	0xbcc7e9d5	-0.024403492
80	0x3c8a1674	0.01685641
81	0xbc76be29	-0.015059986
82	0x3db31666	0.087445065
83	0x3d12afc5	0.03581216
84	0xbd6d37a9	-0.05791441
85	0x3ce843b2	0.028352592
86	0x3c71c95f	0.014757483
87	0x3d3c3428	0.045948178
88	0x3d055a9b	0.03255711
89	0x3b0ba03e	0.0021305229
90	0xbcf4e2fa	-0.029893387
91	0xbcb8f8a7	-0.022579504
92	0xbc7f437c	-0.015580054
93	0xbd4dae66	-0.050215147
94	0x3bc43508	0.005987767
95	0xbd50c05f	-0.05096471
96	0xbcc16c81	-0.023611309
97	0x3d2aace2	0.04166878
98	0x3cde65c8	0.027148142
99	0xb9dd8808	-0.00042253756
100	0x3d0e4605	0.034734745
101	0xbca3d4b1	-0.01999888
102	0xbc286903	-0.010278943
103	0x3c87377a	0.016505945
104	0xbbb64616	-0.005562554
105	0x3d71b67c	0.05901192
106	0xbd0f7d9b	-0.035031896
107	0xbceea477	-0.029131157
108	0xbbf71cba	-0.0075412663
109	0xbc3c8de0	-0.011508435
110	0x3c50381f	0.012708693
111	0x3d4adac8	0.049525052
112	0x3d3fb8c2	0.04680706
113	0xbcba9d55	-0.0227801
114	0xbccb8e46	-0.024848115
115	0xbc879983	-0.016552692
116	0xb99e9b1a	-0.00030251668
117	0xbddefef1	-0.1088847
118	0x3c917d08	0.017759815
119	0x3c629ff2	0.013832079
120	0xb9bd3222	-0.0003608624
121	0xbc4ec521	-0.012620241
122	0xbd715788	-0.058921367
123	0xbda36770	-0.079787135
124	0x3bc768e7	0.0060855034
125	0xbc2fe4c5	-0.010735695
126	0x3b25ae49	0.0025280884
127	0x3c78ea13	0.015192526
128	0xbd356cca	-0.044293202
129	0x3ca15f59	0.019698786
130	0x3b8229cd	0.003972268
131	0xbe016b4b	-0.12638585
132	0xbaf00818	-0.0018312959
133	0xbda320fe	-0.07965277
134	0x3c5066f3	0.0127198575
135	0x3d8aef33	0.06783905
136	0xbd739aa3	-0.059473645
137	0x3c0c6f99	0.008571529
138	0x3d0a5f76	0.033782445
139	0xbb727738	-0.003699733
140	0xbd3b4970	-0.045724332
141	0xbd13f247	-0.036119726
142	0x3d816e73	0.06319895
143	0xbde7ffbc	-0.11328074
144	0xb8b289d8	-8.513377e-05
145	0xbcc6113e	-0.024178144
146	0x39b03d13	0.0003361484
147	0xbdc99788	-0.098433554
148	0xbb1decaf	-0.0024097373
149	0x3c4ba6dd	0.01242992
150	0xbd078b1c	-0.03309165
151	0x3d6b66d2	0.057471104
152	0x3d1f844f	0.03894454
153	0x3c3f7340	0.011685193
154	0xbc8c59a3	-0.017132586
155	0x3b87d3e0	0.0041451305
156	0x3ca433ab	0.020044168
157	0xbdb143ca	-0.08655508
158	0x3cd75aad	0.026288355
159	0xbdb9648b	-0.0905238
160	0xbc1abc7f	-0.009444355
161	0xbd0aa395	-0.03384741
162	0xbbdc486f	-0.006722502
163	0x3d3c867c	0.04602669
164	0x3d10a78a	0.035316028
165	0xbe016578	-0.12636364
166	0x3ce90585	0.028445015
167	0x3885ddc3	6.3832405e-05
168	0x3b6c4932	0.003605437
169	0xbe073f8a	-0.13207832
170	0xbc22fa0f	-0.009947314
171	0xbcbd215b	-0.023087194
172	0xbd12fcd7	-0.035885658
173	0xbb20392f	-0.0024448147
174	0xbbad32f2	-0.005285614
175	0x3dce2f17	0.100675754
176	0x3ce98ffa	0.028511036
177	0x3aafe2bd	0.0013419014
178	0xbbc2064e	-0.0059211617
179	0x3d70138d	0.058612395
180	0x3b5318d1	0.0032210837
181	0xbd9d470a	-0.07679565
182	0x3cf6f8f1	0.030148001
183	0xbce8a3b5	-0.028398374
184	0x3d25e124	0.040497914
185	0x3c9beed1	0.019034775
186	0xbb760727	-0.0037540884
187	0xbca2f0cd	-0.019890213
188	0xbcd75572	-0.02628586
189	0xbe166a5c	-0.1468901
190	0x3c2dea99	0.0106150145
191	0xbd080387	-0.03320649
192	0x3d0037ae	0.0313031
193	0x3b7431bf	0.0037261096
194	0xbcc1a9fe	-0.023640629
195	0xbd854c9e	-0.06508754
196	0xbd052b0e	-0.032511763
197	0xbd545dd1	-0.051847283
198	0xbc666fb4	-0.014064718
199	0x39e283ad	0.00043204185
200	0xbc562907	-0.013071305
201	0xbd9e73ba	-0.07736917
202	0x3c7a2531	0.015267656
203	0x3ca84605	0.0205412
204	0x3c3d0f18	0.011539243
205	0x3d6ca260	0.05777204
206	0xbcdcf20a	-0.026970882
207	0xbd1bd20b	-0.03804211
208	0x3c3dd7e5	0.011587118
209	0xbd03afad	-0.03214996
210	0xbcafd340	-0.021463037
211	0x3d354611	0.044256274
212	0xbc61680f	-0.01375772
213	0xbd799075	-0.06092878
214	0xbd38e035	-0.045135695
215	0x3da1d5ce	0.07902108
216	0x3c6bde55	0.01439627
217	0xbc83bf21	-0.016082348
218	0xbc0f59b1	-0.008749411
219	0xbd9b88e3	-0.075944684
220	0x3b67877a	0.0035328553
221	0xbc88f709	-0.016719358
222	0xbb832ecf	-0.0040033828
223	0xbc6b84c7	-0.014374918
224	0xbb5e726c	-0.0033942712
225	0xbdac71d6	-0.0842015
226	0x3cfcfd10	0.030882388
227	0xbcdeb1d4	-0.027184404
228	0x39833fd7	0.00025033831
229	0xbd46c276	-0.048525296
230	0xbd48b474	-0.04900022
231	0x3dc4e6dd	0.09614346
232	0x3d137604	0.03600122
233	0x3c59b04d	0.013286662
234	0xbb690892	-0.0035558087
235	0x3cb01f69	0.021499353
236	0xbb04b0f3	-0.0020247072
237	0xbdc52e31	-0.09627951
238	0xbb9cf0de	-0.004789456
239	0xbde81371	-0.11331833
240	0x3d77acf1	0.060467664
241	0x3d2fd2aa	0.042925514
242	0xbc270b62	-0.010195585
243	0xba96ca70	-0.0011504423
244	0x3c979940	0.018505692
245	0xbc964ef3	-0.018348193
246	0xbb0e4800	-0.0021710396
247	0xbd346880	-0.04404497
248	0x3d17a664	0.037023917
249	0xbd8e5398	-0.06949538
250	0xbc8ebea6	-0.017424893
251	0x3d2192c1	0.039446596
252	0xbb48a4e2	-0.0030615856
253	0x3d16470d	0.036688853
254	0x3c5ed826	0.0136013385
255	0x3d96ac68	0.07357103

conv1.lin_l.bias f4 [512]
0	0xbe1a10bf	-0.1504545
1	0xbd32d44f	-0.043659505
2	0x3c80de02	0.015730862
3	0x3deea4e6	0.11652546
4	0xbd4e67e7	-0.050392058
5	0x3d9ae6af	0.07563531
6	0xbd564145	-0.05230834
7	0xbd775cd4	-0.060391262
8	0x3c9e3304	0.019311436
9	0xbd2d0dac	-0.042249367
10	0x3e312a14	0.17301208
11	0x3d49d919	0.049279306
12	0x3e281d0d	0.16417332
13	0xbeb042b2	-0.34425884
14	0x3e5ffcf7	0.21873842
15	0x3e9aa369	0.30202797
16	0xbea8a319	-0.32936934
17	0xbe270fcd	-0.16314621
18	0xbe4374f9	-0.1908759
19	0xbe67b9ca	-0.22629467
20	0xbe399bfb	-0.18125908
21	0xbd85cc11	-0.06533063
22	0xbdb9b2dc	-0.09067318
23	0xbda3bc6a	-0.079949215
24	0x3dcf113b	0.10110708
25	0x3d8e4ac2	0.06947853
26	0x3e91383c	0.28363216
27	0x3ddf1133	0.10891952
28	0x3e321ec1	0.17394544
29	0x3e08a6de	0.13344905
30	0x3d988801	0.07447816
31	0x3e538d64	0.20659405
32	0xbd9fb880	-0.077988625
33	0xbe35d289	-0.17756094
34	0xbe7e16cb	-0.24813382
35	0x3e006bbc	0.12541097
36	0xbe2e8d7c	-0.1704616
37	0x3d5e7835	0.054313857
38	0x3e254e75	0.1614321
39	0x3dbf7e74	0.09350291
40	0x3e3b6e37	0.18303762
41	0xbe2a65b7	-0.16640364
42	0xbe924050	-0.28564692
43	0x3e455ff3	0.19274883
44	0xbe37d1ba	-0.17951098
45	0x3e0f4a80	0.13993263
46	0x3e8a717e	0.27039713
47	0x3deac237	0.11462825
48	0x3c9d903c	0.019233815
49	0x3d2e5c3c	0.04256843
50	0xbe0ada4a	-0.13559833
51	0xbdf8ddfc	-0.12151715
52	0xbe3e29a6	-0.18570575
53	0xbe0e4b6e	-0.13895962
54	0x3e5e89ef	0.21732305
55	0xbe8360cd	-0.2565979
56	0x3e9f8c10	0.31161547
57	0xbea288f9	-0.31745127
58	0xbe43b32a	-0.19111314
59	0xbe020dac	-0.12700528
60	0x3e3504d8	0.17677629
61	0x3e878e2b	0.26475653
62	0xbe760700	-0.24026108
63	0xbeb4b4f2	-0.352943
64	0xbdc9e32e	-0.09857784
65	0x3dfdfbc4	0.12401536
66	0x3c59c36c	0.013291221
67	0x3c6221e9	0.01380203
68	0xbe6931c3	-0.22772889
69	0xbe4a60d5	-0.19763501
70	0x3e13de5e	0.14440295
71	0x3e03cdc1	0.12871458
72	0x3e0f564f	0.13997768
73	0x3e319a4b	0.17344014
74	0xbdae779c	-0.085189074
75	0x3d17bf81	0.037047867
76	0xbd4a2918	-0.049355596
77	0xbcf34e05	-0.029700289
78	0xbe17721d	-0.14789625
79	0xbe9dfbc5	-0.30856147
80	0x3e387eb6	0.18017086
81	0xbcb1c169	-0.02169867
82	0xbea69547	-0.32535765
83	0xbe069ceb	-0.13145797
84	0xbd7bb06d	-0.06144755
85	0xbe039db0	-0.12853122
86	0x3db56df0	0.088588595
87	0xbdc04873	-0.093888186
88	0xbdef7de9	-0.11693937
89	0xbe700626	-0.23439845
90	0x3e7d2d5d	0.24724336
91	0xbea77232	-0.32704312
92	0x3d33d81c	0.04390727
93	0x3bd6f5e1	0.006560073
94	0xbdfd29a2	-0.123614565
95	0xbe992f9b	-0.29919133
96	0xbe08511e	-0.13312194
97	0x3e43e98e	0.19132063
98	0xbe011422	-0.12605336
99	0xbd38ca33	-0.045114707
100	0xbcca82c5	-0.024720559
101	0x3da84eab	0.0821813
102	0xbdff55fa	-0.124675706
103	0x3e089a4b	0.13340108
104	0xbead4018	-0.33837962
105	0xbe3421c2	-0.17591003
106	0xbe74c175	-0.23901923
107	0x3e3b35e7	0.18282281
108	0x3d26a312	0.04068286
109	0xbe95cbbb	-0.29256997
110	0x3db6f42a	0.08933289
111	0x3ded6e42	0.11593296
112	0xbd3a1b1f	-0.04543602
113	0x3d25d731	0.040488426
114	0x3d6876e3	0.056754004
115	0xbde4bf11	-0.111692555
116	0x3dacc205	0.08435444
117	0xbe7b52a4	-0.24543244
118	0x3d3e9814	0.04653175
119	0x3d538a6a	0.051645674
120	0x3d0c4842	0.034248598
121	0x3e4c4378	0.19947612
122	0x3eb421e4	0.35182106
123	0x3d387871	0.045036737
124	0x3c8169b0	0.015797466
125	0xbd5672cc	-0.052355573
126	0x3e8a1f92	0.2697721
127	0xbe488820	-0.19583178
128	0x3cf0fde1	0.029417934
129	0xbde7d17e	-0.11319254
130	0xbeb1a2f2	-0.3469463
131	0x3e776a5d	0.24161668
132	0x3e3e78fc	0.1860084
133	0x3e9b8c25	0.3038036
134	0x3dd1704f	0.10226499
135	0x3e4333d9	0.19062747
136	0xbe1db37f	-0.15400504
137	0xbdefee54	-0.11715379
138	0xbd4a9a78	-0.04946372
139	0xbd40674b	-0.046973508
140	0x3e9a1b65	0.30099025
141	0x3ea2b92c	0.317819
142	0xbe249948	-0.16074097
143	0x3e829fe8	0.25512624
144	0x3d115a8c	0.035486743
145	0x3d557b43	0.052119505
146	0xbe282da1	-0.16423656
147	0xbe10a009	-0.14123549
148	0x3e178b95	0.1479934
149	0xbd5d4810	-0.054023802
150	0x3e1faf15	0.15594132
151	0x3e6cf3a4	0.23139817
152	0xbd38faa5	-0.04516091
153	0xbb47b283	-0.0030471392
154	0xbc130feb	-0.008975963
155	0x3e0f8947	0.14017211
156	0x3e8f5177	0.2799184
157	0x3bad0f8f	0.0052813957
158	0xbe335d63	-0.17516093
159	0xbebd736a	-0.37002116
160	0x3d301b46	0.04299476
161	0x3e7a81ae	0.24463531
162	0x3e460e31	0.19341351
163	0xbcb163d8	-0.021654055
164	0xbe123550	-0.1427815
165	0x3e1f61cf	0.15564655
166	0x3da31b3c	0.07964179
167	0x3cada681	0.02119756
168	0xbd61a86e	-0.055092268
169	0x3e7d34a0	0.24727106
170	0xbddaed21	-0.1068976
171	0x3cea2791	0.02858332
172	0x3d24cfd5	0.040237267
173	0x3dcc5a1c	0.099781245
174	0xbe35e0ca	-0.17761531
175	0x3dc768b9	0.09736771
176	0xbe014216	-0.12622866
177	0xbe9aadb4	-0.3021065
178	0xbe686424	-0.2269445
179	0xbe894b90	-0.26815462
180	0xbdbec4e8	-0.09314901
181	0x3dc5173c	0.09623572
182	0x3d172ca3	0.036907803
183	0x3e770ecf	0.24126743
184	0x3e88ffbd	0.26757613
185	0xbe80352b	-0.25040564
186	0xbdf0b66a	-0.11753543
187	0x3dab9f3d	0.08379982
188	0xbe991bb8	-0.2990396
189	0x3dc6fcc4	0.0971618
190	0x3e734aaf	0.23758958
191	0x3dc1e4bc	0.09467456
192	0xbd3065f4	-0.04306598
193	0x3da1e970	0.07905853
194	0x3e0563f7	0.13026415
195	0xbe1ca8dc	-0.1529879
196	0x3dc9ac75	0.09847347
197	0x3dd2feb3	0.10302486
198	0xbdce9647	-0.10087257
199	0xbe43d8d6	-0.19125685
200	0x3da34ec1	0.079740055
201	0xbe0bd330	-0.1365478
202	0x3dc3063a	0.09522672
203	0x3e32a706	0.17446527
204	0x3dad63fa	0.08466335
205	0xbce7c913	-0.028294122
206	0x3e289cb1	0.16466023
207	0xbdc87644	-0.097881824
208	0x3e8c6cd7	0.27426788
209	0x3defd47f	0.11710452
210	0xbdf530ad	-0.11972175
211	0x3c8b3407	0.016992582
212	0x3e1c9655	0.15291722
213	0x3c26bc3f	0.010176717
214	0xbe07894a	-0.13235965
215	0xbde3fa11	-0.11131681
216	0xbe5dd35c	-0.21662658
217	0xbd2a0904	-0.041512504
218	0x3dc5578d	0.096358396
219	0xbe97aae2	-0.2962256
220	0xbe1647bc	-0.14675802
221	0x3dff282b	0.12458833
222	0xbea80f35	-0.32824102
223	0xbe8a7277	-0.27040455
224	0xbe8a1dbf	-0.2697582
225	0xbdadecf2	-0.08492459
226	0x3de5a632	0.1121334
227	0xbe97584d	-0.29559556
228	0x3e9b994a	0.30390388
229	0xbe4cc1da	-0.19995824
230	0xbe7c365f	-0.24630116
231	0x3dcb1ef0	0.0991801
232	0x3dc72f2b	0.097257935
233	0xbc28d8c3	-0.010305586
234	0xbd942562	-0.07233693
235	0x3d5e9554	0.05434163
236	0x3d12f456	0.03587755
237	0x3e205a51	0.15659453
238	0x3e4af22f	0.19818948
239	0x3d6cc1e4	0.057802096
240	0xbda4dabf	-0.08049535
241	0xbd0ebc4d	-0.034847546
242	0x3de6f832	0.11277808
243	0xbe7208e6	-0.23636207
244	0x3df7bb6a	0.12096293
245	0x3c6fdf34	0.014640618
246	0x3a396d65	0.0007073491
247	0x3def6a61	0.11690212
248	0xbe07777d	-0.13229175
249	0xbea09b89	-0.31368664
250	0xbe4d0775	-0.20022376
251	0xbda4cd71	-0.08046997
252	0xbd24f09e	-0.040268533
253	0x3e107b43	0.1410952
254	0x3da51696	0.080609486
255	0xbe75ffdc	-0.24023384

conv1.lin_r.weight f4 [512, 8]
0	0xb7cf3374	-2.4700283e-05
1	0x3cd391c6	0.025826346
2	0x37361929	1.0853903e-05
3	0x3c06a5e6	0.008218264
4	0x37585541	1.2894453e-05
5	0x3d0a765f	0.033804294
6	0xb6ced32c	-6.163862e-06
7	0x3ad56d11	0.0016283115
8	0xbbaaa032	-0.005207085
9	0x3da9e861	0.08296276
10	0x38eb6234	0.00011223965
11	0x3cfa8125	0.030579159
12	0xb627e7f8	-2.5019963e-06
13	0xbbc5b845	-0.0060339295
14	0xb72340a0	-9.730604e-06
15	0xbd694b7e	-0.05695676
16	0xb7d07e5c	-2.4854373e-05
17	0x3d4af3f2	0.04954905
18	0xb8248ecb	-3.9233633e-05
19	0xbcf6a6e2	-0.030108873
20	0xb80f0dac	-3.410659e-05
21	0xbcb2f8bf	-0.021847127
22	0xba3d2451	-0.00072151894
23	0xbc87b75b	-0.016566923
24	0x380bff6f	3.3378074e-05
25	0xbcdb3d8f	-0.026762752
26	0x3524cca7	6.139257e-07
27	0xbc06127a	-0.008183116
28	0x37624ce4	1.3488552e-05
29	0xbd256ce4	-0.04038705
30	0xb6cb3a49	-6.0566567e-06
31	0xbca97945	-0.020687709
32	0x389fa93d	7.613234e-05
33	0x3d7b1708	0.06130126
34	0xbbbd7f2a	-0.0057829814
35	0xbd657200	-0.056016922
36	0xb816237f	-3.5795845e-05
37	0xbdc211d9	-0.094760604
38	0xbb6860d7	-0.0035458112
39	0xbd0c063a	-0.034185626
40	0xb8ceba1d	-9.857512e-05
41	0xbc0cd7d4	-0.008596379
42	0x381e1051	3.768533e-05
43	0x3cb1092a	0.021610815
44	0xb662a73f	-3.3773974e-06
45	0x3dced0bb	0.10098406
46	0x390b211d	0.00013268409
47	0xbc905d78	-0.017622694
48	0xb7950f0f	-1.7769196e-05
49	0x3cede431	0.029039474
50	0x37a69816	1.9859563e-05
51	0x3cb8fcf6	0.022581559
52	0x371fbeca	9.52156e-06
53	0x3d6697a5	0.056296963
54	0x369ed2aa	4.7332915e-06
55	0xb98c1baf	-0.00026723507
56	0xb70c2186	-8.352456e-06
57	0x362a2009	2.535062e-06
58	0x389bbb40	7.425854e-05
59	0x3d00e8b5	0.031471927
60	0xb8dc4c4b	-0.00010504628
61	0xbd1b0b3e	-0.03785252
62	0xb7f7988a	-2.9515726e-05
63	0x3d8c8e24	0.06863049
64	0xbce9acaf	-0.028524725
65	0xbbbf9cf9	-0.00584757
66	0x3a1222c3	0.0005574638
67	0xbd4d2dc4	-0.050092474
68	0xb823ae38	-3.9024482e-05
69	0xbd7996a5	-0.06093468
70	0xb84e5458	-4.919278e-05
71	0xbd8f07f9	-0.069839425
72	0xb8930cd0	-7.011893e-05
73	0xbd26fcca	-0.040768422
74	0xbc47d231	-0.01219611
75	0x3d0964e4	0.033543482
76	0x37d4f3c7	2.5385887e-05
77	0x3d64db68	0.055873305
78	0xb7cb0f63	-2.420665e-05
79	0xbd549298	-0.051897615
80	0xb62e27a5	-2.5951097e-06
81	0x3c39d8c2	0.011343183
82	0x360a43d4	2.0603084e-06
83	0x3c9393d3	0.018014824
84	0x37334ba9	1.0686847e-05
85	0xba5f47d0	-0.0008517476
86	0x385ad957	5.2177664e-05
87	0x3a5b558b	0.0008366934
88	0xbc12ab94	-0.00895204
89	0x3b813dce	0.0039441353
90	0xb6c352df	-5.8211003e-06
91	0x3d41c2b6	0.04730483
92	0x351e02e2	5.886378e-07
93	0xbd420834	-0.047371104
94	0xb8b9700c	-8.842358e-05
95	0x3d9ad4a3	0.075600885
96	0xb6f48603	-7.2873677e-06
97	0xbd561cbb	-0.052273493
98	0xb7c83581	-2.3866773e-05
99	0x3a1dd82d	0.00060212874
100	0x3708a7a4	8.145264e-06
101	0xbcf7b4bf	-0.030237554
102	0x38a3ebfa	7.8164e-05
103	0xb798def4	-1.8223633e-05
104	0x39f4e7dc	0.00046712055
105	0xbd612cbc	-0.054974303
106	0x37869354	1.604265e-05
107	0xbcfdde10	-0.030989677
108	0xb7a3bb65	-1.9518377e-05
109	0x3d048633	0.032354545
110	0xb7d85d35	-2.579261e-05
111	0x3d86339f	0.06552815
112	0xb89389f7	-7.035204e-05
113	0x3cd16d79	0.025564896
114	0xb614e2d1	-2.2185743e-06
115	0x3d310a05	0.043222446
116	0xb6b8abe2	-5.503637e-06
117	0x3d31d0ec	0.043412134
118	0xb87b1b8d	-5.9868722e-05
119	0x3ae0a80c	0.0017139926
120	0xb796ce2a	-1.7977396e-05
121	0x3d09aec8	0.03361395
122	0x3788321f	1.6235803e-05
123	0x3ccb46dc	0.024814062
124	0xb85fdaeb	-5.3371226e-05
125	0x3b18c248	0.002330916
126	0x37b1caf6	2.1194555e-05
127	0x3a5abb13	0.0008343916
128	0xbbb8ce95	-0.005639861
129	0xbc6ef4c2	-0.014584722
130	0xba986f73	-0.0011629894
131	0x3d81e1f2	0.06341924
132	0x366c9e17	3.525876e-06
133	0x3d90828e	0.07056151
134	0x38501ef7	4.9619903e-05
135	0x3dbc364c	0.09190044
136	0x389a6d16	7.363611e-05
137	0x3d4f030f	0.050540026
138	0xbc2dae81	-0.010600687
139	0xbbc13440	-0.0058961213
140	0xb7c34f5c	-2.3282766e-05
141	0xbc4aa59f	-0.012368589
142	0xb823561f	-3.8942435e-05
143	0xbc04e2af	-0.008110686
144	0x3bfa4fb2	0.007638895
145	0x3d96969a	0.07352944
146	0x375891ef	1.2908581e-05
147	0x3cb3d2ed	0.021951163
148	0xb826d1b3	-3.977278e-05
149	0xbd4036d4	-0.04692729
150	0xb746de90	-1.1853539e-05
151	0xbdbf6171	-0.09344757
152	0xb8e04c83	-0.00010695404
153	0xbd3f87a5	-0.04676022
154	0x373171f5	1.0576555e-05
155	0x3d6b0ef0	0.057387292
156	0x37d8feff	2.5867948e-05
157	0x3d703f6b	0.05865423
158	0x38ba75da	8.891123e-05
159	0x3da112e4	0.07864931
160	0x379b80b8	1.853738e-05
161	0x3c362de2	0.011119338
162	0xb68bf7d1	-4.1713724e-06
163	0xbbb81c92	-0.00561864
164	0xb5026cf1	-4.8587304e-07
165	0x3ac9a054	0.0015382865
166	0xb60a4f32	-2.06097e-06
167	0xbd93dab3	-0.07219448
168	0xb8917841	-6.936538e-05
169	0x3dbdc313	0.09265723
170	0x37985d3d	1.816323e-05
171	0x3d41eaf9	0.047343228
172	0x370ee734	8.517691e-06
173	0xb9d968c6	-0.00041467528
174	0xb935c335	-0.00017334225
175	0x3bbc5310	0.0057472065
176	0xb916fd4c	-0.00014399475
177	0x3d19ec7c	0.037579045
178	0x38061ade	3.197311e-05
179	0x3c674b74	0.0141171105
180	0xb66a0058	-3.4868917e-06
181	0xbc804a43	-0.01566041
182	0xb7e0fa64	-2.6819478e-05
183	0x3d2f7de9	0.042844687
184	0x395c3b2e	0.00021002881
185	0x3d301c4d	0.04299574
186	0x367a12e0	3.726389e-06
187	0xbdd6271e	-0.1045668
188	0x36f7be7a	7.383348e-06
189	0xbcfa8b89	-0.030584114
190	0x37c17eae	2.3066383e-05
191	0xbda8f359	-0.0824954
192	0x3b689885	0.00354913
193	0xbcaeb130	-0.021324724
194	0x38c3be5b	9.333781e-05
195	0x3df5d7df	0.12004065
196	0x382b9fed	4.091852e-05
197	0x3d0b3931	0.03399009
198	0x37c61442	2.3612873e-05
199	0xbd9fe1e8	-0.0780676
200	0xb792db9f	-1.7506825e-05
201	0x3d0590b0	0.032608688
202	0xb674804e	-3.6433516e-06
203	0x3cfbdff8	0.030746445
204	0xb4911043	-2.7020187e-07
205	0x3c0f3c8d	0.008742464
206	0x3736ad7a	1.0888436e-05
207	0xbc4ce5a0	-0.012505919
208	0xb87dc919	-6.0507187e-05
209	0x3d84d510	0.06485951
210	0x3a1cd07a	0.0005981993
211	0xbd480f73	-0.04884286
212	0xb64cda03	-3.0525268e-06
213	0x3c75c7a6	0.015001213
214	0xb66ca630	-3.5263474e-06
215	0xbd45b542	-0.048268564
216	0x37af2931	2.0880807e-05
217	0xbcceb940	-0.025234818
218	0xb5c4993a	-1.4647733e-06
219	0x3d8cdbff	0.068778984
220	0xb648ede6	-2.9940798e-06
221	0xbc86e583	-0.016466862
222	0x37114a02	8.659905e-06
223	0xbc862310	-0.016374141
224	0x3ba730eb	0.005102267
225	0x3cfec751	0.0311009
226	0x37b8205d	2.194958e-05
227	0x3cde9b73	0.027173733
228	0xb5ef88d2	-1.7846708e-06
229	0x3db6e0ab	0.08929571
230	0x38ec394d	0.0001126403
231	0xbd2597ba	-0.0404279
232	0x378444c5	1.576765e-05
233	0xbdc81d8c	-0.097712606
234	0x36f57021	7.3146225e-06
235	0xbd27eded	-0.040998388
236	0xb73402ed	-1.0729517e-05
237	0x3b123225	0.002230772
238	0x38b2bdd4	8.52306e-05
239	0x3d3f0a19	0.04664049
240	0x3862dccc	5.4088232e-05
241	0xbd10c975	-0.035348374
242	0xb7dcfd37	-2.6343956e-05
243	0xbd493eb2	-0.049132057
244	0xb83b949e	-4.4722685e-05
245	0xbc82687e	-0.015918966
246	0x3835f340	4.3380307e-05
247	0xbcf448b3	-0.029819822
248	0x3908dce2	0.00013052256
249	0x3c8c16ec	0.017100774
250	0xb73cac65	-1.1245812e-05
251	0x3adc32d9	0.0016799822
252	0xb69cf4e8	-4.677673e-06
253	0xba66088c	-0.00087750773
254	0x387a3db1	5.96621e-05
255	0x340a52c0	1.2882356e-07

conv1.lin_r.bias f4 [512]
0	0x3c562262	0.013069721
1	0xbd1f5825	-0.03890242
2	0xbd700026	-0.05859389
3	0x3d93ce9e	0.072171435
4	0xbdb30d50	-0.087427735
5	0x3d140ac4	0.03614308
6	0xba202c0c	-0.0006110079
7	0x3e466080	0.1937275
8	0xbde71f6f	-0.11285292
9	0x3dce0d2e	0.100611076
10	0x3d9aadfe	0.075527176
11	0xbd53e57b	-0.05173252
12	0xb7b8ecf0	-2.2044842e-05
13	0x3d03a312	0.032137938
14	0x3ace3a8c	0.0015734001
15	0x3b9cf778	0.0047902428
16	0xbbe71771	-0.007052355
17	0x3e357d40	0.1772356
18	0xbe489900	-0.19589615
19	0xbe444e76	-0.19170555
20	0x3dbe9798	0.09306258
21	0x3d85b4e3	0.06528642
22	0xbd3d7277	-0.04625174
23	0x3d90443d	0.070442654
24	0x3e36fbb0	0.17869449
25	0xbc21459b	-0.009843255
26	0x3c18fbae	0.009337349
27	0xbd00c99a	-0.031442262
28	0xbdea0ad7	-0.11427849
29	0xbc46c63d	-0.012132225
30	0x3de57943	0.112047695
31	0x39ae5a9a	0.0003325537
32	0x3d24e169	0.04025403
33	0xbe436cc6	-0.19084463
34	0xbd8cabed	-0.0686873
35	0x3d3d88ae	0.046272926
36	0x3e0e77bb	0.13912861
37	0x3db65310	0.08902562
38	0x3cf9e08c	0.03050258
39	0x3e4ef314	0.20209914
40	0x3dec2b26	0.115316674
41	0xbdab8a9f	-0.08376049
42	0xbe44591d	-0.19174619
43	0xbd44ceda	-0.04804883
44	0xbdcb53c0	-0.099280834
45	0x3be05496	0.006846021
46	0x3e33855e	0.17531344
47	0x3d2dea3d	0.042459715
48	0x38f4034b	0.0001163544
49	0xb8e596c2	-0.00010947652
50	0x3e6427fc	0.22280878
51	0xb9a275cf	-0.00030986822
52	0xbde3472c	-0.11097559
53	0xbcdd935d	-0.027047807
54	0xb54579a0	-7.3565207e-07
55	0x3a9814ef	0.0011602918
56	0x3b70bebb	0.0036734778
57	0x3e82ae96	0.25523823
58	0x39826807	0.0002487304
59	0xbb4e9f48	-0.0031528044
60	0xbe3444c3	-0.17604356
61	0x3e02bffc	0.12768549
62	0x3d5251b0	0.051347435
63	0x3e09101b	0.1338505
64	0x3e303590	0.17207932
65	0xbd8a8ed1	-0.06765521
66	0x3de0ac4d	0.10970364
67	0x3bcd87df	0.0062723006
68	0xbe27258a	-0.16322914
69	0x3dee2975	0.11629001
70	0x3e02c270	0.12769485
71	0x3ddfabe8	0.109214604
72	0x3d6a4e9e	0.05720388
73	0xbd38a826	-0.045082234
74	0x3db30837	0.08741801
75	0xbd7f7e0a	-0.06237606
76	0xbdc7dec5	-0.09759287
77	0xbe582e94	-0.21111518
78	0x3e9d29d2	0.3069597
79	0x38c2b072	9.2835064e-05
80	0xbdbec4d3	-0.09314885
81	0xbd306592	-0.043065615
82	0xbe92fbc7	-0.28707716
83	0x3d312da6	0.043256424
84	0xbd430d88	-0.047620326
85	0xbe0d7e17	-0.1381763
86	0xbe894909	-0.26813534
87	0xbd3bc442	-0.045841463
88	0xbb93f04a	-0.0045147287
89	0x3e7b3de7	0.24535333
90	0x3d391e63	0.045194995
91	0xbd51aa43	-0.051187765
92	0xbda7c86b	-0.081925236
93	0x3e40a9f5	0.18814833
94	0x3c0c6c06	0.008570677
95	0x3df70ffb	0.12063595
96	0xbce0c116	-0.02743582
97	0x3e5b8ab3	0.21439628
98	0xbb93212e	-0.0044900393
99	0xbe113424	-0.14180046
100	0xbd9d3ea6	-0.07677965
101	0xbd7fbdf6	-0.06243702
102	0x3d6c1af1	0.05764288
103	0x3d76ada3	0.060224187
104	0x3c3a2a64	0.011362646
105	0x3ddf81ec	0.109134525
106	0x3e9e3e46	0.30906886
107	0x3d92bdbe	0.07165097
108	0x3d1bbdda	0.038022853
109	0x3e187c1c	0.14891094
110	0x3ccdaa27	0.025105549
111	0xbe2bbccc	-0.16771239
112	0x3eab047e	0.33401865
113	0x3d2a5497	0.041584577
114	0xbe32cc83	-0.17460828
115	0xbe222784	-0.15835387
116	0x3d0a792e	0.033806972
117	0x3e9a5ce6	0.30149
118	0x3eb46b4b	0.35238108
119	0xbea4c64f	-0.32182547
120	0xbdcb4c71	-0.099266894
121	0xbda570e1	-0.080781706
122	0x3cb28a8c	0.02179458
123	0xbd7ff4e5	-0.06248941
124	0xbe3202e2	-0.17383912
125	0xbe481089	-0.19537558
126	0xbe9ec5f8	-0.31010413
127	0x3e94708b	0.28992113
128	0x3daa36f9	0.083112665
129	0x3b0b74b6	0.0021279282
130	0x3e62ed77	0.22160898
131	0x3dd1a22f	0.10236012
132	0x3d0ac0b6	0.03387519
133	0x3e57c333	0.21070556
134	0xbea77f2a	-0.32714206
135	0xbe6f9ceb	-0.23399703
136	0xbd378caa	-0.044811882
137	0xbeab9e1f	-0.33519074
138	0x3be1fe4c	0.0068967696
139	0xbe1785f0	-0.14797187
140	0xbea2e9f7	-0.31819126
141	0xbe0bfff1	-0.13671853
142	0xbe38eac1	-0.18058302
143	0x37b18da0	2.1165994e-05
144	0x3d29bb73	0.04143853
145	0x3e770dff	0.24126433
146	0xbda3c5b1	-0.07996691
147	0xbe6d52cb	-0.23176114
148	0xbdd738b5	-0.10508863
149	0xbc2db170	-0.010601386
150	0xbc81ce28	-0.015845373
151	0x3eb9628f	0.36208007
152	0x3d0064ba	0.03134606
153	0xbbabc83f	-0.005242377
154	0xbd0ee455	-0.034885723
155	0x3d1e64f5	0.0386705
156	0x3cf89a3d	0.030346984
157	0x3e164bec	0.146774
158	0xbc398e15	-0.011325379
159	0xbe41f7e2	-0.18942216
160	0xbe7ad896	-0.24496683
161	0x389e31a9	7.543277e-05
162	0x3e14afa4	0.14520127
163	0x3d34b9be	0.04412245
164	0x3ceaeb00	0.02867651
165	0xbd9f9cf5	-0.07793609
166	0xbe6fff1a	-0.23437157
167	0x3e60692d	0.21915121
168	0xbd24e06d	-0.04025309
169	0x3e70edd0	0.23528218
170	0xbda25808	-0.07926947
171	0xbe01bb9a	-0.1266922
172	0xbd4828fa	-0.048867203
173	0xbd41e7ea	-0.04734031
174	0xbe88f074	-0.2674595
175	0x3d2ad441	0.041706327
176	0x3e5a3fc7	0.21313392
177	0x3ce95416	0.028482478
178	0x3a259da5	0.00063177414
179	0x3e94beba	0.29051763
180	0x3a60f832	0.0008581906
181	0xbeb61c4f	-0.35568473
182	0xbd098a23	-0.033579003
183	0xbe850ec6	-0.25987834
184	0x3e0d0dee	0.13774845
185	0xbdcc922f	-0.0998882
186	0xbe2aec75	-0.16691764
187	0x3d7f4275	0.062319238
188	0x3eb73bf5	0.3578793
189	0x3ea09963	0.31367025
190	0xbe23d7b6	-0.16000256
191	0x3e3901c0	0.18067074
192	0x3e33bef4	0.17553312
193	0xbb9a92da	-0.004717213
194	0xbe04fefb	-0.12987892
195	0xbdf26fc0	-0.11837721
196	0x3e679ed0	0.22619176
197	0xbe1cfccd	-0.15330811
198	0x3db6b74f	0.08921682
199	0x3ba2f426	0.0049729524
200	0x3e784cf7	0.2424811
201	0x3d5b4766	0.053534888
202	0xbe5fcf22	-0.21856359
203	0x3c9b8435	0.01898394
204	0x3e123b53	0.14280443
205	0x3e60907c	0.21930116
206	0x3e7deb2a	0.24796739
207	0x3e266748	0.16250336
208	0x3dd0e480	0.10199833
209	0x3c9b2d14	0.018942393
210	0x3e07d539	0.13264932
211	0xbe1ac8ec	-0.15115708
212	0x3c746507	0.014916665
213	0xbe8b5562	-0.2721358
214	0xbddb0e4e	-0.10696088
215	0xbdfb1de5	-0.12261561
216	0x3d952d78	0.07284063
217	0xbd112d4a	-0.03544358
218	0xbdb84a2c	-0.08998522
219	0x3e290bac	0.16508359
220	0xbd90f428	-0.07077819
221	0x3d3c8bb8	0.046031684
222	0xbbcc8482	-0.006241382
223	0xbe9873fd	-0.29775992
224	0xbb871c85	-0.004123273
225	0x3e4b4f3f	0.19854449
226	0xbe9b7e9c	-0.30370033
227	0xbe750435	-0.23927386
228	0xbe221083	-0.15826611
229	0xbdb7fdb3	-0.08983936
230	0x3e91d9d6	0.28486508
231	0x3db0efa0	0.08639455
232	0xbe9dc78d	-0.30816308
233	0x3bc490e3	0.005998717
234	0xbcbc868d	-0.023013378
235	0xbe35cbf0	-0.17753577
236	0xbd9fc4dd	-0.078012206
237	0x3eaa164e	0.33220142
238	0x3da6ec0c	0.08150491
239	0xbe375db2	-0.17906836
240	0x3e4e6b91	0.20158221
241	0x3e8f7e77	0.28026173
242	0xbda98460	-0.08277202
243	0xbe648a1e	-0.22318313
244	0xbe70420b	-0.23462693
245	0x3c689e39	0.0141978795
246	0x39a87f7f	0.0003213845
247	0x3dbe42ea	0.092901066
248	0x3e74acfc	0.23894113
249	0x3de36e82	0.11105062
250	0xbdf673f5	-0.12033836
251	0x3e3dbd0e	0.1852915
252	0xbbdaa7b0	-0.006672822
253	0x3e784a95	0.24247201
254	0xbda38c4c	-0.07985744
255	0xbe8a1ccd	-0.26975098

conv2.att f4 [1, 1, 64]
0	0x3debb4b8	0.11509079
1	0x3d554a78	0.052072972
2	0xbd956f72	-0.07296647
3	0x3d62a62f	0.055334266
4	0xbd009d99	-0.031400297
5	0x3e0701ff	0.13184355
6	0xbdb3a63f	-0.08771943
7	0x3e748289	0.2387792
8	0xbe86fbc7	-0.26363966
9	0xbe126b45	-0.14298733
10	0xbdfa65fb	-0.122264825
11	0x3e593420	0.2121129
12	0xbd873d4d	-0.06603489
13	0x3e7f8b01	0.2495537
14	0xbe221f2e	-0.15832207
15	0xbcf3ab20	-0.029744685
16	0xbd5054e6	-0.050862215
17	0x3e0b0f88	0.13580143
18	0xbcfac4ad	-0.03061136
19	0xbe90fb58	-0.2831676
20	0xbd6146aa	-0.05499903
21	0x3e74e684	0.2391606
22	0xbdd5c190	-0.1043731
23	0x3e1e19ef	0.1543958
24	0x3a7c577d	0.0009626074
25	0x3dfb9d79	0.12285895
26	0xbe47d85b	-0.19516127
27	0x3e043fb5	0.12914927
28	0x3dbc5e33	0.091976546
29	0xbe715e5a	-0.23571149
30	0xbd46311f	-0.04838669
31	0xbe0984e2	-0.13429597
32	0xbe4a892b	-0.19778888
33	0x3e70f003	0.23529057
34	0x3d18eea6	0.037336968
35	0xbd83c75a	-0.06434508
36	0xbe79bf22	-0.24389318
37	0xbc139343	-0.009007278
38	0xbe4f4fa2	-0.20245221
39	0xbe9b0989	-0.30280712
40	0xbd864eb2	-0.06557979
41	0x3d67f71a	0.05663214
42	0x3dafb69f	0.08579754
43	0x3e6527f3	0.2237852
44	0xbe2d1414	-0.1690219
45	0xbe7171cd	-0.23578568
46	0xbdd3dbd6	-0.10344665
47	0x3e701afb	0.23447792
48	0xbe7cb298	-0.24677503
49	0x3e16758e	0.14693281
50	0x3e36e362	0.17860177
51	0x3ded2c39	0.115807004
52	0x3d13ab7e	0.03605222
53	0xbdb5fcbb	-0.08886095
54	0xbe9674e3	-0.29386052
55	0xbdb81022	-0.08987452
56	0xbd8b1662	-0.067913786
57	0x3d8b07b1	0.067885764
58	0xbd041c04	-0.03225328
59	0xbea69f39	-0.32543352
60	0xbe01aa19	-0.12662543
61	0x3e1fd715	0.15609391
62	0xbe8dbc18	-0.27682567
63	0xbda39572	-0.07987489

conv2.bias f4 [64]
0	0x3d09b6b6	0.033621512
1	0x3d79cd16	0.0609866
2	0xbb9289a4	-0.0044719744
3	0x3cb6bb2a	0.022306044
4	0x3b41ef3c	0.0029592058
5	0x3c6254b4	0.01381414
6	0x3b05aa48	0.0020395685
7	0x3b15cdf6	0.0022858358
8	0xbcc095e1	-0.023508968
9	0xbcf9e796	-0.030505937
10	0x3b077e42	0.002067462
11	0xbc39c20c	-0.011337768
12	0x3c03541e	0.008015661
13	0xbcfce861	-0.030872526
14	0x3c8005c2	0.015627746
15	0x3b568e46	0.003273861
16	0xbc969b18	-0.018384501
17	0xbc9fcc54	-0.01950661
18	0xbbd20a67	-0.0064099315
19	0x3baf68b9	0.00535306
20	0xbb63f7c5	-0.0034785133
21	0x3cfce191	0.030869277
22	0xbbc5090e	-0.0060130423
23	0x3ca7a0a9	0.02046235
24	0xba0b9eb6	-0.0005326079
25	0x3d0a5f5d	0.03378235
26	0x3c8736e9	0.016505675
27	0xbbdaa367	-0.006672311
28	0xbcc1496b	-0.023594579
29	0x3bd7e8dc	0.0065890383
30	0xbbc1705e	-0.005903288
31	0x3be38a92	0.006944009
32	0x3db7c186	0.089724585
33	0x3c61a102	0.013771297
34	0x3d1c401b	0.038147073
35	0x3c78a8aa	0.015176931
36	0xbe03912c	-0.12848347
37	0x3cc5decf	0.024154095
38	0x3cad633a	0.021165479
39	0xb984bbf4	-0.00025317038
40	0xbc024090	-0.007949963
41	0x3a09ce99	0.00052569207
42	0x3bcc1238	0.006227758
43	0x3d439c0f	0.04775625
44	0x3a25b731	0.0006321548
45	0xba82e965	-0.000998777
46	0xbd6521c5	-0.05594041
47	0xb8a24ce2	-7.7390825e-05
48	0xbc1534b3	-0.009106803
49	0xbb925ff7	-0.0044670063
50	0xb91618e4	-0.00014314387
51	0xbb862d27	-0.004094738
52	0xbc5a47f9	-0.013322824
53	0xbc03c125	-0.008041655
54	0x3b5a3f07	0.0033301727
55	0xbc53dc03	-0.012930873
56	0x3c3d40dd	0.011551109
57	0xbc161165	-0.009159421
58	0x3c24dfb8	0.010063104
59	0x3c819dbf	0.01582229
60	0xbc969f4c	-0.018386506
61	0xbae2a0d7	-0.0017290366
62	0x3d231b75	0.039821107
63	0x3d545a16	0.051843725
