models/best_model.pt (torch, 78114 bytes, 12 tensors)

conv1.att f4 [1, 8, 64]
-0.23203483 -0.1045878 0.087444164 -0.06627589 -0.0324784 0.28495067 -0.102299154 -0.22621445
-0.26765442 0.14984208 0.2401331 0.09414622 0.009512185 0.1301668 0.024535947 -0.043041483
-0.07101009 0.10355855 -0.01348827 -0.12744424 -0.16942811 -0.040791854 0.29421034 -0.12907094
-0.22030452 -0.24544047 0.2217784 0.20913611 0.24692315 -0.21223745 -0.033243492 -0.0052373377
0.016513027 -0.24776709 -0.27060455 -0.19467068 0.18092872 0.17719004 -0.06580059 0.0539066
0.12716715 -0.108109996 -0.086289346 -0.18947428 -0.27221543 0.2058127 0.23554313 0.23179407
0.041458067 0.21737842 -0.2650261 0.1824127 0.07297489 0.11244882 -0.17787395 -0.2821459
0.24569745 -0.08486914 -0.12952012 -0.09821917 -0.116519295 0.17620476 0.23665251 -0.20793803
0.14912409 -0.19542734 -0.071483016 -0.029247507 0.08723426 0.10290892 -0.104565546 0.072883315
-0.2575471 -0.12495153 0.14715952 0.0038716556 -0.25131282 -0.13216151 -0.16728167 -0.065901384
-0.19578585 -0.31799307 -0.022714647 0.031136282 -0.20791318 -0.098914966 0.23721561 -0.19541265
0.18762213 0.12378973 0.08920857 0.16382946 0.058389 -0.19528952 0.1074631 0.14215636
-0.0912188 -0.28127563 0.20925437 -0.24584165 -0.13543682 -0.0606107 0.21918382 0.14982161
-0.066418506 0.08049257 0.0147907715 0.18794061 -0.15753905 -0.21912292 -0.11506792 -0.21342604
-0.22192466 0.04410041 -0.014786342 0.1980956 -0.06278218 0.24064396 -0.012597541 0.13766718
-0.078499034 0.02814543 -0.22363757 -0.12869288 -0.23273432 -0.22338885 -0.2879196 0.10083927
-0.24043104 -0.119025715 -0.2031727 -0.14125964 -0.064659186 -0.11932072 -0.285401 -0.1327866
0.009466383 -0.21395423 0.15382816 -0.13407151 -0.12245108 -0.10318409 -0.23890744 -0.26078194
-0.13820852 0.24873082 -0.2038377 -0.22505829 -0.18923296 -0.0636273 -0.18801782 -0.19406727
-0.077214636 0.05325385 -0.16818622 -0.09057322 -0.26252902 -0.050039556 0.24198033 -0.18159427
-0.10382629 0.0998301 0.01722126 0.17036268 0.24796318 -0.1502348 0.20145422 0.28944096
0.22413881 -0.10317546 -0.2792001 0.21486905 0.07949349 -0.2623015 0.1526254 0.00039269472
0.02587415 -0.15843399 -0.21159905 0.045261633 -0.13978097 -0.22692263 -0.22758752 0.099803604
-0.15027346 -0.26538056 0.0808409 0.079670295 -0.21666433 -0.20534864 0.025432494 0.19290529
-0.1226029 0.06806279 0.13402908 0.16032405 -0.020115953 -0.32867634 -0.22859338 0.068700686
0.10035339 -0.29591084 0.20609418 0.046987582 -0.08889593 0.08066145 0.07546021 0.22515535
0.110238746 -0.17848498 -0.05556804 0.1636972 -0.09026908 0.07512173 -0.06212617 -0.14972897
0.24154563 0.19446233 -0.11565225 -0.23329753 0.13679011 0.22731057 0.2541324 0.15077983
-0.29304975 0.15925916 -0.2114933 -0.0061390465 0.13294873 0.052126393 -0.15094545 -0.14785115
0.2009355 0.05503702 0.17702223 0.21274665 0.086530685 -0.18459076 0.2245058 0.08881184
-0.18023147 0.17099948 -0.2711446 0.2506824 -0.08379202 0.22781554 0.21298681 0.051589552
-0.16018574 0.24148317 -0.21988219 -0.11597752 -0.24597767 0.004318128 0.17882116 -0.21004188
00000000: 8a9a 6dbe 2132 d6bd ed15 b33d a7bb 87bd
00000010: 1208 05bd 0ee5 913e 3882 d1bd c3a4 67be
00000020: 000a 89be 3470 193e 74e5 753e bccf c03d
00000030: ffd8 1b3c 724a 053e 9cff c83c 444c 30bd
00000040: bd6d 91bd 8116 d43d e8fd 5cbc be80 02be
00000050: 907e 2dbe 5c15 27bd bda2 963e 2c2b 04be
00000060: 8297 61be bf54 7bbe e019 633e c727 563e
00000070: 6cd9 7c3e c654 59be 542a 08bd f99d abbb
00000080: 5446 873c a8b6 7dbe ae8c 8abe c057 47be
00000090: 6145 393e 4e71 353e 76c2 86bd 2bcd 5c3d
000000a0: 1b38 023e c668 ddbd 78b8 b0bd 8c05 42be
000000b0: d25f 8bbe 90c0 523e 3832 713e 6d5b 6d3e
000000c0: efcf 293d 7398 5e3e 80b1 87be 65ca 3a3e
000000d0: dc73 953d 914b e63d 9724 36be 6d75 90be
000000e0: 1d98 7b3e dfcf adbd eca0 04be 2227 c9bd
000000f0: aba1 eebd 056f 343e 0955 723e b5ed 54be
00000100: fcb3 183e 1b1e 48be b065 92bd 7898 efbc
00000110: e0a7 b23d e9c1 d23d 7626 d6bd d943 953d
00000120: 37dd 83be 96e6 ffbd fcb0 163e 9abb 7d3b
00000130: 13ac 80be 5955 07be e34b 2bbe 4ef7 86bd
00000140: 167c 48be fdcf a2be 1114 babc 8411 ff3c
00000150: 31e7 54be ee93 cabd a6e8 723e 411a 48be
00000160: 0420 403e 7885 fd3d fcb2 b63d e9c2 273e
00000170: 4e29 6f3d faf9 47be 9d15 dc3d 7091 113e
00000180: ecd0 babd 5c03 90be c746 563e eabd 7bbe
00000190: f3af 0abe ed42 78bd b971 603e d66a 193e
000001a0: 6d06 88bd 4ad9 a43d fe54 723c 8173 403e
000001b0: eb51 21be c261 60be bba8 ebbd 5b8c 5abe
000001c0: 3840 63be a2a2 343d 6a42 72bc 93d9 4a3e
000001d0: f293 80bd 5f6b 763e eb65 4ebc a0f8 0c3e
000001e0: 1ac4 a0bd 3f91 e63c 3f01 65be 11c8 03be
000001f0: e851 6ebe 0cc0 64be 336a 93be d284 ce3d
00000200: 8e33 76be c1c3 f3bd 810c 50be 5ea6 10be
00000210: 096c 84bd 6c5e f4bd 1420 92be 36f9 07be
00000220: e318 1b3c d116 5bbe 2185 1d3e 0b4a 09be
00000230: a2c7 fabd 2e52 d3bd 27a4 74be 3685 85be
00000240: 8986 0dbe 4bb3 7e3e d4ba 50be ae75 66be
00000250: 49c6 41be 084f 82bd be87 40be 92b9 46be
00000260: b522 9ebd b620 5a3d 0239 2cbe 747e b9bd
00000270: 346a 86be 47f6 4cbd b1c9 773e d9f3 39be
00000280: e1a2 d4bd b973 cc3d 9a13 8d3c 8e73 2e3e
00000290: 0fea 7d3e 27d7 19be 044a 4e3e 9b31 943e
000002a0: a584 653e a84d d3bd 51f3 8ebe a206 5c3e
000002b0: 7ccd a23d 624c 86be d549 1c3e 98e2 cd39
000002c0: 07f6 d33c 853c 22be 6cad 58be 4364 393d
000002d0: be22 0fbe 685e 68be b40c 69be d565 cc3d
000002e0: 49e1 19be f6df 87be ea8f a53d 2e2a a33d
000002f0: 41dd 5dbe ea46 52be ce57 d03c f788 453e
00000300: 3b17 fbbd 8164 8b3d eb3e 093e fd2b 243e
00000310: 36ca a4bc 4448 a8be 6214 6abe f2b2 8c3d
00000320: 1486 cd3d a081 97be 5a0a 533e 0d76 403d
00000330: 120f b6bd d531 a53d e28a 9a3d 208f 663e
00000340: dac4 e13d c4c4 36be 509b 63bd 3da0 273e
00000350: ffde b8bd 6cd9 993d 0378 7ebd 8d52 19be
00000360: bd57 773e 2221 473e 16db ecbd 8ce5 6ebe
00000370: b512 0c3e 1ac4 683e a41d 823e 0766 1a3e
00000380: 9e0a 96be d514 233e b391 58be 0e2a c9bb
00000390: b623 083e 7c82 553d 7291 1abe 4b66 17be
000003a0: 09c2 4d3e 806e 613d 5145 353e 42da 593e
000003b0: 0037 b13d 5c05 3dbe d9e4 653e fbe2 b53d
000003c0: 998e 38be 7d1a 2f3e 77d3 8abe 7259 803e
000003d0: 279b abbd 7a48 693e 3719 5a3e 914f 533d
000003e0: bb07 24be 5d47 773e cc28 61be 9f85 edbd
000003f0: 92e1 7bbe 157f 8d3b e51c 373e 3815 57be

conv1.bias f4 [512]
-0.08946679 -0.08420853 -0.045625307 -0.08249237 -0.014617052 0.08671555 0.06136089 -0.073074766
0.036285747 -0.115074955 0.037851278 -0.09430756 -0.07328559 0.016964896 0.0826621 -0.07947853
-0.12257248 0.0077649252 -0.057741173 -0.06591296 0.022639465 -0.13367338 0.08618707 -0.08405631
0.10394723 0.041163467 -0.06523879 0.112345785 -0.09295364 0.109242454 0.09211036 -0.046769235
0.0021233836 0.07894638 -0.042869274 0.035011906 0.11096518 -0.066446275 0.08387239 0.09110547
-0.0030663752 0.079402305 -0.096238516 -0.031022135 -0.07190145 0.096008465 -0.0756206 0.1190141
-0.07410601 -0.031074079 -0.08632355 -0.082541354 -0.058544036 0.097434565 -0.12616101 0.060691733
0.080676205 -0.018921636 0.06437903 -0.063974075 0.089350164 -0.10840181 0.10544717 -0.074068524
-0.081544906 0.06576466 -0.054310557 0.069385156 -0.034063607 0.031063005 0.062881194 0.04568236
-0.0943348 -0.06728475 -0.088759705 -0.048695777 0.07112 -0.079490066 0.030181753 -0.095430665
-0.08738844 0.08631724 -0.086329125 0.0453134 0.059787642 -0.09921483 -0.016083777 0.0921967
-0.06122557 0.059351455 0.062213916 0.099424526 -0.07603189 -0.09173881 -0.08042215 -0.024455702
0.12001382 0.046947908 -0.09216844 -0.08792938 0.06629197 -0.08097156 -0.07541673 0.050610017
0.044001214 -0.004657355 0.072081834 -0.09344727 -0.039874375 0.003296234 -0.07882096 -0.097038984
0.04581904 -0.07911167 0.08917157 -0.08344082 -0.06730373 0.05687875 0.06657904 -0.02217614
-0.0949284 0.07501811 0.071415946 -0.08308669 -0.09747088 0.07150619 -0.0634003 0.08826092
-0.093125425 -0.0683649 0.08537359 -0.06434736 -0.04205067 -0.114495665 -0.07456237 -0.05017676
0.0703687 -0.09950209 0.07348933 -0.091834426 0.052739337 0.050705254 -0.09579263 -0.08812348
-0.017664254 -0.096600324 -0.09633437 0.07600057 0.070223376 -0.0775334 -0.0716365 0.07675085
-0.095215775 -0.02321274 0.07563612 0.066142336 -0.08515849 -0.06417549 0.018238632 -0.11981171
0.049377497 -0.08955054 0.08261417 0.019712415 -0.059138 0.058325384 -0.094164275 0.062337913
0.05527492 0.06637156 0.073241 -0.11613392 -0.11935656 -0.08179181 0.07408405 -0.06914051
0.09892252 0.0003164902 0.052943006 -0.089379795 0.017684193 -0.08430991 -0.0921459 0.07127576
0.06761771 -0.05477621 0.09117157 0.041532557 0.06749536 0.06414811 0.029907608 0.05866132
0.025012217 0.04695664 0.10015896 -0.063567586 -0.006144169 -0.10038818 0.027438508 -0.08682159
-0.085786305 0.100155644 -0.087230176 -0.083113685 0.12137869 0.05190184 -0.1251078 -0.075704716
-0.077102795 -0.055101097 -0.09868069 -0.07573904 0.08300316 -0.08684887 -0.022406591 -0.0755529
0.054512326 0.10125015 -0.084657334 -0.07952312 -0.0031924527 0.053782724 0.084262714 0.099557936
-0.097192146 -0.09380619 0.0077310475 -0.0707516 0.08244698 0.017022084 -0.122337595 0.09194725
-0.08979576 -0.10726039 -0.094496496 0.08295929 -0.1093874 0.03215852 0.047521897 -0.09535669
0.047655724 0.09454039 -0.056165464 0.026550438 -0.05401912 -0.11889265 -0.0919642 -0.11717333
0.040523525 0.1073565 -0.07228618 -0.07805653 -0.011275893 0.106947795 -0.04143153 -0.102828726
00000000: 5d3a b7bd 8675 acbd 9ae1 3abd c2f1 a8bd
00000010: 5c7c 6fbc ec97 b13d 8e55 7b3d 39a8 95bd
00000020: 5da0 143d 6bac ebbd f109 1b3d 5224 c1bd
00000030: c116 96bd f7f9 8a3c bf4a a93d a4c5 a2bd
00000040: 4807 fbbd ea70 fe3b 0282 6cbd 60fd 86bd
00000050: 6676 b93c ade1 08be d982 b03d b725 acbd
00000060: 49e2 d43d 069b 283d ea9b 85bd 8c15 e63d
00000070: 7a5e bebd 82ba df3d 5ba4 bc3d 1991 3fbd
00000080: 7728 0b3b a4ae a13d b197 2fbd a568 0f3d
00000090: b641 e33d fc14 88bd 4ac5 ab3d 8195 ba3d
000000a0: 3df5 48bb ad9d a23d b318 c5bd 2222 febc
000000b0: 1141 93bd 16a0 c43d f9de 9abd aabd f33d
000000c0: e4c4 97bd 118f febc 67ca b0bd 710b a9bd
000000d0: dfcb 6fbd c68b c73d 5a30 01be e597 783d
000000e0: 9139 a53d 8c01 9bbc 27d9 833d d704 83bd
000000f0: 38fd b63d c501 debd b0f4 d73d 3db1 97bd
00000100: 0401 a7bd 9faf 863d bf74 5ebd ce19 8e3d
00000110: 4886 0bbd d877 fe3c dbc7 803d 6d1d 3b3d
00000120: 9b32 c1bd 96cc 89bd a6c7 b5bd 3975 47bd
00000130: 5da7 913d b0cb a2bd b93f f73c 2771 c3bd
00000140: b6f8 b2bd 18c7 b03d 53cd b0bd 8b9a 393d
00000150: e3e3 743d 2531 cbbd 20c2 83bc a0d1 bc3d
00000160: aac7 7abd 831a 733d 05d4 7e3d 169f cb3d
00000170: 9cb6 9bbd 8fe1 bbbd 5eb4 a4bd 5357 c8bc
00000180: cec9 f53d 734c 403d cfc2 bcbd 5214 b4bd
00000190: 16c4 873d 6bd4 a5bd 1674 9abd 734c 4f3d
000001a0: 9e3a 343d ba9c 98bb a49f 933d 4861 bfbd
000001b0: 5053 23bd a105 583b e26c a1bd 60bc c6bd
000001c0: bfac 3b3d 4d05 a2bd 969f b63d 05e3 aabd
000001d0: 8ad6 89bd b1f9 683d 975a 883d bdaa b5bc
000001e0: d269 c2bd 18a3 993d 8642 923d 5b29 aabd
000001f0: d09e c7bd d671 923d 04d8 81bd 24c2 b43d
00000200: 8bb8 bebd e602 8cbd 59d8 ae3d 8cc8 83bd
00000210: 533d 2cbd b47c eabd 28b4 98bd 2586 4dbd
00000220: 771d 903d c0c7 cbbd 9381 963d b013 bcbd
00000230: 3405 583d 50b0 4f3d ed2e c4bd 157a b4bd
00000240: a0b4 90bc 64d6 c5bd f44a c5bd 30a6 9b3d
00000250: 46d1 8f3d d5c9 9ebd 28b6 92bd 8d2f 9d3d
00000260: 7d00 c3bd a528 bebc 1ce7 9a3d a275 873d
00000270: 9367 aebd 706e 83bd 2f69 953c d85f f5bd
00000280: 0f40 4a3d 4666 b7bd 9e31 a93d ee7b a13c
00000290: b03a 72bd 99e6 6e3d 33d9 c0bd 0a56 7f3d
000002a0: f467 623d d0ed 873d 61ff 953d 9fd7 edbd
000002b0: 3671 f4bd 7782 a7bd 61b9 973d 8a99 8dbd
000002c0: e497 ca3d 98ee a539 c4da 583d c10c b7bd
000002d0: 71de 903c adaa acbd fdb6 bcbd 07f9 913d
000002e0: 277b 8a3d 055d 60bd 29b8 ba3d 0b1e 2a3d
000002f0: 023b 8a3d 1660 833d cd00 f53c da46 703d
00000300: 6ce6 cc3c 9b55 403d 2420 cd3d b92f 82bd
00000310: 0655 c9bb 5198 cdbd b9c6 e03c 85cf b1bd
00000320: bbb0 afbd 671e cd3d bca5 b2bd 8237 aabd
00000330: 6495 f83d 0697 543d 421c 00be 130b 9bbd
00000340: 12e8 9dbd b0b1 61bd 1a19 cabd 121d 9bbd
00000350: 90fd a93d d2dd b1bd 078e b7bc 7bbb 9abd
00000360: 5148 5f3d 3d5c cf3d d360 adbd 04dd a2bd
00000370: 7838 51bb 464b 5c3d ee91 ac3d 08e5 cb3d
00000380: ad0c c7bd 761d c0bd ba54 fd3b 37e6 90bd
00000390: f6d9 a83d e671 8b3c 228c fabd d74e bc3d
000003a0: d7e6 b7bd 56ab dbbd 6187 c1bd 8fe6 a93d
000003b0: 8006 e0bd a7b8 033d 52a6 423d 5e4a c3bd
000003c0: a632 433d 649e c13d c20d 66bd 4e80 d93c
000003d0: 2743 5dbd fd7d f3bd ba57 bcbd 92f8 efbd
000003e0: fffb 253d badd db3d c70a 94bd 1adc 9fbd
000003f0: 86be 38bc 7207 db3d 1cb4 29bd de97 d2bd

conv1.lin_l.weight f4 [512, 8]
0.03450713 -0.034832526 -0.18067598 0.02715284 -0.104258075 -0.009599892 0.037910134 -0.04557836
0.33935568 -0.06874317 -0.20197475 0.007016123 -0.1333521 -0.20689076 0.009163613 -0.107560284
0.10215141 0.0123934755 0.048148405 5.4673783e-05 0.038844127 -0.044047955 0.013457718 -0.041280713
0.13206616 0.024374269 -0.17144197 0.04050368 -0.15607613 0.0044805356 -0.042950757 0.0032691404
0.06421378 -0.022740314 0.121515304 -0.007893163 0.05675631 0.035751842 0.010818764 0.0011688012
-0.1760775 -0.060903758 -0.014166092 -0.044782773 -0.018178198 -0.009122989 -0.026328271 0.08259011
-0.16920303 -0.07710347 0.2592201 -0.065630965 0.120725915 -0.050206162 0.0074789184 0.022049952
0.19101667 -0.027719986 -0.011036235 0.034572203 -0.12266031 -0.05716533 -0.011849199 -0.14376254
-0.037286956 0.019780334 0.19034147 -0.0036893848 0.14684728 -0.02916198 0.044442907 -0.019951954
-0.029224021 -0.12121373 -0.047222763 0.03547773 -0.07285791 -0.12530538 -0.066949934 -0.032659475
-0.073132075 -0.085631795 -0.025205506 0.043798495 -0.08464105 0.0033829522 0.0058745886 0.0050109406
0.09817959 -0.006310859 -0.16320533 -0.011694688 -0.15340608 -0.043064073 0.0011219496 0.06144297
0.19957496 0.005050832 -0.24240248 0.008836993 -0.14852776 0.038121276 0.0030850691 -0.10842883
-0.038896896 -0.014613451 -0.13539028 -0.045007206 -0.06942364 0.015958227 0.058364864 -0.018082991
-0.4118882 -0.064541124 0.29237974 -0.061273836 0.22125451 -0.033377007 0.0012763273 -0.008227946
0.3288962 0.019703867 -0.24540785 0.012176542 -0.10422887 0.022553813 -0.04496 0.04014689
0.3533721 -0.07920657 -0.30956742 -0.07791306 -0.13419239 0.0022854302 0.027523424 0.005065615
0.10547738 -0.10695131 0.013801123 0.0049637808 -0.008892697 -0.025267027 0.059554085 -0.0727165
0.07782151 0.014950354 -0.17232184 0.008897363 -0.0716618 0.014283552 -0.0087253535 -0.0026928666
-0.0036535175 -0.054642815 -0.18922603 0.021099012 -0.0855356 -0.024715237 -0.08378442 0.0004675386
-0.12330629 -0.05466622 0.16856475 0.036700156 0.0938324 -0.043735363 0.06362959 0.010567393
0.20967036 -0.00019975804 -0.08969828 0.00045693177 -0.056923687 0.09667558 0.013024447 0.068236046
-0.28412968 -0.10603953 0.29068848 -0.059737127 0.12976865 -0.08822335 0.08984486 0.02329394
0.31001997 0.033157375 -0.21885228 -0.1440832 -0.18282256 0.06077483 -0.025248075 -0.047553845
-0.38355577 -0.03493411 0.24273667 -0.04360564 0.12758625 -0.00673796 -0.010281562 0.0020481502
-0.15773512 0.022346428 0.29939637 0.036789563 0.21025383 -0.059648085 0.028899876 0.049827468
0.10014841 -0.0072598313 -0.19049533 -0.025949733 -0.0508426 -0.03381596 -0.012605715 -0.016764818
-0.0067455866 -0.007284508 0.107255936 0.00806754 0.12828864 0.023324292 0.043998953 -0.0095598735
0.16563071 0.028185712 -0.16855212 0.0025125025 -0.066508636 0.02674928 0.009552474 -0.033752635
-0.11482328 -0.011834841 0.097592086 0.018535765 0.05563142 0.030360388 0.077121384 0.00040139956
-0.2222378 0.024820775 0.33717167 -0.08170695 0.21725683 0.07345169 0.001185888 -0.04652714
0.11219272 -0.00040135125 -0.079826094 -0.008095181 -0.07304866 0.083566085 0.020333694 0.013907527
00000000: 5957 0d3d 8dac 0ebd 2003 39be a26f de3c
00000010: 4285 d5bd de48 1dbc a847 1b3d 60b0 3abd
00000020: 07c0 ad3e 38c9 8cbd 78d2 4ebe 81e7 e53b
00000030: 748d 08be 2cdb 53be fb22 163c 9148 dcbd
00000040: c234 d13d 010e 4b3c 4337 453d 8751 6538
00000050: 051b 1f3d a16b 34bd c37d 5c3c f715 29bd
00000060: 5a3c 073e 8cac c73c 7c8e 2fbe 30e7 253d
00000070: 6cd2 1fbe 75d1 923b 22ed 2fbd 133f 563b
00000080: 8482 833d e549 babc 04dd f83d 5352 01bc
00000090: 4e79 683d 8670 123d 2f41 313c 7632 993a
000000a0: a94d 34be 3876 79bd e518 68bc 246e 37bd
000000b0: 72ea 94bc 9778 15bc 63ae d7bc 0125 a93d
000000c0: 8f43 2dbe 6de8 9dbd 7fb8 843e 8769 86bd
000000d0: 263f f73d faa4 4dbd b711 f53b 1aa2 b43c
000000e0: e099 433e 0615 e3bc 53d1 34bc 959b 0d3d
000000f0: 5435 fbbd 3126 6abd 2523 42bc 7d36 13be
00000100: 35ba 18bd 5e0a a23c e0e8 423e 9bc9 71bb
00000110: 225f 163e 1be5 eebc c409 363d 4872 a3bc
00000120: 3767 efbc e73e f8bd a86c 41bd 1951 113d
00000130: 8736 95bd 0e50 00be 0c1d 89bd f1c5 05bd
00000140: 45c6 95bd b95f afbd c77b cebc 0d66 333d
00000150: 4958 adbd 85b4 5d3b 9f7f c03b d132 a43b
00000160: 6212 c93d 53cb cebb 4c1f 27be 149b 3fbc
00000170: 7c16 1dbe f463 30bd 620e 933a a0ab 7b3d
00000180: 615d 4c3e 7381 a53b 5b38 78be 09c9 103c
00000190: a917 18be 0e25 1c3d df2e 4a3b ef0f debd
000001a0: 5a52 1fbd 426d 6fbc c0a3 0abe 7a59 38bd
000001b0: fb2d 8ebd d4ba 823c ff0f 6f3d c822 94bc
000001c0: 03e3 d2be 232e 84bd ccb2 953e 46fa 7abd
000001d0: 8b90 623e 54b6 08bd 704a a73a 82ce 06bc
000001e0: 1565 a83e 016a a13c 324c 7bbe 1e80 473c
000001f0: f275 d5bd c6c2 b83c fa27 38bd 1171 243d
00000200: 30ed b43e 0e37 a2bd 9f7f 9ebe e290 9fbd
00000210: bb69 09be 28c7 153b ce78 e13c 75fd a53b
00000220: 8604 d83d 4a09 dbbd 1b1e 623c 36a7 a23b
00000230: adb2 11bc ccfc cebc fcee 733d 63ec 94bd
00000240: e260 9f3d 54f2 743c 2375 30be 3fc6 113c
00000250: 6cc3 92bd 8f05 6a3c c9f4 0ebc ce7a 30bb
00000260: da6f 6fbb 25d1 5fbd 78c4 41be d6d7 ac3c
00000270: 4a2d afbd 9c77 cabc 2a97 abbd f81f f539
00000280: 0288 fcbd b0e9 5fbd 3d9c 2c3e e752 163d
00000290: 342b c03d da23 33bd 3b50 823d dc22 2d3c
000002a0: d4b3 563e 2476 51b9 bbb3 b7bd 5890 ef39
000002b0: d028 69bd d9fd c53d 7d64 553c 57bf 8b3d
000002c0: 7279 91be 412b d9bd 1fd5 943e ebae 74bd
000002d0: 13e2 043e 72ae b4bd 9500 b83d efd2 be3c
000002e0: f0ba 9e3e 07d0 073d d01a 60be 8c8a 13be
000002f0: d635 3bbe 07ef 783d 0dd5 cebc d2c7 42bd
00000300: 6c61 c4be 1217 0fbd f68f 783e d49b 32bd
00000310: f8a5 023e 1bca dcbb ff73 28bc 423a 063b
00000320: 5185 21be db0f b73c 7b4a 993e a7b0 163d
00000330: c84c 573e 8d51 74bd 6fbf ec3c e317 4c3d
00000340: 9c1a cd3d e1e3 edbb 3511 43be 8994 d4bc
00000350: 5540 50bd 9b82 0abd 3388 4ebc 5f56 89bc
00000360: 150a ddbb e2b2 eebb 00a9 db3d b72d 043c
00000370: 195e 033e 9612 bf3c 3f38 343d 04a1 1cbc
00000380: 199b 293e b9e5 e63c ed98 2cbe cca8 243b
00000390: ae35 88bd 4e21 db3c fb81 1c3c 3440 0abd
000003a0: 7828 ebbd ece6 41bc 5cde c73d 51d8 973c
000003b0: c6dd 633d 59b6 f83c d1f1 9d3d f072 d239
000003c0: 4e92 63be f054 cb3c c4a1 ac3e f955 a7bd
000003d0: 9378 5e3e d76d 963d cc6f 9b3a 3e93 3ebd
000003e0: 4cc5 e53d 746c d2b9 dd7b a3bd a6a1 04bc
000003f0: 899a 95bd b224 ab3d d992 a63c 65dc 633c

conv1.lin_l.bias f4 [512]
-0.17892301 -0.25321287 -0.09488945 0.028955901 -0.1108966 -0.15057343 0.24195027 0.21318018
0.014733158 -0.3276236 -0.1257135 0.28725824 0.008312799 0.010441631 0.09491434 0.08797647
0.16122273 -0.16644669 0.0645358 0.010575789 0.10101439 -0.27043143 0.2221862 -0.13269451
-0.004672837 0.16536944 0.12432807 -0.059858672 0.2558616 -0.11867397 -0.027250648 -0.055598475
-0.032940917 -0.13705045 0.14764777 0.013584491 -0.2049742 0.30022168 -0.105271325 0.10323953
0.052574 -0.041943092 -0.17008966 -0.13262852 -0.21642949 -0.04902169 -0.29797408 -0.065622054
0.069274396 0.009730489 0.27002195 -0.38153335 -0.24250184 -0.22352956 -0.17476681 0.19284764
0.3018679 -0.29796574 0.15750061 -0.213534 -0.11771281 -0.23271357 0.097575925 0.0060571968
0.14061676 -0.21888964 -0.2638329 -0.024165047 0.03327449 -0.26737088 -0.18396111 0.17439368
0.15570906 -0.016570114 0.035600368 0.1376567 0.21837938 -0.081853956 -0.23962471 0.20904262
0.05066609 -0.027351454 0.27861798 0.21611889 0.12852542 -0.24470581 0.057298522 0.11185763
-0.020405708 0.118158236 0.010703475 -0.20156237 -0.0020531672 -0.25693095 -0.22941789 0.02366115
-0.078224525 0.1527273 -0.04523235 0.21422097 0.16076028 0.20102178 0.09657013 0.03473687
-0.26068524 -0.03832519 -0.060820233 0.053754933 -0.24451905 -0.044714164 -0.29161358 0.019925091
-0.14029695 0.04452463 0.05103632 -0.36077726 -0.08544347 0.10899749 0.06346514 -0.07787669
0.1325021 0.017576924 -0.19383551 0.08107652 0.0138885975 0.033956777 -0.15458307 -0.19536945
0.0049224533 0.24323615 -0.2159696 -0.22749826 -0.19493742 0.010113524 -0.38825458 0.20656316
0.2842002 0.16530742 -0.09889104 0.011282094 0.16810039 0.15807293 -0.22611928 -0.39446005
0.12669428 0.11965881 0.16056369 -0.019422185 -0.039555278 -0.15061457 0.16706619 0.0046877037
-0.18125148 -0.1573937 -0.04341025 0.10358718 0.18820581 -0.25416848 -0.19316813 0.2196714
-0.16762958 -0.287674 0.14057077 0.2197559 -0.07171399 0.11100948 0.026590858 -0.24075675
0.1359538 0.020913504 -0.14726941 0.13809973 0.06037975 -0.096105814 -0.24009854 -0.017673979
-0.12302983 -0.27528742 0.18398176 -0.3109946 0.060728204 0.16794705 0.27582315 0.15032919
-0.013869192 -0.02355472 0.04282543 -0.016477933 -0.15690957 0.06864352 -0.14519034 0.15570763
-0.2704514 0.1886036 -0.2398747 -0.035528243 -0.22108558 0.06804292 0.15346755 -0.35402477
-0.13719119 -0.11395459 -0.07505084 -0.23060288 -0.09340459 0.179933 -0.3141925 -0.03271966
-0.25272065 -0.043103054 -0.40150517 0.105057985 -0.1904216 0.27340022 0.027413487 0.14020446
-0.2410835 0.0662878 -0.099129364 0.02726142 -0.1742239 0.07120531 -0.007452825 -0.10153638
0.19957124 -0.15197536 -0.21368422 0.06387314 -0.17879611 0.046572827 -0.42331594 -0.2258515
0.20175827 0.13128787 0.19448806 -0.11683351 -0.113000214 0.20023598 -0.1600462 0.05054596
0.11355864 0.17927077 0.013362704 0.18360315 0.040198684 0.13701598 -0.2880298 -0.095073506
0.11377009 -0.11361068 0.05442633 -0.21001837 -0.21350923 0.07686832 0.1741261 0.102573164
00000000: 9837 37be 1ea5 81be 6655 c2bd ed34 ed3c
00000010: c21d e3bd ec2f 1abe d0c1 773e e84b 5a3e
00000020: 5863 713c 48be a7be 0abb 00be 8313 933e
00000030: 6832 083c 6013 2b3c 7362 c23d 022d b43d
00000040: 9217 253e 0071 2abe 582b 843d 1346 2d3c
00000050: a2e0 ce3d fd75 8abe c784 633e 12e1 07be
00000060: 991e 99bb 9b56 293e b79f fe3d 5e2e 75bd
00000070: 4b00 833e 570b f3bd c03c dfbc 3abb 63bd
00000080: 0eed 06bd f456 0cbe fa30 173e 7c91 5e3c
00000090: c2e4 51be a8b6 993e 7e98 d7bd 3f6f d33d
000000a0: d657 573d 85cc 2bbd fc2b 2ebe c5cf 07be
000000b0: b19f 5dbe f8ca 48bd 0f90 98be db64 86bd
000000c0: bcdf 8d3d a16c 1f3c 5140 8a3e 5758 c3be
000000d0: 6752 78be efe4 64be 12f6 32be da79 453e
000000e0: 6e8e 9a3e f78e 98be d747 213e a8a8 5abe
000000f0: 6a13 f1bd 774c 6ebe e3d5 c73d 737b c63b
00000100: d7fd 0f3e 9b24 60be 1b15 87be c7f5 c5bc
00000110: d54a 083d d6e4 88be 4d60 3cbe 4294 323e
00000120: 3272 1f3e 0cbe 87bc b1d1 113d e1f5 0c3e
00000130: d89e 5f3e 0ca3 a7bd 2e60 75be 450f 563e
00000140: 3f87 4f3d 2810 e0bc 04a7 8e3e 454e 5d3e
00000150: 2b9c 033e 2994 7abe dbb1 6a3d 9d15 e53d
00000160: df29 a7bc f2fc f13d a15d 2f3c 5e66 4ebe
00000170: 6e8e 06bb 748c 83be 86ec 6abe 07d5 c13c
00000180: 2e34 a0bd 8c64 1c3e 8e45 39bd be5c 5b3e
00000190: 589e 243e a7d8 4d3e 8fc6 c53d 4048 0e3d
000001a0: 8978 85be e0fa 1cbd a31e 79bd 222e 5c3d
000001b0: 3463 7abe 3326 37bd 604e 95be f239 a33c
000001c0: 01aa 0fbe 755f 363d 760b 513d ccb7 b8be
000001d0: fcfc aebd 133a df3d 03fa 813d d07d 9fbd
000001e0: a1ae 073e 7bfd 8f3c d17c 46be 720b a63d
000001f0: 008d 633c 4316 0b3d 064b 1ebe ee0e 48be
00000200: 884c a13b e612 793e 2327 5dbe 4ef5 68be
00000210: ad9d 47be 32b3 253c 4ec9 c6be 4b85 533e
00000220: b082 913e 5946 293e 6387 cabd 88d8 383c
00000230: 8222 2c3e dfdd 213e d08b 67be abf6 c9be
00000240: 25bc 013e ae0f f53d cf6a 243e 461b 9fbc
00000250: b704 22bd b53a 1abe 6613 2b3e 4f9b 993b
00000260: fd99 39be d02b 21be f2ce 31bd 8425 d43d
00000270: 06b9 403e 5f22 82be decd 45be 8af1 603e
00000280: 17a7 2bbe 024a 93be c9f1 0f3e b107 613e
00000290: c9de 92bd f058 e33d 12d5 d93c f088 76be
000002a0: 7937 0b3e cc52 ab3c cbcd 16be 046a 0d3e
000002b0: c250 773d 20d3 c4bd 64dc 75be 05c9 90bc
000002c0: 10f7 fbbd 79f2 8cbe b765 3c3e af3a 9fbe
000002d0: 23be 783d 50fa 2b3e b138 8d3e e5ef 193e
000002e0: 9c3b 63bc d4f5 c0bc b869 2f3d bbfc 86bc
000002f0: e7ac 20be f994 8c3d c7ac 14be d271 1f3e
00000300: 9b78 8abe 4d21 413e b7a1 75be 1086 11bd
00000310: 4264 62be 165a 8b3d 9926 1d3e bc42 b5be
00000320: d97b 0cbe 0661 e9bd 41b4 99bd 2923 6cbe
00000330: e84a bfbd 5b40 383e d7dd a0be 0d05 06bd
00000340: 9a64 81be d48c 30bd 1692 cdbe a428 d73d
00000350: e1fd 42be 1dfb 8b3e 4092 e03c c291 0f3e
00000360: 98de 76be e6c1 873d 5604 cbbd 5753 df3c
00000370: c067 32be 17d4 913d d436 f4bb 4ef2 cfbd
00000380: 675c 4c3e 6e9f 1bbe 09d0 5abe eccf 823d
00000390: 5416 37be 26c3 3e3d debc d8be 9e45 67be
000003a0: b899 4e3e 5470 063e e127 473e 6846 efbd
000003b0: a86c e7bd a90a 4d3e 27e3 23be 4809 4f3d
000003c0: 6f91 e83d c292 373e 3eef 5a3c 7702 3c3e
000003d0: 60a7 243d eb4d 0c3e a478 93be e6b5 c2bd
000003e0: 4b00 e93d b7ac e8bd 25ee 5e3d 0e0f 57be
000003f0: 2aa2 5abe 236d 9d3d 1d4e 323e e111 d23d

conv1.lin_r.weight f4 [512, 8]
-0.037690148 0.058341812 0.017414976 0.01240449 0.0069380547 0.11086149 -0.006642373 0.023298848
-0.01013864 -0.012105067 0.009571495 0.019928351 0.0017119753 0.0090631 -0.0016258355 0.0682399
0.0044721556 -0.009971943 -0.0037413505 0.03796355 -0.0021401835 -0.0101536745 0.0025996342 -0.010600773
-0.006017117 0.008742461 0.0082790395 0.021638565 0.0017316397 -0.0035270015 -0.0028229118 -0.02167125
0.0011477738 -0.0010676589 0.00019888645 0.0682861 0.000100607635 -0.016798638 -0.00039806165 0.011633029
-0.06391048 0.06510087 0.056945946 0.04341163 0.02135631 0.14920174 -0.015018588 0.013810794
0.03163793 0.0135120815 -0.023750499 -0.010867948 -0.0114074405 -0.06864771 0.008848275 -0.046090893
0.011189205 0.060057882 -0.015712043 0.011287569 0.022646965 -0.030869221 0.008416913 -0.028463876
-0.024096575 0.015532515 0.008747638 0.025786128 0.0084329685 0.027370876 -0.011502478 -0.026072688
0.012282544 -0.07740892 -0.016134366 -0.056280077 -0.0032228888 0.035944007 0.004880719 0.03399117
0.05373457 -0.053561658 -0.03147095 0.036304105 -0.015642157 -0.05982269 0.0049321186 0.047927883
-0.0076993364 -0.06671555 0.00551798 0.039783046 0.0013880625 0.0010725184 -0.0050967606 -0.040924188
0.0028256609 -0.07354796 -0.0026204481 -0.023862664 -0.0008190324 -0.031950913 0.00027346617 -0.012644483
-0.031874638 0.065901384 0.025417518 0.08762827 -0.0011066928 0.008520802 -0.00555157 0.06228987
-0.008097124 0.057598256 0.006197065 0.036898546 0.004502966 0.032780435 -0.00060905237 -0.0106909815
-0.011910323 0.009338256 0.011024064 0.009641582 0.004014039 0.018819071 -0.0005619973 0.012849578
0.025417544 -0.01398865 -0.017646153 -0.021368572 -0.005571546 -0.050037555 0.0052423608 0.03457044
0.000513998 -0.019593427 -0.0004016578 -0.049238157 -0.00033897973 0.015002862 0.00045423725 -0.0106542725
-0.0047923746 0.00790857 0.0033655823 -0.033283666 0.0010612612 0.005810026 4.2083637e-05 -0.011979327
-0.035125624 0.00063516916 0.017319078 0.0037433256 0.008789961 0.034733746 -0.0032794445 -0.039517317
-0.034996536 -0.010904097 0.021096574 -0.043462805 -0.0064970637 -0.011756933 -0.0032382442 -0.012850029
0.0012130557 -0.0007766107 0.0009944515 -0.007649323 0.001279624 0.021659305 -0.0003992428 -0.001032846
-0.085936 -0.023215337 0.061561238 0.06617557 0.023066148 0.09522639 0.0032779595 -0.058511954
-0.002032246 -0.0003265522 -0.008625259 -0.027911132 -0.004088365 0.018383108 0.0018154491 0.0194339
0.0057769497 -0.03250945 -0.0043216418 -0.033627156 -0.0023472942 -0.049307786 -0.000571274 -0.037472915
-0.0070629753 0.008602998 0.007886783 -0.07395961 0.004689644 0.046631034 0.0026326473 0.033644512
-0.008105665 -0.029274004 0.005635782 0.04468742 -0.0011307587 0.09359774 0.001034951 -0.0102814725
-0.010597892 -0.030669896 0.0077679385 0.06725193 0.005466287 -0.013340603 -0.006253734 -0.05402925
-0.002994088 0.024145853 0.000372254 -0.1125421 0.0012145893 0.033795 -0.0026779578 -0.022118317
-0.023944173 -0.014586932 0.016507918 -0.05358621 0.005457979 -0.013390635 -0.006646463 -0.014193805
0.002458336 0.004240674 -0.001965654 -0.0027897803 0.0003984908 -0.0037869955 -0.00065807934 -0.020982973
0.00034881482 0.033952847 3.4774603e-05 0.007134415 -0.00016737758 -0.0036268067 0.00016648947 -0.0025102291
00000000: fc60 1abd d3f7 6e3d daa9 8e3c 343c 4b3c
00000010: 9f58 e33b 590b e33d 43a8 d9bb 3add be3c
00000020: 8a1c 26bc 5554 46bc c2d1 1c3c c840 a33c
00000030: 5c64 e03a 667d 143c fd19 d5ba 5cc1 8b3d
00000040: 298b 923b 5c61 23bc 7231 75bb ab7f 1b3d
00000050: 5242 0cbb 995b 26bc a05e 2a3b ddae 2dbc
00000060: 3c2b c5bb 8a3c 0f3c cfa4 073c 5c43 b13c
00000070: 30f8 e23a 4425 67bb 9a00 39bb e887 b1bc
00000080: e670 963a b0f0 8bba 2d8c 5039 95d9 8b3d
00000090: 50fd d238 4c9d 89bc eeb2 d0b9 7698 3e3c
000000a0: 7fe3 82bd 9b53 853d 2740 693d 65d0 313d
000000b0: 6ef3 ae3c 57c8 183e 8610 76bc ab46 623c
000000c0: c696 013d c761 5d3c 6890 c2bc 7a0f 32bc
000000d0: 46e6 3abc 2c97 8cbd 5bf8 103c cec9 3cbd
000000e0: ed52 373c 41ff 753d 8bb6 80bc 7fef 383c
000000f0: 2186 b93c 73e1 fcbc 18e7 093c 132d e9bc
00000100: 2e66 c5bc 177c 7e3c 4152 0f3c 6e3d d33c
00000110: 6f2a 0a3c e338 e03c e474 3cbc 6496 d5bc
00000120: b93c 493c 9188 9ebd 382c 84bc f085 66bd
00000130: 1a37 53bb 063a 133d 70ee 9f3b 533a 0b3d
00000140: c818 5c3d 7863 5bbd afe7 00bd 9db3 143d
00000150: fb23 80bc a308 75bd 9c9d a13b 0750 443d
00000160: b74a fcbb 2aa2 88bd 2cd0 b43b 8cf3 223d
00000170: a6ef b53a bf93 8c3a ba02 a7bb 1fa0 27bd
00000180: b92e 393b 50a0 96bd d3bb 2bbb a27b c3bc
00000190: 55b4 56ba f6de 02bd 0260 8f39 ce2a 4fbc
000001a0: fb8e 02bd 4ef7 863d 6638 d03c 7376 b33d
000001b0: 730e 91ba d59a 0b3c f2e9 b5bb aa23 7f3d
000001c0: cda9 04bc 26ec 6b3d c010 cb3b ee22 173d
000001d0: 9e8d 933b c744 063d d0a8 1fba 3a29 2fbc
000001e0: 8423 43bc 7cff 183c 479e 343c baf7 1d3c
000001f0: 3388 833b 742a 9a3c 0053 13ba 0987 523c
00000200: 7438 d03c a730 65bc aa8e 90bc 250d afbc
00000210: 8491 b6bb 2ef4 4cbd 1cc8 ab3b bc99 0d3d
00000220: d2bd 063a 6582 a0bc 9995 d2b9 f3ad 49bd
00000230: 17b9 b1b9 90ce 753c b126 ee39 428f 2ebc
00000240: 5a09 9dbb f292 013c 1a91 5c3b 7454 08bd
00000250: 041a 8b3a 0862 be3b f682 3038 f044 44bc
00000260: e3df 0fbd 7b81 263a bde0 8d3c 9552 753b
00000270: c503 103c f944 0e3d f3eb 56bb e9dc 21bd
00000280: 8758 0fbd 19a7 32bc b9d2 ac3c 0e06 32bd
00000290: 52e5 d4bb 27a0 40bc b938 54bb ee88 52bc
000002a0: 65ff 9e3a 7695 4bba 4158 823a 2ca7 fabb
000002b0: 0eb9 a73a db6e b13c 7651 d1b9 9060 87ba
000002c0: 37ff afbd 172e bebc a327 7c3d 0f87 873d
000002d0: 38f5 bc3c 0e06 c33d 09d3 563b 3baa 6fbd
000002e0: 6e2f 05bb 1835 abb9 f550 0dbc e3a5 e4bc
000002f0: b1f7 85bb 2c98 963c 5df4 ed3a d833 9f3c
00000300: 914c bd3b a128 05bd 8f9c 8dbb a1bc 09bd
00000310: 10d5 19bb f6f6 49bd 8dc1 15ba 337d 19bd
00000320: 8870 e7bb 97f3 0c3c 9137 013c 2378 97bd
00000330: 96ab 993b 2f00 3f3d 7e88 2c3b d4ce 093d
00000340: a0cd 04bc 09d0 efbc 5eac b83b 280a 373d
00000350: f735 94ba 2cb0 bf3d 31a7 873a 9f73 28bc
00000360: c8a2 2dbc 6f3f fbbc 318a fe3b 61bb 893d
00000370: 8a1e b33b 8b92 5abc 20ec ccbb c64d 5dbd
00000380: 7638 44bb 86cd c53c 162b c339 797c e6bd
00000390: db32 9f3a a06c 0a3d ad80 2fbb 7931 b5bc
000003a0: 9226 c4bc 07fe 6ebc 9d3b 873c 377d 5bbd
000003b0: d9d8 b23b 6564 5bbc 93ca d9bb 228d 68bc
000003c0: 091c 213b 5af5 8a3b 34d2 00bb bfd4 36bb
000003d0: 88ec d039 3e2f 78bb f582 2cba 7ce4 abbc
000003e0: 22e1 b639 2412 0b3d f2da 1138 d0c7 e93b
000003f0: 1482 2fb9 b8af 6dbb ad93 2e39 a882 24bb

conv1.lin_r.bias f4 [512]
-0.07769859 0.18269956 -0.01821572 0.027217707 -0.031833276 0.32624573 -0.07202067 0.08329726
-0.06463981 -0.11573685 0.022502197 0.04420876 0.0005438382 0.16257167 0.029761132 -0.05669012
0.056781508 -0.06828236 -0.049791154 -0.09483299 -0.1843111 -0.018061938 -0.14074787 0.1884865
-0.14227904 -0.09357613 -0.20780133 0.1582745 0.14314082 -0.16088925 -0.08568065 -0.008156511
-0.016967596 0.14119942 0.25197485 -0.17800775 0.19779447 -0.0968567 0.03116682 0.053605456
0.012650178 0.11539553 -0.04818562 0.0917629 0.2534432 -0.19296671 0.23222052 -0.3016496
0.03049312 0.21387342 0.06492982 0.25731045 -0.3244129 0.2667749 0.22093473 -0.14780538
0.08689497 -0.09347263 -0.06683637 -0.16472037 0.1865567 0.28178242 -0.10291676 0.18498243
-0.0891067 0.08328052 -0.052702628 -0.062835075 -0.025670948 -0.056169953 -0.07070482 -0.12391598
0.24154896 -0.08673012 -0.03390687 -0.023180727 0.012235102 -0.152562 -0.00086720963 0.16965488
-0.255614 0.1926372 0.00371242 -0.027024696 0.18451993 -0.09862716 -0.081595145 0.13091478
0.1777319 -0.11830872 -0.073079295 0.07814514 0.09229024 0.10658012 -0.08273822 -0.019857697
0.13840894 0.18254294 0.054019984 0.19543236 -0.12624845 0.008294477 -0.17130196 -0.13798554
-0.21233718 0.023479309 0.020659262 -0.021406353 0.17064805 -0.12267143 0.20347099 0.26631278
-0.13871357 -0.04136555 0.016502477 -0.15679502 0.20485942 -0.102462985 0.002705046 0.017141774
0.23759487 -0.010792408 -0.20837224 0.1711726 -0.08487117 0.08015262 0.14721923 0.007696805
-0.19948936 -0.16670763 -0.036165573 0.04556303 0.09979271 0.022087097 0.098146155 0.03531169
-0.006487356 0.18323098 0.059000835 -0.20357381 0.09177001 0.07721918 -0.1882869 0.1722669
0.04688882 -0.03799971 -0.32246566 0.3125492 -0.1899956 -0.028546318 -0.20208672 -0.16182259
-0.2886453 0.2104638 -0.10574348 0.014470516 0.09523028 0.12745118 0.19692878 0.062198628
-0.042707115 0.1441966 -0.010321113 -0.1154198 0.06992643 -0.041846458 0.0070718895 -0.11318558
0.123949915 0.12404315 0.2593899 -0.19657336 -0.05301455 -0.084855795 0.11243617 -0.003991673
0.0020066528 -0.023637589 0.09108369 0.04812211 0.3072033 -0.0014156041 -0.00086615846 -0.09012586
-0.3204563 -0.2794676 -0.029114211 -0.1222133 -0.061470993 -0.22218023 0.03611792 0.052670624
0.022307612 0.002208106 -0.07394172 -0.08315945 -0.057395007 0.08194851 0.22326846 -0.05415399
0.13173527 -0.042481367 -0.20178464 0.047548372 -0.05527338 -0.09111158 -0.16851112 -0.17418967
0.0061720484 -0.34286147 0.16596828 -0.02439087 -0.026335863 -0.0004196656 -0.21802464 0.07472207
-0.011758013 0.2976853 0.31915694 -0.22731066 0.24358435 -0.008088005 0.04489983 0.10299075
0.2081139 -0.086851515 -0.2445492 0.030915905 0.02403968 0.0017835912 0.27233002 -0.13507506
-0.23490722 0.20252511 0.14521822 -0.20294018 -0.021087632 0.20579824 0.24214178 0.1279154
0.003316671 -0.1623888 0.20586117 0.25333685 0.11922428 -0.25575078 -0.21628451 -0.064939655
-0.26828268 0.0095964195 0.058137633 -0.20407684 -0.07691539 0.013235774 -0.10321305 0.16760068
00000000: 7020 9fbd 9815 3b3e 2239 95bc abf7 de3c
00000010: 9c63 02bd ae09 a73e 937f 93bd c197 aa3d
00000020: e061 84bd 7107 edbd 8756 b83c 3f14 353d
00000030: 5d90 0e3a 3079 263e 9ecd f33c e633 68bd
00000040: ba93 683d 9fd7 8bbd cff1 4bbd cc37 c2bd
00000050: 0dbc 3cbe a1f6 93bc 3620 10be 9b02 413e
00000060: 99b1 11be d8a4 bfbd dfc9 54be b612 223e
00000070: 8293 123e 27c0 24be 5679 afbd e3a2 05bc
00000080: a1ff 8abc 9596 103e d902 813e aa47 36be
00000090: a28a 4a3e ce5c c6bd 8f51 ff3c 6591 5b3d
000000a0: b142 4f3c 7e54 ec3d 495e 45bd 30ee bb3d
000000b0: 4fc3 813e 1199 45be 37cb 6d3e d171 9abe
000000c0: b5cc f93c a201 5b3e edf9 843d 32be 833e
000000d0: 7319 a6be b896 883e b73c 623e 4b5a 17be
000000e0: fdf5 b13d 946e bfbd 82e1 88bd 75ac 28be
000000f0: b808 3f3e c945 903e 06c6 d2bd 096c 3d3e
00000100: 937d b6bd fa8e aa3d b6de 57bd adaf 80bd
00000110: e14b d2bc 7712 66bd b0cd 90bd a9c7 fdbd
00000120: 9c58 773e 909f b1bd eee1 0abd 82e5 bdbc
00000130: bd75 483c 3739 1cbe 7455 63ba 02ba 2d3e
00000140: d7df 82be b042 453e 124c 733b e562 ddbc
00000150: cbf2 3c3e 09fd c9bd 5b1b a7bd 860e 063e
00000160: 5aff 353e d84b f2bd 99aa 95bd 8f0a a03d
00000170: aa02 bd3d ae46 da3d a872 a9bd 9cac a2bc
00000180: 13bb 0d3e 89ec 3a3e 0f44 5d3d 6c1f 483e
00000190: 4647 01be 8fe5 073c c869 2fbe 154c 0dbe
000001a0: eb6e 59be ae57 c03c 9d3d a93c 605c afbc
000001b0: 5dbe 2e3e 293b fbbd b35a 503e 265a 883e
000001c0: ee0a 0ebe ec6e 29bd 3430 873c e08e 20be
000001d0: abc6 513e 1dd8 d1bd 2447 313b e86c 8c3c
000001e0: 124c 733e a4d2 30bc 885f 55be df47 2f3e
000001f0: f0d0 adbd 0f27 a43d a3c0 163e 7b35 fc3b
00000200: f046 4cbe 68b5 2abe 5a22 14bd 4da0 3a3d
00000210: 1f60 cc3d 00f0 b43c da00 c93d fea2 103d
00000220: e393 d4bb e7a0 3b3e dcaa 713d a775 50be
00000230: eaf1 bb3d 1725 9e3d 48ce 40be bc66 303e
00000240: 7e0e 403d 95a5 1bbd 381a a5be 7306 a03e
00000250: 358e 42be f8d9 e9bc d2ef 4ebe d2b4 25be
00000260: 51c9 93be d383 573e 0a90 d8bd be15 6d3c
00000270: 1808 c33d 9082 023e b3a7 493e fdc3 7e3d
00000280: a8ed 2ebd 46a8 133e e319 29bc 3761 ecbd
00000290: 9735 8f3d 3167 2bbd 4fbb e73b d7cd e7bd
000002a0: 74d9 fd3d 560a fe3d c1ce 843e 874a 49be
000002b0: c925 59bd e0c8 adbd ef44 e63d 94cc 82bb
000002c0: 0c82 033b 9ea3 c1bc 168a ba3d b11b 453d
000002d0: c049 9d3e cb8b b9ba e90e 63ba e893 b8bd
000002e0: d912 a4be 6116 8fbe ed80 eebc f74a fabd
000002f0: 02c9 7bbd 3783 63be 62f0 133d 27bd 573d
00000300: 74be b63c dfb5 103b c26e 97bd 804f aabd
00000310: 0717 6bbd 9fd4 a73d 7da0 643e 93d0 5dbd
00000320: 9ce5 063e f100 2ebd a2a0 4ebe 15c2 423d
00000330: 5766 62bd b598 babd 2e8e 2cbe c75e 32be
00000340: e53e ca3b 8a8b afbe 97f3 293e 5dcf c7bc
00000350: 4fbe d7bc 9006 dcb9 da41 5fbe e207 993d
00000360: aea4 40bc 356a 983e 8a68 a33e 20c4 68be
00000370: 2d6e 793e 8d83 04bc e2e8 373d d0ec d23d
00000380: cf1b 553e 35df b1bd 1b6b 7abe 5a43 fd3c
00000390: ddee c43c 64c7 e93a d76e 8b3e 1e51 0abe
000003a0: 858b 70be be62 4f3e 16b4 143e 8dcf 4fbe
000003b0: f8bf acbc c6bc 523e 04f4 773e 41fc 023e
000003c0: 815c 593b 4049 26be 45cd 523e 5eb5 813e
000003d0: dc2b f43d c4f1 82be b079 5dbe 15ff 84bd
000003e0: 595c 89be 4d3a 1d3c ba21 6e3d 85f9 50be
000003f0: d185 9dbd dcda 583c 5d61 d3bd 839f 2b3e

conv2.att f4 [1, 1, 8]
0.5595826 -0.54553527 -0.5188702 0.23910062 0.073528685 0.082026474 0.6688778 0.38050854
00000000: ce40 0f3f 33a8 0bbf add4 04bf cbd6 743e
00000010: 3596 963d 7ffd a73d 933b 2b3f 04d2 c23e

conv2.bias f4 [8]
-0.0024625736 0.4954392 0.007526819 0.48649496 0.004337189 0.42340615 0.0037652485 0.3830081
00000000: 2163 21bb 35aa fd3e 89a3 f63b de15 f93e
00000010: fa1e 8e3b b1c8 d83e 63c2 763b a319 c43e

conv2.lin_l.weight f4 [8, 512]
-0.06744917 0.06348631 -0.058671378 -0.037865024 -0.016460916 0.045716014 0.003561469 0.03716243
0.02246692 0.008349983 -0.05644921 -0.039157156 -0.06383818 -0.07628224 0.03363796 0.029227963
0.061625358 -0.021304067 0.03906777 0.028841253 0.067606166 0.018180123 -0.003189918 -0.020857038
-0.056789137 -0.057412747 0.029512411 -0.014332343 0.00150956 0.060176034 -0.023406684 -0.024807446
-0.06396443 0.029457122 -0.031285077 0.027576605 0.031133812 0.032859758 -0.05913066 -0.01363616
-0.013478004 0.03172214 -0.016666861 0.008349032 -0.01914258 -0.045798097 0.044295702 -0.0053468402
0.0083556045 -0.042983092 0.0056247176 0.010848941 0.045144606 0.05173054 0.013241469 -0.004341779
0.0014013677 -0.019274555 0.06358346 -0.041679602 0.050040085 -0.008289493 -0.056256086 -0.030274572
-0.052479766 -0.055525202 0.059338752 0.008306206 -0.054702394 -0.030574892 0.027594699 -0.012410948
0.030253507 0.003442989 0.018967135 -0.043764155 0.047121562 0.041847587 0.056134775 0.07253576
-0.008599523 -0.03086796 0.052843105 0.018690724 -0.049882166 -0.04710686 -0.021159744 0.0056965547
-0.009429372 -0.05775447 0.04833209 0.011400349 0.013808319 -0.046769127 -0.017072568 0.06110887
0.036161892 -0.049036253 0.0053802365 0.00044183334 -0.011497315 -0.03290017 -0.076968536 0.011523413
-0.040363736 0.032586534 0.014377746 0.041176923 0.046328668 -0.029983971 0.010550986 0.031621724
0.046862505 -0.005224627 -0.05106221 -0.02930818 0.006213662 0.050817788 -0.046649035 -0.027804047
-0.007070925 0.033462353 -0.020701626 -0.031109454 -0.02088927 -0.010244669 -0.02760391 0.030177172
-0.030435922 -0.0030596417 -0.038940184 -0.024597043 -0.0060277656 -0.024216397 -0.04243444 -0.012986968
-0.024011984 -0.060013495 0.026795406 -0.01139148 0.07296509 -0.025030361 0.023503665 0.007153436
-0.023094876 0.016112097 0.0048793987 0.071445 -0.0003003105 0.009053468 -0.021529669 0.025267554
0.016264724 -0.003989773 -0.0478871 -0.06416967 0.0006252597 0.0098475795 0.03659756 0.023071483
0.022144552 0.016501078 0.039818723 -0.005364967 0.0025768282 -0.055672843 0.04352396 0.0022156802
0.043336786 -0.08372793 0.010670236 0.039728098 -0.091717005 0.005940755 1.4403689e-05 -0.011149888
0.022354722 -0.016830841 -0.005656236 -0.012484029 -0.0050599324 0.009120234 -0.017857393 0.03982839
0.01805194 0.0320657 0.021712754 -0.024577398 -0.0028039855 -0.0036442825 -0.019042127 0.031201836
-0.0026129892 -0.008744701 0.04454884 -0.010655818 -0.027908728 0.02414167 0.065954186 -0.004887502
-0.012244642 0.024776554 -0.011399062 -0.015903514 0.008446471 -0.025029907 0.012132135 0.04390529
0.061939638 -0.020783314 0.0023491057 0.030985717 0.020883586 -0.0020324418 -0.016209008 -0.018415928
-0.014940689 0.033757515 0.030410867 0.016725954 -0.06447579 -0.06064705 0.012121465 0.0013184213
-0.0063351244 -0.0085438555 -0.009472218 -0.043960333 -0.037607525 -0.06744487 -0.0016222916 -0.011904317
0.014961786 -0.022710046 0.0057147867 0.014719209 -0.029605687 -0.052007936 -0.011321077 -0.043174155
0.06691154 -0.010098069 0.0013448793 0.0020309417 0.06526622 -0.04980139 -0.013734924 -0.011697657
0.004867524 0.016925696 0.05224431 0.020386523 -0.013200335 0.04391403 0.015812032 -0.029839074
00000000: ca22 8abd 1c05 823d 6651 70bd 5b18 1bbd
00000010: 0bd9 86bc b740 3b3d 8967 693b a237 183d
00000020: 8c0c b83c 5ece 083c 4937 67bd 4163 20bd
00000030: 97bd 82bd dd39 9cbd f5c7 093d 7b6f ef3c
00000040: df6a 7c3d de85 aebc 8705 203d 7e44 ec3c
00000050: 1a75 8a3d 7bee 943c f10d 51bb 61dc aabc
00000060: ba9b 68bd a129 6bbd 03c4 f13c 34d2 6abc
00000070: 6edc c53a 257b 763d 60bf bfbc fc38 cbbc
00000080: c8ff 82bd 1050 f13c c824 00bd 55e8 e13c
00000090: 560c ff3c f497 063d fe32 72bd 336a 5fbc
000000a0: d9d2 5cbc 13ef 013d f188 88bc 61ca 083c
000000b0: e6d0 9cbc c996 3bbd 696f 353d 8c34 afbb
000000c0: f2e5 083c 0a0f 30bd 8d4f b83b c2bf 313c
000000d0: 8de9 383d 67e3 533d bff2 583c 7b45 8ebb
000000e0: 19ae b73a ace5 9dbc 0c38 823d 3bb8 2abd
000000f0: d5f6 4c3d a7d0 07bc c86c 66bd 6102 f8bc
00000100: 06f5 56bd 656e 63bd 310d 733d c116 083c
00000110: 9e0f 60bd 3278 fabc 470e e23c 4a57 4bbc
00000120: 34d6 f73c c5a3 613b f760 9b3c 0b42 33bd
00000130: 8a02 413d 6068 2b3d 94ed 653d a18d 943d
00000140: 04e5 0cbc cede fcbc 0372 583d 4a1d 993c
00000150: 3e51 4cbd 1ff3 40bd 3357 adbc 2aaa ba3b
00000160: a77d 1abc f38f 6cbd dff7 453d 88c8 3a3c
00000170: 4a3c 623c fc90 3fbd c5db 8bbc 4b4d 7a3d
00000180: 7e1e 143d 3dda 48bd b24c b03b dea5 e739
00000190: 3c5f 3cbc 54c2 06bd aea1 9dbd b2cc 3c3c
000001a0: 7254 25bd 7579 053d a390 6b3c 22a9 283d
000001b0: 21c3 3d3d f2a0 f5bc 0bde 2c3c c885 013d
000001c0: e6f2 3f3d 5933 abbb 9c26 51bd b517 f0bc
000001d0: fa9b cb3b 5026 503d 0f13 3fbd 50c5 e3bc
000001e0: 38b3 e7bb d20f 093d 7596 a9bc 41d9 febc
000001f0: f91f abbc 42d9 27bc 9821 e2bc 1e36 f73c
00000200: c154 f9bc 4584 48bb be7f 1fbd bd7f c9bc
00000210: 9084 c5bb 7761 c6bc bccf 2dbd 4bc7 54bc
00000220: c8b4 c4bc b6d0 75bd 0a82 db3c 55a3 3abc
00000230: b96e 953d 790c cdbc c28a c03c 5f67 ea3b
00000240: 7731 bdbc 84fd 833c 5de3 9f3b c251 923d
00000250: fe72 9db9 ff54 143c fd5e b0bc e7fd ce3c
00000260: 993d 853c a4bc 82bb 4425 44bd 636b 83bd
00000270: 78e8 233a be57 213c 53e7 153d 6800 bd3c
00000280: 7e68 b53c 452d 873c f518 233d 9bcc afbb
00000290: 01e0 283b 3509 64bd 2e46 323d f234 113b
000002a0: ea81 313d 8d79 abbd 37d2 2e3c eeb9 223d
000002b0: 20d6 bbbd aaaa c23b 60a7 7137 05ae 36bc
000002c0: 4021 b73c d5e0 89bc f257 b9bb d089 4cbc
000002d0: cacd a5bb 096d 153c ab49 92bc 1823 233d
000002e0: a9e1 933c 5357 033d f2de b13c 8a56 c9bc
000002f0: 12c3 37bb ead4 6ebb 3cfe 9bbc fe9a ff3c
00000300: af3e 2bbb ef45 0fbc d878 363d bd95 2ebc
00000310: d8a0 e4bc c0c4 c53c fd12 873d 5727 a0bb
00000320: c09d 48bc 33f8 ca3c 22c3 3abc 1648 82bc
00000330: 1163 0a3c 850b cdbc ddc5 463c 09d6 333d
00000340: 6bb4 7d3d c541 aabc 74f3 193b c2d5 fd3c
00000350: 0e14 ab3c b732 05bb c1c8 84bc 00dd 96bc
00000360: cbc9 74bc 5245 0a3d 3620 f93c de04 893c
00000370: e20b 84bd 0b69 78bd 1c99 463c e1ce ac3a
00000380: e096 cfbb 87fb 0bbc 5d31 1bbc c00f 34bd
00000390: 590a 1abd 8920 8abd 13a3 d4ba 530a 43bc
000003a0: 4722 753c 6b0a babc 1b43 bb3b d628 713c
000003b0: a087 f2bc 4606 55bd 0a7c 39bc 62d7 30bd
000003c0: eb08 893d 5f72 25bc a946 b03a 8c19 053b
000003d0: 4caa 853d 8bfc 4bbd 7208 61bc 88a7 3fbc
000003e0: c07f 9f3b c2a7 8a3c 21fe 553d a301 a73c
000003f0: 3846 58bc 33df 333d 3c88 813c 1371 f4bc

conv2.lin_l.bias f4 [8]
0.0025889892 0.059441738 0.04802692 0.07432029 -0.021479731 0.08291054 -0.0010539648 0.04023273
00000000: 08ac 293b 2e79 733d e0b7 443d 3c35 983d
00000010: 43f6 afbc 00cd a93d 3125 8aba 13cb 243d
