models/best_model.pt (torch, 311778 bytes, 16 tensors)

conv1.att f4 [1, 8, 64]
000000 6a d5 86 3d bd 3e 90 be f3 1a 0a be d6 52 77 3e
       0.06583674 -0.28172866 -0.13486843 0.24152693
000010 79 ad 39 be 3c 37 40 3e 96 f3 98 3d 9d 74 cf 3c
       -0.18132581 0.1877107 0.07468335 0.02532416
000020 9a 92 58 3e 6f 22 ca bd f0 18 3e be e8 d8 37 be
       0.21149674 -0.09869849 -0.185642 -0.17953837
000030 95 bc 69 3d 13 c0 96 be 42 24 37 3e 67 77 95 bd
       0.05706461 -0.29443416 0.17884925 -0.07298165
000040 83 01 1b be 07 6b 6b 3d c6 3a 44 3e 2d a2 20 3e
       -0.15137295 0.057475116 0.19163045 0.15686865
000050 87 72 8f 3d 67 a2 1d 3d 62 93 3c be 70 e2 ce bd
       0.07004266 0.038484957 -0.18415597 -0.10101783
000060 b8 62 01 bd 3c f9 06 3e 9b 41 1c bd 23 ac d1 3d
       -0.031588286 0.13181013 -0.038148504 0.102379106
000070 74 1d f3 3d 8c f1 3d 3e c8 f9 73 be 49 be 8e bd
       0.11870852 0.18549174 -0.23825753 -0.06969888
000080 36 ad 74 3c 58 8d 55 3e 81 fc ce bc 19 3e 33 3e
       0.014933875 0.208547 -0.025266888 0.17504157
000090 ad ca df bc c9 9c 17 be 91 fe 25 3d b7 e5 2a 3e
       -0.027318323 -0.14805903 0.040525977 0.16689192
0000a0 4e 30 1c 3b 47 60 56 3e 81 00 07 be 05 ec 61 be
       0.0023832503 0.20935164 -0.13183786 -0.2206269
0000b0 25 a0 50 3e 8f 04 30 3e 20 c6 f4 bd 3c 03 8f be
       0.2037359 0.17189239 -0.11951852 -0.27932155
0000c0 e4 fc 6a 3e fd 6c cf 3d 97 a7 37 3e ca e7 4a be
       0.22948033 0.1012821 0.17935024 -0.19814983
0000d0 88 2e 84 3e 71 c3 07 bd 4f 55 51 be 2c 6a d8 3d
       0.2581675 -0.03314537 -0.20442699 0.10567126
0000e0 fa e6 98 be f4 9f d2 bd bf 4e 38 3e fe 18 54 3e
       -0.2986372 -0.10284415 0.17998789 0.20712659
0000f0 4f 0c 25 bd fc 1c d6 3d c8 db 16 3e 74 3a 1d be
       -0.04029494 0.10454747 0.14732277 -0.1535433
000100 b6 84 a2 bb 01 2a a1 bd d5 c6 72 3e ed d3 e3 3d
       -0.004959668 -0.0786934 0.23708661 0.11124406
000110 88 1b 30 be 4b 5f c9 3d 2d b6 85 bd f1 33 04 be
       -0.17198002 0.09832629 -0.06528888 -0.12910439
000120 4c ec 4e 3d 6a 72 95 3e ca 35 f4 3d 3c b5 68 be
       0.05051832 0.29188854 0.11924322 -0.22725385
000130 f4 e8 8d 3e 00 87 3b 3e 1c 7d b4 bc 07 2e 87 be
       0.27716792 0.18313217 -0.022032313 -0.26402304
000140 1e b5 68 3e aa 68 48 b9 12 08 8e 3e 5e b5 69 3e
       0.2272534 -0.00019112477 0.27740532 0.22823092
000150 87 cf 80 be ac 66 06 3d 28 3d b5 bd 9e bc e8 3d
       -0.2515833 0.03281276 -0.08849555 0.11364101
000160 2b 4a 2c 3e 0d 8a a5 bd 2b 53 cb bd 9c bf 44 3e
       0.16825168 -0.08082972 -0.099279724 0.19213718
000170 6a 3d 84 3e 86 6e 3f be da 8c 3d be d9 7e 7f be
       0.25828105 -0.18694505 -0.18510762 -0.24950732
000180 db b2 5f 3e cb bd 9b 3b 20 5c 06 3e 1a 8f a2 be
       0.21845572 0.0047528497 0.1312108 -0.31749803
000190 95 c1 89 3d bd 70 18 bd 12 b1 3d 3d da 28 d7 bc
       0.06726376 -0.03721689 0.046311446 -0.026264597
0001a0 47 30 96 3d 1c b7 f6 bd a1 e4 18 3e 01 89 51 bd
       0.07333427 -0.12046644 0.14930965 -0.051156048
0001b0 42 4d 2c be 35 69 91 bd 03 55 b9 3d 88 af 3e bd
       -0.16826347 -0.07100145 0.09049418 -0.04655412
0001c0 e9 8c 2e be 85 8f 32 3e 6c 5e bc 3d 9b 09 8a bd
       -0.1704594 0.17437561 0.09197697 -0.06740113
0001d0 07 84 f7 bd 1e 96 ec bd 3e 32 e1 ba ec 51 25 3e
       -0.12085729 -0.1155207 -0.0017181111 0.16144532
0001e0 bf 6a 0d be 60 13 5a 3e ac 01 84 bc 89 ba e1 3d
       -0.13810252 0.21296453 -0.016114078 0.11021907
0001f0 1b 61 1f 3e fe 47 f2 3c ee 69 c1 bb 05 a3 ef 3d
       0.15564387 0.029575344 -0.0059025204 0.117010154
000200 00 6d e8 bd 78 39 44 3e 96 f7 86 bd db f0 8b 3e
       -0.11348915 0.19162548 -0.06590192 0.27332196
000210 cb 15 5e bd 87 e8 67 be bf ba cd bd 56 2f 65 3e
       -0.054220002 -0.22647296 -0.100453846 0.22381338
000220 01 bd 59 be 17 6e 08 bd 9a 0f 80 be 58 d4 0d be
       -0.21263506 -0.033308115 -0.25011903 -0.13850534
000230 20 22 01 3c 53 aa 65 be 91 4b eb 3d fd f6 70 3e
       0.007881671 -0.22428255 0.114890225 0.23531719
000240 9f 3b 80 3d f6 69 3d 3c fb 99 77 be bb 37 15 3e
       0.06261372 0.011560908 -0.24179833 0.1457204
000250 75 d6 4d 3e 36 17 8f 3d 2d 23 2d bd 20 6d 64 3d
       0.2010134 0.06986849 -0.042269874 0.055768132
000260 8b 19 38 3e 27 d9 90 be d6 02 bc 3d 71 1c 0e be
       0.17978494 -0.28290674 0.091802284 -0.13878037
000270 fe 39 f5 3b 09 f4 0e be b9 c0 9f 3e a5 73 3f bd
       0.00748372 -0.1396028 0.31201723 -0.046741147
000280 55 0f f8 bc d6 73 32 bd 2a 2b bf 3d d2 b5 fe bd
       -0.030280748 -0.0435675 0.09334405 -0.12437023
000290 21 06 86 3b 08 73 9b 3e 0b 7a 40 bd 37 53 5a be
       0.004090086 0.303612 -0.04699139 -0.21320806
0002a0 39 8f bb 3d cd 93 65 3e 40 b7 a0 3e ee 35 4d be
       0.09158177 0.22419663 0.3138981 -0.20040104
0002b0 82 3e 62 3e 52 d0 93 bc 05 e5 e7 3d 45 2c 53 3e
       0.22094157 -0.01804367 0.11322979 0.20622356
0002c0 1b a4 09 be c3 36 42 3e dd 60 06 3c 9d fd 6e bd
       -0.13441508 0.18966202 0.008201805 -0.058347333
0002d0 c8 3f fa bd 98 3e 66 3d 88 44 20 be 19 00 84 bd
       -0.122191966 0.056212038 -0.15651143 -0.06445331
0002e0 43 f9 01 be e8 9f 72 3e bb 07 86 3e 23 2d 0f 3e
       -0.12692742 0.23693812 0.26177773 0.13982062
0002f0 47 44 49 3e ac a4 f9 3d 88 25 65 be 13 7d 41 3e
       0.19654952 0.12189612 -0.22377598 0.18895368
000300 9c 7b 72 3d 0d ab af 3c 3b c1 43 3e 1a 51 83 3d
       0.059199914 0.021443868 0.1911668 0.06411953
000310 36 91 a5 be fe 37 d6 bd b6 f1 a0 3d 5f 92 87 be
       -0.3233735 -0.104598984 0.07858603 -0.2647886
000320 84 fc 8e 3e 44 35 3e be 0c 22 30 3e da 5c 28 be
       0.2792703 -0.18575007 0.17200488 -0.1644167
000330 3a 15 31 3d 93 c8 6e be fd 0c 5f be fb a1 a3 3e
       0.043233134 -0.233187 -0.21782298 0.3195952
000340 2b 78 9e be 67 e3 a9 bd 8c b3 45 be 70 18 9f be
       -0.30951056 -0.08295327 -0.19306773 -0.31073332
000350 a2 41 8c 3e 09 9f a7 3d 95 45 ad bb cf f5 62 3e
       0.27393824 0.081846304 -0.005287836 0.22164081
000360 d5 a7 4e 3e 1c 62 fe 3d 5d f5 6e 3e d6 30 8d be
       0.2018121 0.12421057 0.23335786 -0.2757632
000370 7d c6 c3 3d 38 e5 97 bd a9 36 44 be ac 08 0e be
       0.09559343 -0.07416767 -0.19161476 -0.13870496
000380 92 ff b3 bd c0 e6 c2 bc bb 77 19 3e 7f 39 8a bc
       -0.087889805 -0.02379167 0.1498708 -0.01687312
000390 3e bc ea bc ef 8c 77 be 5e 31 e4 bd ac e5 24 3e
       -0.028654214 -0.24174856 -0.111422285 0.16103238
0003a0 64 82 74 be 73 82 44 3d 28 7a 08 bc 87 d6 af bd
       -0.23877865 0.04797597 -0.008329906 -0.0858584
0003b0 b4 47 e5 bd 50 ce 8f 3e b3 d8 97 be 83 38 93 3d
       -0.11195317 0.2808709 -0.29657516 0.07188513
0003c0 6b 97 b4 bd ea 10 28 be 9e cf 86 3e 7a e5 1d 3e
       -0.08817943 -0.16412702 0.26330274 0.1541957
0003d0 1e 43 f3 3d 30 7d a6 bd 39 0c 3d be b2 54 2a 3e
       0.11878036 -0.08129346 -0.18461694 0.16633871
0003e0 69 85 ab 3d ff 00 0d be b9 c4 75 3e f2 21 13 3c
       0.08375055 -0.13769911 0.24000825 0.008980261
0003f0 d1 71 01 3e 48 83 80 3e bc fb 0d 3d 28 7d f3 3c
       0.12641074 0.2510016 0.0346639 0.029722765

conv1.bias f4 [512]
000000 14 8a 0e 3d e9 9e 91 bc 4f 18 f3 bc 3c 35 02 bd
       0.03479965 -0.01777597 -0.029674677 -0.03178905
000010 1e 9a ff bc d5 87 f4 bc 23 f3 5c bc 74 26 e6 3c
       -0.031201418 -0.029849926 -0.013485703 0.028094508
000020 99 88 1f 3c ee 64 46 bd ff 48 fa 3c ae 41 b2 3c
       0.009737157 -0.048436098 0.030552385 0.021759834
000030 6d f4 d2 bc 55 73 36 bd 7e d7 e4 bc b8 e6 a0 bc
       -0.025751317 -0.044543583 -0.027934786 -0.019641265
000040 7d 95 32 bd ca d1 d3 bc 0d ba 53 bd 80 b2 14 bd
       -0.043599594 -0.025856871 -0.051691104 -0.036303043
000050 31 b6 1e 3c 73 5f 0d bc 2a fe e9 3c c1 ec 89 bc
       0.0096869925 -0.008628714 0.028563578 -0.016836526
000060 d3 84 93 bc 44 3b 3a 3c 18 a4 95 bc 5a b1 9b bc
       -0.018007671 0.011366669 -0.018266723 -0.019005466
000070 5a 2e d2 3c db a3 b0 bc 4b 7b 55 bc ca 11 87 3c
       0.025656868 -0.021562507 -0.013029884 0.016487975
000080 8f bf 80 bb 8d 45 f6 bc 65 1e b3 39 dd 53 4a 3d
       -0.0039290856 -0.030062461 0.00034164186 0.049396385
000090 33 62 e0 3b ac 65 80 bd 90 e8 a8 bc e4 d2 b1 bb
       0.0068476438 -0.06269392 -0.020618707 -0.0054267514
0000a0 da bc 0e 3d b2 d6 b6 bc 1e f0 10 bd ef 3c 0a 3d
       0.03484807 -0.022319172 -0.035385244 0.033749517
0000b0 22 40 6a bc b9 79 12 bd 66 20 93 3c 39 1e 94 bd
       -0.014297517 -0.035760615 0.017959785 -0.07232327
0000c0 f5 e3 51 bc 83 ee 52 bd bc 71 14 3c ef 80 aa 3c
       -0.012810697 -0.051496994 0.0090603195 0.020813433
0000d0 2e 41 9f bb c0 d6 32 bc 03 31 ac bd 15 94 c2 bc
       -0.004860065 -0.010915458 -0.08407786 -0.023752252
0000e0 58 77 7b bd 7d 19 0c bc 47 4e 4c 3a 48 c6 80 3c
       -0.061393112 -0.008550999 0.00077936467 0.015719548
0000f0 e2 b9 2b bd d1 fc 07 bd 1f 98 2b 3d 84 7d 69 bc
       -0.04192532 -0.03320009 0.04189312 -0.014251117
000100 ab 6c 99 bc 54 34 f9 3b ad 7a c0 bc c4 eb e3 bc
       -0.018728575 0.007605115 -0.023495996 -0.027822383
000110 a9 63 8c bc f3 91 87 3c 23 de 7c bc 4f af 81 3c
       -0.017137365 0.016549086 -0.015433821 0.015830664
000120 fd c2 42 bc 9b a0 e2 bb cb d0 03 bd 01 84 cf bb
       -0.011887309 -0.0069161183 -0.032181542 -0.0063328748
000130 af a7 28 3d 73 a8 20 3d ee 36 91 bd 99 a3 ba bc
       0.04117554 0.039223146 -0.07090555 -0.022783088
000140 36 56 7f 3d db 3d a5 bc 77 27 c8 3c 31 c9 e7 bc
       0.062338077 -0.020171097 0.02443288 -0.028294178
000150 89 a8 cb bc 8c b6 e1 bc 49 82 d8 bb 65 43 3c 3d
       -0.024860637 -0.027552865 -0.006607328 0.04596271
000160 e6 84 d1 3c dc 85 19 bd 63 89 2c bd dc 10 f4 bc
       0.025576066 -0.037481174 -0.04212321 -0.029793195
000170 3c 12 30 3c f5 1c 24 bd ad 01 6e bc 8c 8c 92 3b
       0.010746535 -0.040066678 -0.014526767 0.004472321
000180 8c 9c 3b bc 9a 77 77 bd 88 e8 56 bc 54 6f 75 bc
       -0.011450898 -0.060416795 -0.013116963 -0.014980156
000190 c9 df f6 bb 26 a8 67 3d 34 1f 30 bd 6f 35 b1 3c
       -0.0075340015 0.056556843 -0.042998508 0.021631924
0001a0 77 77 3a bd 90 75 eb bc 07 02 90 bc 7b 86 0e bc
       -0.045524087 -0.028742582 -0.017579092 -0.008699055
0001b0 11 da e3 3c cd af 94 3b f0 d7 06 bd 9c 8a e0 bb
       0.027813943 0.0045375586 -0.032920778 -0.006852461
0001c0 6d 57 ea 3b f4 69 0b 3d e9 8e aa 3c 34 f0 e4 3c
       0.0071515352 0.03403659 0.020820098 0.027946569
0001d0 ea 20 32 3d fa 4e f6 bb 52 7b 37 bd 45 ba e4 3c
       0.04348842 -0.007516739 -0.04479534 0.027920851
0001e0 8d 6f 43 3c 9a 5c df bb f5 86 3f bc 20 42 ca bb
       0.011928451 -0.006816459 -0.011689891 -0.0061724335
0001f0 4a bf 58 3c 0f 5c d0 3c 5b f3 31 bb 5b fa 3b bd
       0.013229201 0.025434522 -0.0027153108 -0.045893054
000200 83 eb 20 bd e1 91 04 bd ed 64 0c bd f2 76 a4 bc
       -0.0392871 -0.032365683 -0.034275938 -0.020076249
000210 eb e9 06 3d a9 81 28 bc 0c 50 50 bc ee 41 20 bd
       0.032937925 -0.01028482 -0.012714397 -0.039125375
000220 04 e6 8c bc ab 75 de bc 66 d0 58 3c 39 4e 3e bd
       -0.017199524 -0.027155718 0.01323328 -0.046461318
000230 05 ab 78 bc 8d b4 91 bc e9 53 8d bd 13 b5 db 3c
       -0.015177493 -0.017786289 -0.0690077 0.026819741
000240 fd af 51 bc 6a f4 9d bc 23 74 2a bd 60 09 cb bc
       -0.0127983065 -0.019281585 -0.041614663 -0.024784744
000250 79 1e 1f bd a7 d2 bf bc 5e 73 04 bd d3 21 37 bd
       -0.03884742 -0.023415877 -0.032336585 -0.04470999
000260 76 43 53 bc 0d 4f 99 ba 14 f2 2e b9 c6 53 d8 bc
       -0.012894502 -0.0011696533 -0.00016684114 -0.026407134
000270 16 3e f5 bc a7 0a f9 3c 69 20 d3 bb 6d 12 d0 bc
       -0.029936831 0.030400587 -0.0064430726 -0.025399411
000280 ad 48 17 bd 04 d6 c0 bc dd d4 90 bc 22 54 28 bd
       -0.036934543 -0.02353955 -0.017679626 -0.04109586
000290 17 e7 e5 bc e7 27 20 bd 99 c5 5d 3c a9 49 a9 bd
       -0.028064294 -0.039100554 0.0135358805 -0.08266003
0002a0 85 23 2c bd 6e ad 85 bd 88 ec ab bb 51 8b 99 bb
       -0.04202606 -0.0652722 -0.0052467026 -0.0046857973
0002b0 54 19 bc bc 57 8c 5f bd 8c 80 1a bd 06 f9 a8 bc
       -0.022961296 -0.054577198 -0.037720248 -0.020626556
0002c0 0a 74 c2 bc 80 f0 33 3d b6 b3 a5 bc 0d 57 2a bd
       -0.023736972 0.04393053 -0.020227294 -0.041586924
0002d0 32 fd 53 bc d6 3c 17 bd 94 02 3f bd 79 d2 b1 3b
       -0.012938784 -0.036923252 -0.046633318 0.0054267016
0002e0 fe 82 80 bc 66 10 f3 bc ff d0 09 bc 35 89 1b bd
       -0.015687462 -0.029670905 -0.008411645 -0.037972648
0002f0 cf a9 4e bc 61 04 18 bd fd 93 16 bd 41 0e f8 bb
       -0.012613728 -0.03711355 -0.036762226 -0.0075700586
000300 de c5 d5 3c b8 f7 20 3d b9 08 8e 3c d8 94 07 3d
       0.026095327 0.039298743 0.017338144 0.033100933
000310 fd b8 85 bd 1c 8d 87 bc 32 b1 76 3c 73 fa 3d bd
       -0.06529424 -0.016546778 0.015056895 -0.046381425
000320 4a 3b 58 bc d0 b4 17 bd 30 76 69 bb 71 b6 27 bd
       -0.013197729 -0.03703767 -0.0035623424 -0.040945474
000330 65 0d 07 bc 96 cc 99 bb a4 d1 5e 3c f3 39 53 3d
       -0.00824294 -0.004693578 0.013599787 0.051568937
000340 71 31 f0 bc ce 67 56 bc 03 cc 27 bd c4 f5 66 bd
       -0.02932045 -0.013086272 -0.040966045 -0.056386724
000350 62 b4 74 bd 1e 9a 07 bc 1f 76 62 3b 08 ab 12 3c
       -0.05974234 -0.0082764905 0.003455527 0.00895191
000360 c2 49 d1 3a 25 6c 05 bc d4 ad fb bc 13 93 a3 bc
       0.0015967416 -0.008143459 -0.030722536 -0.019967591
000370 82 7d ca bc 14 65 57 3c ec 3b 43 bc af 53 2e 3d
       -0.02471805 0.0131466575 -0.011916142 0.042560276
000380 dd 6d a3 bc dd cf 12 bd 30 89 57 3c 46 fa 3e bc
       -0.019949848 -0.035842765 0.013155267 -0.0116563495
000390 2c f6 9a bc 0b c4 73 bc 31 9b ba ba c0 5b 9c bb
       -0.018916212 -0.014878283 -0.0014236924 -0.0047716796
0003a0 db 62 13 bd b4 63 ad bc c0 8a 07 bd d6 28 c4 3c
       -0.035982948 -0.021165706 -0.033091307 0.023945253
0003b0 8f 58 12 bd 09 3a a6 bb f5 3f 4f bc 16 c5 e1 bc
       -0.035728987 -0.0050728363 -0.012649526 -0.027559798
0003c0 33 96 cb b9 76 91 48 bd 82 ff 2f 3d 57 29 7c bb
       -0.00038831084 -0.048966847 0.04296828 -0.003847679
0003d0 44 54 bd bb e5 14 06 ba cc e8 e3 bb 35 90 0a bd
       -0.0057778675 -0.0005114808 -0.006955242 -0.033828933
0003e0 03 1a 06 bc b7 b7 e4 bc 7b f6 e0 bc a3 39 a2 bc
       -0.008184913 -0.027919633 -0.027461281 -0.019802874
0003f0 18 d1 fc 3c 34 27 da 3b f3 c8 b0 bc 5f e8 4b 3b
       0.030861422 0.0066575054 -0.021580195 0.0031113846

conv1.lin_l.weight f4 [512, 8]
000000 17 68 fd bc eb c9 e7 bc 78 d3 32 bc 5e 50 9e bd
       -0.030933423 -0.028294524 -0.010914676 -0.077301726
000010 6d 8e 41 bc a6 4e d1 3b 4c 09 e4 ba 05 8c 8e 3d
       -0.011813742 0.0063875495 -0.001739779 0.069603
000020 91 01 19 bd ac 14 e8 3b c5 5f f6 3c ba 2b 7e 3d
       -0.03735501 0.0070825424 0.030074963 0.06205342
000030 a4 30 fa bb e1 f7 ca bd f3 3c a1 3b a1 e5 4a bd
       -0.007635193 -0.099105604 0.004920596 -0.049535397
000040 c5 67 83 3d 71 34 a3 3c 4b 5e e0 3c 2b 5e 53 bd
       0.06416277 0.019922467 0.027388712 -0.051603477
000050 b5 e2 ab 3b 09 54 b9 bd d7 ea 32 3d 13 8d 5e 3c
       0.0052455314 -0.090492316 0.043680992 0.013583439
000060 4e 9a 27 bc fa 4b bf bd 85 12 ae 3b 5c 8e 09 be
       -0.01022966 -0.09340663 0.0053122663 -0.13433212
000070 50 c0 dc 3a 7c 15 19 bd 8c 83 94 3c e0 cd 86 b7
       0.0016841982 -0.037374005 0.018129133 -1.6069913e-05
000080 8f 9f 80 3c 0e 06 31 bd 92 ff 50 39 7a fb 65 bd
       0.015701083 -0.043218665 0.00019931633 -0.05614803
000090 3b c1 35 3a 42 80 44 bc 32 18 a1 3b 89 2e c2 bc
       0.00069333956 -0.01199347 0.0049162144 -0.02370383
0000a0 e0 21 a0 3a 0d b1 14 bd de a7 29 3c a4 a2 09 3d
       0.0012217127 -0.03630166 0.010354964 0.03360237
0000b0 ae a5 41 3c a6 48 8e bc 83 e9 e4 3c ac d7 2e bd
       0.011819286 -0.017368626 0.027943378 -0.04268615
0000c0 cd 3a 78 bc da a1 47 3b aa fb 7b bc 33 ea 89 3d
       -0.015150738 0.0030461461 -0.015379826 0.06734123
0000d0 87 3a 19 bc d1 a4 57 bc 32 fd 09 3a 5e 4c 92 bd
       -0.009352333 -0.013161854 0.00052638643 -0.07143472
0000e0 f9 b6 8f 3b 97 e8 47 bd 56 1e f6 b8 53 c9 ea 3b
       0.0043858257 -0.0488058 -0.000117358446 0.007165113
0000f0 cc 96 cf 38 ff 63 23 bd ba f5 0f bb f7 f9 18 bd
       9.898617e-05 -0.039890286 -0.0021966533 -0.03734776
000100 3f 87 a3 3b 95 a7 cb bc c1 76 c6 bb 77 1a ec bd
       0.004990488 -0.024860183 -0.006056637 -0.11528485
000110 97 ab ad 3a ad 69 6b bd 7a 47 25 bc e1 a5 9a bc
       0.001324999 -0.057473827 -0.010087842 -0.018877925
000120 89 de 41 3d 7d 75 d5 bd 8b 2f 98 3c df cc 3a 3d
       0.047331367 -0.104228 0.018577358 0.045605537
000130 f8 70 31 bd 75 e8 6b bd 61 47 37 3c 56 da cf bc
       -0.043320626 -0.057594735 0.011186452 -0.025372665
000140 9c eb ba 3b bc 7d 80 bc f5 5d 90 bb 69 ec e0 3c
       0.0057043564 -0.015684955 -0.004405732 0.02745648
000150 b3 5e 98 ba 17 6e 20 3c 65 78 ab 3b 4f cd a2 bd
       -0.0011624902 0.009791872 0.005232858 -0.07949316
000160 4e bf 9b 3d 20 a3 a3 38 3a 7a b5 3b cc 36 50 3a
       0.07604848 7.80283e-05 0.005538252 0.00079427357
000170 43 88 d2 bc 39 5e 62 bb db f7 c4 3d 04 cd 22 3b
       -0.02569974 -0.0034541024 0.09617587 0.0024841437
000180 b2 bc 8c 3d 11 75 21 3c e1 8d ef 3c 80 5c 89 3d
       0.06871928 0.009854571 0.029242458 0.06707096
000190 cc 49 23 bd 83 a8 07 be 39 38 0e bd 2f 9c ae bd
       -0.0398653 -0.13247876 -0.034721587 -0.085258834
0001a0 1d d8 ea bc b0 03 2e 3c 09 37 fb 3b 68 25 27 3d
       -0.028667504 0.010620996 0.007666473 0.040807158
0001b0 74 26 03 bd d6 8d aa 3d bf 28 99 3b ce 49 38 3c
       -0.032019094 0.08327834 0.0046740468 0.011248065
0001c0 bb 52 81 3c 22 5b b1 bd 27 2b 22 bd 81 8a 8d 3d
       0.01578652 -0.0865996 -0.039591935 0.06911183
0001d0 6d 2d 29 3d ca 9b ce bc 45 61 87 3c 2d a5 3c 3d
       0.041303087 -0.02522077 0.016525874 0.04605596
0001e0 cc ed 7d 3c cd 76 1f 3c 36 bf d4 3c ec 6c 35 bb
       0.01549859 0.009732914 0.025970083 -0.002768333
0001f0 72 2d 04 3c 53 6b 75 bd 5e 96 c6 3c 33 13 be bd
       0.008067476 -0.059916805 0.024241623 -0.09281006
000200 f6 e8 dd 3c 91 3c e5 3d 39 97 e4 bc 20 c3 91 3d
       0.027088623 0.11193193 -0.02790414 0.07117295
000210 6b 06 62 3b 21 cb da 3d 45 45 27 3c da 78 a5 3d
       0.0034488689 0.10683275 0.010209386 0.08079691
000220 f5 90 bc 3a 5f 85 37 bc 53 2f 7c bc 1b 75 fc 3c
       0.0014386462 -0.011201232 -0.015392142 0.030817559
000230 85 32 13 3d 58 be b1 3c c1 c4 ed 3c 77 0f f4 3c
       0.03593685 0.021697208 0.029024484 0.02979253
000240 e8 d7 1a bc bf b3 82 3b 35 05 be bd 4b ef 3b bd
       -0.00945089 0.0039887126 -0.09278337 -0.045882504
000250 67 b6 a7 3b 94 c7 87 bd da f7 df bd f5 24 6d 3a
       0.0051181796 -0.066298634 -0.10935946 0.00090463395
000260 05 9d 16 3b 9c 5f f7 3c f6 48 94 ba 04 5d 00 be
       0.0022981775 0.030196957 -0.0011313248 -0.12535483
000270 15 01 2c bd 4b 9d c3 bd 86 38 9d b9 9a 2b e0 bd
       -0.04199322 -0.09551486 -0.00029987487 -0.10945816
000280 dc 19 17 3c 9f 1a 9f bc 0d 3b de bb 7e d2 99 bd
       0.009222474 -0.019421874 -0.0067819417 -0.07510851
000290 95 80 a1 bb ed 2f c5 bb 61 b0 6c bc f5 69 af bd
       -0.0049286583 -0.006017676 -0.014446349 -0.085651316
0002a0 32 45 1b 3b 70 09 30 bc 37 62 9f 3a 0c 2d 89 bc
       0.0023692367 -0.010744438 0.0012160008 -0.016745113
0002b0 65 9e 2c 3a 0c ab 9c bd 7e b1 51 3c 9b da 45 bb
       0.0006584882 -0.07649812 0.012798665 -0.0030190113
0002c0 44 84 a7 3b 38 a7 5c 3c 5a b7 8c 3d de 24 6d bb
       0.005112203 0.013467602 0.06870909 -0.0036185305
0002d0 28 4f 26 bb 8b cd 4e 3d 53 99 3a 3c 9f 12 96 3d
       -0.002537677 0.05048899 0.011389094 0.073277704
0002e0 67 5b 5f 3c 7a e3 a3 3d dd 53 5b 3a a1 3b 0f bd
       0.013632632 0.08002372 0.00083666836 -0.034968976
0002f0 35 cf bf 3c 66 cd 12 3d 52 db b2 3a 2a 90 8b 3d
       0.023414234 0.035840414 0.0013645685 0.068146065
000300 df 50 4c 3d 72 fb 37 bd 2f 28 0b 3d 57 53 d1 3c
       0.049881812 -0.04491753 0.03397387 0.025552435
000310 8b c6 b6 bc a4 96 38 3d b5 57 a7 bb 73 62 9d bc
       -0.02231147 0.045065537 -0.005106891 -0.019211983
000320 2a cb d1 3c df 95 cb 3c a0 39 6f bb 36 1e f3 bd
       0.025609571 0.024851738 -0.0036502853 -0.11870997
000330 f5 16 3a bc 40 87 c8 3b 6f 04 ed bb 99 0e 4c bc
       -0.011358012 0.0061196387 -0.0072331945 -0.012454652
000340 99 2b 65 3c d5 a9 84 bc 45 d1 39 3c de ef c3 3c
       0.013987445 -0.016194263 0.011341398 0.023918089
000350 b0 3c 1c bd d1 9f 19 38 f3 46 b7 3c 3a bd ab 3b
       -0.038143814 3.6626883e-05 0.022372698 0.0052410634
000360 40 bb ca ba 02 b4 75 bd e4 58 1a 3c 7f aa 01 be
       -0.0015467182 -0.059986122 0.009420607 -0.12662695
000370 3b 05 ce 3a aa 0e c6 3c 23 61 28 39 07 ea 6a bd
       0.0015718112 0.024176914 0.00016057915 -0.057352092
000380 db cf 44 39 13 21 b8 bd 0e 2d 47 3a 20 78 b1 bd
       0.00018769449 -0.089906834 0.0007597961 -0.0866549
000390 59 87 8b 3b 3e e8 27 bd 7d 4e 83 3b d3 8c c2 bc
       0.004258078 -0.040992968 0.0040071593 -0.02374879
0003a0 e6 99 96 bb 58 b3 36 bb 9e 42 d5 bd be bb 7a 3d
       -0.004595983 -0.0027877893 -0.10413097 0.0612142
0003b0 49 58 cc 3c ea 36 00 be d7 2f 1b 3d 61 a4 ca 3b
       0.024944441 -0.12520948 0.03788742 0.0061841463
0003c0 d4 79 38 bd a4 01 8a 3c b6 8c c8 bb 84 1c 83 3d
       -0.04503806 0.016846485 -0.0061202897 0.06401923
0003d0 06 67 48 3c b1 d8 c2 3d f8 83 9d bc 80 8d 57 3d
       0.012231594 0.09513987 -0.019227967 0.05262518
0003e0 5b 26 af 3d b1 a0 e6 bc 49 32 5e 39 88 d0 52 bd
       0.085522376 -0.028152796 0.00021190303 -0.051468402
0003f0 4c f7 2b 3a bb d6 a5 3b 08 30 7a 3c e2 41 0f bd
       0.00065599824 0.0050609983 0.015270241 -0.03497494

conv1.lin_l.bias f4 [512]
000000 e0 f0 76 bd 85 a3 ea bd 77 7b 25 3c 37 e7 a1 3e
       -0.06028831 -0.1145697 0.010100237 0.31621715
000010 bc ce 44 3e 19 79 89 bc 3b 60 43 be 60 5a 02 bd
       0.19219488 -0.016781377 -0.19079678 -0.03182447
000020 39 83 36 3e 55 81 21 3e 27 6e 07 be 80 07 e4 bb
       0.17823495 0.15771993 -0.13225614 -0.006958902
000030 b5 c4 ba 3d 23 a4 d5 3d 4b a7 d1 bc 52 af c6 bc
       0.0911955 0.10431697 -0.025592467 -0.024253521
000040 86 c7 96 be fc 40 28 3d 85 15 47 3e f5 fe 84 3d
       -0.294491 0.0410776 0.19441803 0.06493942
000050 ab 16 27 3d 46 e6 1c 3d 78 53 64 be ba ec f1 3d
       0.040793102 0.038305543 -0.22297466 0.1181273
000060 a2 53 29 ba bc 36 88 be a8 4c 4c 3e 0d 92 8a 3e
       -0.00064593006 -0.2660426 0.19951117 0.27064553
000070 89 be 08 3e 05 42 75 be 38 f7 59 3d 26 12 8b be
       0.13353933 -0.23950966 0.05321428 -0.27162284
000080 dd 1f e0 bb a5 56 85 3e ca e3 5b be 3f 0d e9 bd
       -0.006839736 0.26042667 -0.21473613 -0.113794796
000090 71 5a 55 3d 5d c7 86 3e 44 36 47 be ea 9f bb bb
       0.052088205 0.26323977 -0.19454294 -0.0057258504
0000a0 b4 1d d7 3d 68 e1 84 3e 7d f0 a5 be 8d 9c 92 bc
       0.10503712 0.2595322 -0.3241004 -0.017896915
0000b0 d8 52 55 be 32 ad 02 be a3 74 8f bd dc ef ef 3d
       -0.20832384 -0.12761381 -0.070046686 0.117156714
0000c0 29 de ca 3d b0 4d e1 3d 33 e0 3a bd 5b c8 48 3d
       0.09905655 0.11001146 -0.04562397 0.0490192
0000d0 4b a4 0a be 11 f9 ec 3d 93 e4 4a 3e da 6c 5a be
       -0.13539235 0.11570943 0.19813757 -0.21330586
0000e0 a1 d4 95 be ea 1b 86 3e 13 ed a2 3e c5 cc 09 3e
       -0.29263785 0.26193172 0.31821498 0.1345702
0000f0 cb ab 77 3d f8 bc 90 3e 04 ea 7e be 50 49 66 bc
       0.06046657 0.28269172 -0.24893957 -0.014055565
000100 35 e9 44 3e 0d 22 18 3e ed d4 07 3e 56 9d db 3d
       0.19229586 0.1485674 0.13264818 0.10723369
000110 3a bd 83 bc 42 88 10 3e 6f c6 3f be ae 50 36 be
       -0.016081441 0.14114478 -0.1872804 -0.17804214
000120 b3 9b e9 3d a0 55 a2 3e be 02 dc bd 25 60 94 be
       0.114066504 0.31705952 -0.107427105 -0.28979602
000130 f8 6e b9 bc 2f 1d 9a 3b cb 40 1c 3e 6d 6b 71 bd
       -0.022635922 0.004703186 0.15259092 -0.05894034
000140 68 71 e4 bd 17 77 67 3d 5b 9d 9c 3d 01 1b 91 3e
       -0.11154443 0.056510057 0.07647201 0.28340915
000150 91 5e 1b 3e fc 4d 4a 3e 6b f6 73 bd e5 0b 9c bd
       0.15172793 0.19756311 -0.059561174 -0.07619456
000160 8b e3 3d 3e 34 5d ee 3c a5 ab 9e be a1 d1 68 3e
       0.18543832 0.029097177 -0.3099033 0.22736217
000170 ce 56 34 be 20 73 28 3e 41 50 cd bd ef 8a a0 bd
       -0.17611238 0.16450167 -0.10025073 -0.078389995
000180 56 c9 f4 bd 42 b8 44 3e 5a e2 47 3e d2 fa 8c 3c
       -0.11952464 0.19210914 0.1951994 0.017209444
000190 fb 26 80 be 7c f3 36 be 30 85 51 3e 84 d8 69 3e
       -0.2502974 -0.1786632 0.20460963 0.228365
0001a0 4a 99 25 bd be b3 a0 be 84 5e 7d 3e 9a 34 9c be
       -0.04042939 -0.31387132 0.24743086 -0.30508882
0001b0 e8 49 c9 bd 15 19 2f be b6 5a 79 bc 28 ae fd 3d
       -0.098285496 -0.17099412 -0.015219381 0.12386733
0001c0 2e c7 2a be 89 8e 00 3c 10 10 81 be cc ff 7d be
       -0.16677544 0.007846483 -0.25207567 -0.2480461
0001d0 e1 8f 0b be 67 c2 80 be 57 5f 81 3e 89 96 f9 bd
       -0.13629104 -0.25148317 0.2526805 -0.121869154
0001e0 7b e3 97 be 4c bd ae be 4a 19 60 3d db 59 25 be
       -0.2966574 -0.34128797 0.054711618 -0.16147558
0001f0 ce 64 9e be 66 67 25 3e 9e 5a 0f bd 08 b9 83 3e
       -0.30936283 0.16152725 -0.03499853 0.25727105
000200 02 c4 8b 3d dd 58 8a be 84 bc 68 3e 7d 4c fd bd
       0.06824495 -0.27020922 0.22728163 -0.123681046
000210 04 c5 86 bd 21 5e 3b 3d 83 9c 78 be b4 18 ff 3d
       -0.065805465 0.045744065 -0.24278454 0.124558836
000220 68 04 17 3e bb 7e 79 3d d8 cb 31 3e bc 69 b0 3d
       0.14747775 0.060911875 0.17362916 0.08613917
000230 5a 09 2e 3e 22 6e 10 bd 81 b8 b7 3d 6a c3 13 be
       0.16995755 -0.03526128 0.08970738 -0.14430013
000240 aa 00 27 be fa d4 5d 3e f3 0c 35 3e 6a 4d f8 3c
       -0.16308847 0.21663275 0.17680721 0.030310351
000250 52 1e 35 3e 75 6f 94 bd d0 22 61 be 09 4d 05 3e
       0.17687348 -0.07247821 -0.21985936 0.13017668
000260 c1 33 35 3e 61 21 87 be 3a 3a 9a 3e 4a be 6a be
       0.17695524 -0.26392654 0.30122548 -0.22924152
000270 3e ae ab bd 17 51 71 bd df a3 a4 bd e3 4a a6 bc
       -0.083828434 -0.058915224 -0.080390684 -0.02029938
000280 05 f1 6a bd 90 81 6c be 73 26 3a 3c be ab 62 be
       -0.05735876 -0.23096299 0.011361706 -0.22135827
000290 35 15 35 3e 81 a7 89 be 41 61 31 3d e4 81 3f 3d
       0.17683871 -0.26885608 0.04330564 0.046754733
0002a0 66 b8 a0 be 98 51 4e 3d 71 7c 6a be e3 91 04 bd
       -0.31390685 0.050370783 -0.22899033 -0.03236569
0002b0 29 10 d2 bd e6 80 5d 3e b0 2c b3 be 44 8c fd bd
       -0.102569886 0.21631202 -0.3499503 -0.12380269
0002c0 64 fd 90 3d e7 a8 8d be 10 d0 a3 be 64 e0 65 3e
       0.070795804 -0.27667925 -0.31994677 0.2244888
0002d0 4d c0 68 bd d2 be 9c 3d 08 a6 a5 be 17 4a dc bc
       -0.056824017 0.076535836 -0.32353234 -0.026890798
0002e0 b7 35 90 bd 0e 40 27 3e b8 87 23 3e 85 f0 05 3d
       -0.07041495 0.16333029 0.15969741 0.03270008
0002f0 67 4a 89 be 3e 78 0c 3e b8 cb 96 be 4e aa 8d be
       -0.26814577 0.13717744 -0.294523 -0.27668995
000300 fa b6 6f 3d 17 06 1f bd 77 a2 40 be 8b e5 81 be
       0.05852411 -0.038824167 -0.18811975 -0.2537044
000310 ab 57 a7 3a 88 5d fc bd d9 64 09 be 2f 08 58 3c
       0.0012767216 -0.12322527 -0.13417377 0.013185545
000320 b0 38 38 3e b5 35 ea 3d 2b 92 0b be 4d be 8a be
       0.17990375 0.11436025 -0.13629977 -0.27098313
000330 8b 90 36 3e 8f 45 ac be a7 e6 ed 3d 45 b2 7c bc
       0.17828576 -0.3364682 0.11616259 -0.015423362
000340 32 3c d6 3c e9 df 47 3e 2d cc c7 be 15 1e 05 3d
       0.02615175 0.19519009 -0.3902296 0.03249939
000350 15 c7 2d 3e d2 ae 43 be 00 60 d6 3d 73 aa 05 be
       0.16970475 -0.19109657 0.10467529 -0.13053302
000360 2a 97 6d 3e b7 80 90 3e 1e 53 7a 3e ce 26 3c be
       0.23202196 0.28223202 0.24445769 -0.18374178
000370 24 c8 69 3d b7 e3 3d bd 15 5a 47 be 44 c6 0e 3d
       0.057075635 -0.046359744 -0.19467957 0.03485705
000380 ae f0 49 3e c4 b8 46 3d 15 ec 94 be 08 88 6f 3d
       0.19720718 0.04851605 -0.29086366 0.05847934
000390 a6 f3 97 3d 86 51 8f 3d 61 54 48 3e 4b 81 4e 3e
       0.07419519 0.06997971 0.19563438 0.20166509
0003a0 0b 0b 21 3e a8 44 3b 3e 5f 53 cd 3d 29 bc dc bd
       0.15726869 0.18287909 0.100256674 -0.10778076
0003b0 92 da 87 3e 0b 20 57 3e ee de 46 be de d8 52 3e
       0.26533943 0.21008317 -0.19420978 0.20590541
0003c0 7b 5d 91 3e 60 a9 c8 bd 80 b1 88 bd 6d 01 81 be
       0.28391632 -0.09797931 -0.066744804 -0.251964
0003d0 9a 2a 64 be 5f 6f ad be ba 98 9f be dc fb 23 bd
       -0.22281876 -0.33874032 -0.3117121 -0.040035114
0003e0 91 d6 b0 bd 1d c5 1c bc 42 7a ca 3d 61 bc 96 3d
       -0.08634675 -0.00956848 0.098866 0.07360149
0003f0 d5 aa 0d be 7e 15 53 be 53 29 59 be 6d f1 bf 3b
       -0.13834698 -0.20613667 -0.2120717 0.0058576376

conv1.lin_r.weight f4 [512, 8]
000000 78 e0 6e b6 44 2e 4c 3d 18 19 5b b6 59 6f 62 3d
       -3.5595422e-06 0.04984881 -3.264815e-06 0.05528197
000010 f4 b9 2c b5 14 b1 10 3c ae f1 67 37 bb 10 b1 bc
       -6.434559e-07 0.008831281 1.3824943e-05 -0.021614423
000020 44 5d 04 3a 33 6f 4f 3d 91 8a b1 37 93 9e 55 3d
       0.0005049298 0.050643157 2.116457e-05 0.05215318
000030 c5 53 46 39 23 ac 7f 3c 3c bd 24 3d 3d 8f 22 3c
       0.00018913958 0.015605005 0.04021953 0.009921846
000040 e0 fe fd b6 b2 d2 8b bd b1 f7 b9 39 c8 78 c6 bd
       -7.569659e-06 -0.06827296 0.00035470494 -0.09691006
000050 86 5e 18 bb 14 88 9e 3d 45 0f 20 3a 9d 4b 1d 3c
       -0.00232497 0.077407986 0.0006105791 0.009600547
000060 c7 9e 9f bc ea 9b b8 3d 57 d6 c9 ba 5d 53 9b 3d
       -0.01948489 0.09014113 -0.0015398961 0.0758426
000070 b9 59 b9 bc 91 2b 03 3e 31 06 91 bb 6f 5c c1 3c
       -0.02262579 0.12809588 -0.004425787 0.023603646
000080 17 0b 35 bb a9 f9 1d bd b9 f5 21 b7 b4 54 8d bd
       -0.0027625018 -0.038568173 -9.65356e-06 -0.069009215
000090 01 5c ce 38 fa b3 bc 3c b4 63 66 b7 ca 05 c8 bd
       9.8399825e-05 0.023035038 -1.3732282e-05 -0.09766729
0000a0 22 ed cc 3b 3b f5 f3 bd d0 33 c4 b5 b0 5d 0b 3c
       0.0062538544 -0.119120084 -1.4618217e-06 0.008506224
0000b0 04 49 1b 3b a3 1c cf bc de 1e 25 3c b0 98 01 be
       0.0023694644 -0.02528221 0.01007816 -0.12655902
0000c0 f1 7f f9 39 e6 de 99 3c f3 fb 42 b5 ed 1b 0f be
       0.00047588305 0.018783044 -7.2637266e-07 -0.13975497
0000d0 39 21 e6 b6 a5 6f 08 bd b1 60 7b b9 b2 c7 28 bd
       -6.858402e-06 -0.033309598 -0.00023973246 -0.04120607
0000e0 ca 38 1b b5 0b 30 02 bd 4c 73 1e b6 50 32 39 39
       -5.782464e-07 -0.0317841 -2.3610946e-06 0.00017661718
0000f0 f1 70 2d b5 ec 40 71 3b 50 64 da 36 d9 46 57 b9
       -6.4611874e-07 0.0036812378 6.508584e-06 -0.0002053039
000100 c3 53 2b bb 46 61 07 bd 6a 52 2f 38 22 e4 d9 3d
       -0.0026142455 -0.03305175 4.1800005e-05 0.10639216
000110 fc e0 2e 38 6a 9c 8d 3d 4f 6a c3 38 28 0e 38 3d
       4.1694366e-05 0.06914599 9.318126e-05 0.044935375
000120 0b c7 16 38 63 d1 a7 ba fc d2 aa b6 54 03 85 3d
       3.594816e-05 -0.0012803491 -5.0909566e-06 0.064947754
000130 73 3a 82 b7 4d 0a bb bc 6e b6 6c 38 5c 9d b4 bc
       -1.5524425e-05 -0.02283206 5.6436686e-05 -0.022047691
000140 0a 34 00 36 ca 8c 01 bd 97 66 a9 36 81 d2 9e ba
       1.9103777e-06 -0.031628408 5.0485355e-06 -0.0012117178
000150 99 c5 21 38 dd 3b ca 3b 12 8b 14 b6 55 d0 5f 3d
       3.856942e-05 0.006171687 -2.2134668e-06 0.05464204
000160 6f cb ef bb 93 40 a8 3d 84 27 91 b7 05 b2 e2 bc
       -0.0073179523 0.082154416 -1.7303748e-05 -0.027672777
000170 ed f1 d5 39 7f 77 e8 3c 05 b0 20 b8 fa d5 d1 3a
       0.00040806775 0.028377293 -3.8310904e-05 0.0016009205
000180 6e ca 2c 37 f6 40 63 3b 99 b5 9b 36 e9 e9 cb 3c
       1.0299131e-05 0.003467617 4.6405007e-06 0.02489181
000190 66 af 8c 35 35 a9 0e 3d 0b 50 41 b7 4e a7 81 3d
       1.048186e-06 0.034829337 -1.1522333e-05 0.06330739
0001a0 b8 dc 61 ba 54 8d 7f 3d e2 54 c8 3b db 2d c5 3d
       -0.00086159585 0.06239064 0.0061136344 0.09627887
0001b0 72 e5 87 3c 01 81 8f bd bd d6 02 3c d1 e0 f0 3b
       0.0165889 -0.070070274 0.007985768 0.007351019
0001c0 55 d1 a2 ba 39 1d ea 3d 63 d3 e5 3b c6 12 8d bd
       -0.0012422005 0.11431355 0.0070137247 -0.068883464
0001d0 00 be 35 3c 2b 98 52 3b 0b c5 1b bc 57 33 20 3c
       0.011092663 0.0032134156 -0.009507428 0.009777865
0001e0 89 3a 1d 38 d3 9b cd 3d 37 65 8c b5 2c f6 90 bc
       3.7486232e-05 0.10039487 -1.046027e-06 -0.017695509
0001f0 9c b2 f0 b7 81 2d fc bc 08 09 98 38 04 50 ac 3c
       -2.8693401e-05 -0.030783417 7.249607e-05 0.021034248
000200 a7 70 ec ba cd aa bb bc 8a a3 1f 38 7c 3c 24 3d
       -0.0018038944 -0.022908593 3.806086e-05 0.040096745
000210 be 79 15 b8 39 5f 89 3d ca b7 0f 37 06 a0 31 bc
       -3.563775e-05 0.067076154 8.566256e-06 -0.010841375
000220 58 a7 45 3a 50 4b 85 bd 5f 97 5a b6 34 7b 7c bd
       0.000753989 -0.06508505 -3.257264e-06 -0.061640933
000230 f5 9a bc 3a 30 5c ab bd ca 10 9d 35 88 07 8c bd
       0.0014389443 -0.08367193 1.1702298e-06 -0.06837374
000240 f2 95 b4 ba 55 98 f5 bd bf d0 1c 35 75 06 22 3d
       -0.0013777597 -0.11991946 5.8418294e-07 0.03955694
000250 ba f8 a9 37 74 8c e1 bd 4d be e4 b7 b4 be 0a bd
       2.0262192e-05 -0.110131174 -2.7268334e-05 -0.033873275
000260 98 9e 66 35 39 72 d1 bd 9d f1 18 b6 dc b7 1b bd
       8.591246e-07 -0.10226864 -2.2790402e-06 -0.03801714
000270 a3 2f 8f b7 6b a8 5a bd 74 82 95 3c 5d 76 cb 3d
       -1.7069111e-05 -0.053383272 0.018250681 0.099346854
000280 1e f9 9c b7 d8 d6 1e 3d 28 21 bd 37 ca eb aa 3d
       -1.8712653e-05 0.03877911 2.2545995e-05 0.083457544
000290 6c 69 1d 36 3e 99 a2 3c 7c 04 87 36 22 73 09 3d
       2.3456187e-06 0.019848462 4.0238356e-06 0.033557065
0002a0 24 37 44 b6 e1 39 4e 3d 76 76 90 36 10 3e 2a 3d
       -2.9238372e-06 0.050348166 4.305325e-06 0.041563094
0002b0 a0 7c 9f 35 56 22 5a 39 9c c7 bd 37 c0 3e d8 38
       1.1882694e-06 0.00020802891 2.2623506e-05 0.00010311371
0002c0 84 9e e2 36 38 74 86 3d 84 57 d8 3b 82 b4 ec 3d
       6.7537785e-06 0.06565136 0.0066022296 0.11557867
0002d0 73 4f 7c 3c bd d4 a2 bd a9 83 c5 3c c3 99 44 3c
       0.015399802 -0.07950733 0.024110632 0.01199955
0002e0 e7 7c 35 b7 77 ba 3f 3d a2 49 68 b6 73 c2 e0 3c
       -1.0817522e-05 0.046808686 -3.4613554e-06 0.02743647
0002f0 06 89 67 36 13 c8 72 bd a2 9b 09 b6 80 63 00 3d
       3.450144e-06 -0.059272837 -2.050518e-06 0.03134489
000300 5e df 19 b5 68 13 1f 3c 6e eb d4 b6 01 d8 b1 3d
       -5.7321984e-07 0.009709217 -6.3455e-06 0.086837776
000310 c4 97 a3 35 d8 b4 fc 3c 37 6e f7 38 df 91 00 bc
       1.2188616e-06 0.030847952 0.00011798407 -0.007847278
000320 a7 9d e4 38 44 e9 89 bd 74 e1 25 b7 5f 43 b3 b9
       0.00010901252 -0.06733945 -9.887259e-06 -0.00034191736
000330 e2 e9 03 39 a9 aa 64 3b 2c 78 05 3b 63 06 10 bd
       0.00012580262 0.003489176 0.0020365817 -0.03516234
000340 47 43 e6 37 f3 a7 60 3b 19 e5 72 b7 9c f4 4e bc
       2.7449465e-05 0.0034279793 -1.4477665e-05 -0.012631562
000350 95 6b c3 b6 05 e3 30 b9 0e e8 ab b7 f3 5d 5e 3a
       -5.823977e-06 -0.0001686924 -2.0492847e-05 0.00084826275
000360 b7 16 14 b8 f4 df a8 3d a7 1d ef 37 d9 25 f3 3d
       -3.5307105e-05 0.08245841 2.8504828e-05 0.11872453
000370 57 e1 23 ba 10 28 6c 3d ef 36 90 37 e5 d5 9e 3d
       -0.0006251535 0.057655394 1.7191718e-05 0.07755641
000380 a3 ab 9b b9 13 e7 ca 3d 03 09 78 37 93 a3 7e 3d
       -0.00029691783 0.09907355 1.478405e-05 0.062167715
000390 1a 33 cb b7 d9 86 f6 3d 8d ce f7 37 62 a2 12 bc
       -2.4223282e-05 0.12037439 2.9540877e-05 -0.008949848
0003a0 79 1c 9d 3a 5c 7f 3b 3d c5 6c 15 b7 d3 35 23 bd
       0.0011986635 0.045775756 -8.906417e-06 -0.039846253
0003b0 49 2e 7f b7 ca 5d f8 bb db 20 ed 36 3b bd b1 3b
       -1.5209961e-05 -0.00757954 7.0669753e-06 0.0054241694
0003c0 c4 48 24 b5 b3 19 6e bd ed 1d 53 37 fb ba ae 3d
       -6.120065e-07 -0.058129977 1.2583548e-05 0.085317574
0003d0 3c 0a 03 b8 0f fa 25 3c 3a a6 b0 37 f8 16 f8 3a
       -3.1242365e-05 0.010130419 2.105824e-05 0.0018927744
0003e0 f2 85 9d 36 b5 1d e1 ba c9 ae 19 b6 ef 22 72 3c
       4.694558e-06 -0.0017174991 -2.2900515e-06 0.014778837
0003f0 de 81 12 35 ea 5c 9d bb 7a 1d 11 bb 8d e6 bf bd
       5.457822e-07 -0.004802336 -0.0022142814 -0.09370146

conv1.lin_r.bias f4 [512]
000000 71 6a 95 bc f2 c3 4b 3e 95 12 17 be ba 12 83 3e
       -0.018239232 0.19898966 -0.14753182 0.25600225
000010 32 59 7c 3e 1e 8e 09 be 14 1d 5a bc 47 7b 64 bb
       0.246434 -0.1343312 -0.013312597 -0.0034863518
000020 db 6d 75 bc 58 1b 43 3e 30 4e 6a be 18 eb 7f bc
       -0.014979805 0.190534 -0.22881389 -0.015620016
000030 05 51 9d 3b 1c d2 02 be c5 1c a9 be 91 d6 4d 3d
       0.004800918 -0.12775463 -0.33029762 0.050253455
000040 5b fe 38 3e f1 ca 02 be 9f cc 08 be 9e 83 8f 3d
       0.18065779 -0.12772729 -0.13359307 0.07007526
000050 58 10 ca 3d f9 fa a2 39 89 a8 69 3d 2c 03 17 3e
       0.098663986 0.00031086037 0.057045493 0.14747304
000060 99 64 02 bd b0 5d c8 bc 5e be 0d bc 61 fc 28 3e
       -0.03183422 -0.024458736 -0.008651344 0.16502525
000070 54 c5 bc 3d c1 bd 25 bd 5b fd 07 bb e0 75 46 be
       0.09217325 -0.040464167 -0.0020750377 -0.19380903
000080 49 64 a7 bc 75 0c 5d bc 39 00 27 3d cb 26 db 39
       -0.020433562 -0.0134917395 0.040771697 0.00041799838
000090 8c 0b ca b8 8a 9d 50 b9 b6 36 fb bc 22 93 8b 3c
       -9.6342614e-05 -0.00019895114 -0.030665737 0.017037932
0000a0 4c e4 84 3d ec 92 46 3e 9c e6 28 3e 0e 8a ac 3d
       0.06488857 0.19391984 0.1649422 0.08424769
0000b0 a1 f4 11 3e 1a 78 3f 3e 6a 8b de 36 8d d9 1d bd
       0.14253475 0.18698159 6.6323455e-06 -0.03853755
0000c0 e0 c1 84 be 3c 42 e7 bc 89 fa 63 3e 9c 37 5e 3d
       -0.25929165 -0.028229825 0.2226354 0.054252252
0000d0 7e b1 54 be ee 4f 69 bd 7c 16 18 be f4 d4 a9 3c
       -0.20770833 -0.056960993 -0.14852327 0.020731427
0000e0 13 0d 42 be e8 40 f8 bd 98 79 82 3d bb 01 97 3e
       -0.189503 -0.12121755 0.063708484 0.29493508
0000f0 54 c8 85 bb f6 33 bc bd 01 10 db bd 92 3f 0a 3e
       -0.004082719 -0.09189598 -0.10696412 0.13500813
000100 0d 66 31 3c 85 84 14 3e 84 a6 2b bd b7 15 02 3d
       0.010827553 0.14503677 -0.04190685 0.03175899
000110 ce 27 f6 3c 60 92 dd 3b 80 92 06 38 2f 34 27 3d
       0.030048277 0.006761834 3.208453e-05 0.04082125
000120 0f 63 0b be e0 8a 8c bd 63 33 13 be 65 ed 0b 3e
       -0.13612007 -0.06862426 -0.14375071 0.13664778
000130 55 81 a0 ba f0 1d 52 3e 9d a3 ae b6 9d 5b bd bd
       -0.0012245575 0.20519233 -5.204651e-06 -0.092459895
000140 88 42 b2 3d f0 19 56 bd b4 d1 a7 3d 64 c9 e1 bd
       0.08704096 -0.05227083 0.081942946 -0.1102474
000150 2e f9 a5 3c 6a b6 12 bc 90 79 f4 3b 57 e4 0a 3e
       0.02026042 -0.008954624 0.0074607804 0.13563667
000160 86 49 a9 bb 5e 6b 73 b9 7b 9b aa 3c ca d0 3a be
       -0.0051662354 -0.00023214283 0.020826092 -0.18243709
000170 ee 91 1a 3e 32 e2 ad bc 85 47 3f be 53 37 8b 3d
       0.1509473 -0.021226022 -0.18679626 0.06797662
000180 13 91 7e bd 25 df 04 3b 8c 1b 0a 3d 63 02 95 be
       -0.062150072 0.0020274606 0.033717677 -0.29103383
000190 1d 39 a9 b9 5f ef 21 3c d7 0e 86 bc 8c 65 dc 3d
       -0.00032276745 0.009883731 -0.016364498 0.10761556
0001a0 85 f7 5a 3b 43 b5 97 bc 77 9d 87 bd 15 a9 49 3d
       0.0033411693 -0.01851905 -0.06621831 0.049233515
0001b0 68 89 8f b2 76 db 06 39 8e cc d0 3d e7 fb 46 b9
       -1.6709876e-08 0.00012860991 0.10195266 -0.00018976592
0001c0 e2 73 09 3d 71 16 f2 3d 6b 8a 77 b9 43 f3 a2 ba
       0.03355778 0.118206866 -0.0002360732 -0.0012432117
0001d0 3c d6 71 3e 8c f9 93 bc c4 93 fa b6 bf 12 3d 3e
       0.2361688 -0.01806333 -7.467783e-06 0.18464182
0001e0 dc 33 69 3c 81 78 0a be 0c 3d 87 37 94 26 89 3c
       0.014233556 -0.13522531 1.6121681e-05 0.016742028
0001f0 df 28 7d be 3a 25 31 3b 28 02 0b b9 f6 e3 ba 3d
       -0.24722622 0.0027030245 -0.00013256876 0.09125511
000200 99 6e 77 bd 67 4f a2 bc 75 32 41 b9 3e 6f c3 3d
       -0.06040821 -0.019813253 -0.00018424711 0.09542702
000210 28 6f 63 3e b8 4c e4 3c 77 31 db 3d c3 69 75 3e
       0.22210371 0.027868614 0.10702794 0.23966126
000220 f2 a7 b1 bd 97 9d db bb a4 88 00 be ca 90 84 be
       -0.08674611 -0.006702136 -0.12552124 -0.25891715
000230 ba 1b c4 bd cd fc 97 bd 29 ff 9f 3d e8 9b 3c bd
       -0.09575601 -0.07421265 0.0781234 -0.04604712
000240 24 bb a1 3e bc 84 8f be 51 fd 60 3e ce 9a 7a bc
       0.3158809 -0.28030956 0.21971633 -0.015295697
000250 4e 56 00 3e 2b a6 b0 39 90 30 4b bd 6b 06 0a 3d
       0.12532923 0.0003369314 -0.04960686 0.033697527
000260 19 04 bb 3b f7 40 93 be 7e c1 a0 bd c2 56 e5 bd
       0.0057072756 -0.28760502 -0.07849406 -0.11198188
000270 ba 01 6a 3d ce 01 0c 3d a7 b1 29 3e 9d 93 52 3a
       0.057130553 0.03418141 0.16571675 0.00080328604
000280 6c 16 ea 39 00 9d 1f 3e da 33 b2 3e be e3 38 3e
       0.00044648664 0.15587234 0.34805185 0.18055627
000290 c2 b3 23 be 0f b2 06 3e 52 07 2b be 60 d8 f2 3d
       -0.15986541 0.13153861 -0.16702011 0.118576765
0002a0 07 e7 1b 3e a7 56 8c bd 4d 32 c3 3c 00 67 84 be
       0.15224849 -0.06852465 0.023827696 -0.25859833
0002b0 fe 57 af bd 98 9e 44 3d 26 e9 5b 3c f9 c1 16 be
       -0.08561705 0.04800281 0.013422286 -0.14722432
0002c0 1d c8 b3 bd b1 ba 1b bd 32 7b 77 be 10 e1 cd bd
       -0.08778403 -0.03801984 -0.24168089 -0.10052693
0002d0 a6 f1 e8 bc 5e c8 e5 3a 9c 84 02 3e e8 15 13 be
       -0.02843554 0.0017531028 0.12745899 -0.14363825
0002e0 e0 92 bd bd 4a 94 7c bd 92 cc 72 bc 43 8e 05 be
       -0.0925653 -0.061664857 -0.014819281 -0.1304255
0002f0 e8 5f 0a 3c 3e 51 cf 3d 26 5d 9b be 5c e2 86 3e
       0.008445717 0.101229176 -0.30344504 0.26344573
000300 7f 93 b8 39 79 28 39 39 a9 c2 c4 bd 0b 8a 1e 3d
       0.00035205108 0.00017658052 -0.09607441 0.038705867
000310 d1 c3 ab 3e a4 8f e9 3b a5 98 d8 b9 45 48 03 3d
       0.33547834 0.007127719 -0.0004131246 0.032051343
000320 3f 6d 8c be 22 5e 8a be 72 d4 3b be 05 f6 af 3d
       -0.27427098 -0.27024943 -0.1834276 0.085918464
000330 ce 63 1e 3c 98 59 83 3d 8a 4a d3 bd ec f0 4b 3e
       0.00966735 0.06413573 -0.103169516 0.19916123
000340 48 a2 20 3d e0 6b 53 33 c6 ff 03 be d9 d5 35 3e
       0.039217263 4.9225378e-08 -0.12890539 0.17757358
000350 e7 fc 52 bd 4e d9 30 3e 6d 21 de bb 28 28 8c be
       -0.051510718 0.17270395 -0.006778887 -0.27374387
000360 34 62 13 be 60 fb e3 3c 8c 18 94 3a ae 94 c6 bd
       -0.1439293 0.027829826 0.001129882 -0.09696327
000370 d4 93 e6 3d ab 4c f0 bc ab af 3d 3e 52 ce 39 3d
       0.11258665 -0.029333433 0.18524043 0.045362778
000380 65 47 36 bc 36 c3 c1 bc f2 a5 c8 bc 13 c3 15 b8
       -0.01112542 -0.023652654 -0.024493191 -3.5706045e-05
000390 a5 63 ea b6 16 21 13 3e e6 24 09 3e c3 9c 7f bd
       -6.9853436e-06 0.1436809 0.13392982 -0.06240536
0003a0 ec 59 bb 3c ba ed 10 3b 16 15 25 bb 95 e8 58 bd
       0.022870027 0.0022114352 -0.002518957 -0.052956183
0003b0 d8 77 1d 3e 2a ba 04 3e a4 11 3d be ab 70 2c 3d
       0.15377748 0.12961641 -0.1846376 0.042099636
0003c0 c3 56 98 3c ff 35 ec 3c 43 59 a0 3e 6c 25 8c 39
       0.018596059 0.028834341 0.313181 0.00026730762
0003d0 68 91 34 be 2f c7 37 bd 29 6b ca 3b 91 1f 0d bd
       -0.17633593 -0.04486769 0.0061773253 -0.034453932
0003e0 d7 48 eb bc ae 51 00 bc 2f 31 82 3e aa 7b 0f 37
       -0.028721256 -0.007831974 0.2542815 8.552257e-06
0003f0 86 4a dc 3d f0 10 65 bd e9 44 11 bd db a3 0a 3a
       0.10756402 -0.055924356 -0.03546611 0.00052886986

conv2.att f4 [1, 1, 64]
000000 b1 4b 49 3e 7a 71 a3 3d 6c 36 25 be a2 c4 28 3e
       0.1965778 0.07980628 -0.16134042 0.1648126
000010 71 c1 42 be a5 d3 36 3b e1 b6 9b be 68 90 96 bd
       -0.19019105 0.0027897146 -0.30412963 -0.07351762
000020 e1 35 9b bd 8e 87 3d be 0c 4a 26 be 19 1b 9a 3d
       -0.07578636 -0.18508741 -0.16239184 0.075247
000030 58 5b 98 bd a5 6d 0f 3c 48 6b 50 be ef 1b 7b 3e
       -0.074392974 0.008754169 -0.20353425 0.24522375
000040 20 b8 86 bd a7 3e 37 3d db 8c 53 be b7 e1 62 bd
       -0.06578088 0.044737484 -0.20659201 -0.05539104
000050 79 c0 90 be b1 81 16 be 98 4e 96 bd dd 59 2b be
       -0.28271845 -0.14697911 -0.07339209 -0.16733499
000060 78 bb 3e 3e 28 10 9b be 5d 42 1b 3e f2 94 f3 3d
       0.18626201 -0.30285764 0.15162034 0.118936434
000070 6e 45 93 bd f0 11 56 be 70 cd 7a be b4 81 86 be
       -0.07190977 -0.2090528 -0.2449243 -0.2627083
000080 90 5b 15 be df e6 a2 3d be c3 59 be a9 e1 57 be
       -0.1458571 0.079541914 -0.21266076 -0.21082176
000090 a8 6a 7b bd 6f 7c 75 3e ac 13 2d bd 42 4f 6a 3e
       -0.061381012 0.23973249 -0.04225509 0.22881797
0000a0 a1 5e 94 be d4 4b 7d be 16 b2 81 3d 4b 76 85 be
       -0.28978446 -0.24735957 0.06332795 -0.26066813
0000b0 57 32 42 bd 1d 32 7e be 73 d1 5c be f5 29 34 3d
       -0.04741129 -0.24823804 -0.21564274 0.043985326
0000c0 df b0 0a 3e c1 4f 70 3e f7 d5 7a 3e 0a 5a 3f 3e
       0.13544033 0.23467924 0.24495684 0.18686691
0000d0 ba 39 49 3d 2e 29 7a 3e f8 54 75 3e 63 9d ea 3c
       0.049127318 0.24429771 0.23958194 0.028639501
0000e0 aa 3e c6 bd a6 49 13 be 4e a8 58 be bb 43 2b 3e
       -0.09679921 -0.14383563 -0.21157953 0.16725056
0000f0 60 80 82 3e 10 59 01 be 36 4c 6a 3d d3 bd a4 bc
       0.25488567 -0.12631631 0.057201587 -0.020110046

conv2.bias f4 [64]
000000 94 31 85 3c 75 85 1b 3d 25 a1 e0 3c 83 a3 ed 3c
       0.016258992 0.03796907 0.02742059 0.029008633
000010 e9 53 09 bd 22 5f 03 3d 91 44 02 3b 29 17 45 bd
       -0.03352729 0.032073148 0.0019877295 -0.04811779
000020 99 81 b8 bc a9 30 43 bc bd 11 70 3b 71 ad 26 3d
       -0.022522734 -0.011913457 0.0036631667 0.04069275
000030 4f 34 dc 3c 30 36 0b 3d fb 89 0a 3d aa 60 c6 bc
       0.026880411 0.033987224 0.033822995 -0.024216015
000040 8f f7 b6 bc a7 6d 75 3d d4 54 21 3c 54 18 d7 3c
       -0.022334842 0.059919026 0.009846885 0.026256718
000050 37 f7 85 bd 39 a6 9e bc 03 0e 3f 3d 6b e2 5d 3d
       -0.06541293 -0.01936637 0.046644222 0.054171007
000060 d6 95 90 bc a7 9b d3 bc 52 54 ec bc 9b 4a 7f bc
       -0.017649572 -0.025831057 -0.0288488 -0.015581752
000070 e1 b8 97 3c ea 0c 02 3b b4 8e 20 3b de e6 e5 bc
       0.018520774 0.0019844123 0.002449912 -0.028064188
000080 a9 7d 57 bc 08 eb bb 3c 68 4c 01 bd 8e ea c4 3b
       -0.013152518 0.02293922 -0.031567007 0.0060094064
000090 5b cb c9 3c ce dd 9d 3c ef 32 de bc 26 19 ab 3a
       0.0246331 0.019270804 -0.027123896 0.001305376
0000a0 e8 d7 cd 3c e6 4d 85 3d 27 08 76 bc 7e 7b 62 3d
       0.025127366 0.065089986 -0.015016592 0.055293553
0000b0 04 6a a1 3c c6 cd 72 bd 6b 35 d0 bb 75 40 5a 3c
       0.019703873 -0.059278272 -0.006354024 0.013321032
0000c0 1e 6f 16 3c 01 96 50 3d 7c 12 1e bd 9a e7 01 3d
       0.009181766 0.050924305 -0.038591847 0.031715013
0000d0 07 8a 33 3d 84 96 1b 3d bb 8b 26 3d 30 fa f4 3c
       0.043832805 0.03798534 0.0406606 0.029904455
0000e0 19 53 13 bd 7a bf ff 3b f7 6a 10 3d 3c 58 47 bd
       -0.03596792 0.007804808 0.03525826 -0.04866813
0000f0 1a 6f 80 bc bc d7 02 bd 8b 42 16 3d 58 9c 21 bd
       -0.015677977 -0.03194402 0.036684554 -0.03945574
